Training_Parameter_Storage/0517/hd003formthres_5v1_vel0108_collide_001/actor_prey.pt (torch, 830635 bytes, 21 tensors)

base.feature_norm.weight f4 [22]
0	0x3f8918d7	1.0710706
1	0x3f8b5b08	1.0887156
2	0x3f7e0a24	0.99234223
3	0x3f7ca171	0.9868384
4	0x3f7883bd	0.97076017
5	0x3f78a024	0.97119355
6	0x3f780ef8	0.9689784
7	0x3f76de5d	0.9643305
8	0x3f7a97ca	0.9788786
9	0x3f7dff5f	0.9921779
10	0x3f75e158	0.9604697
11	0x3f740c60	0.9533138
12	0x3f852fc2	1.04052
13	0x3f836015	1.0263697
14	0x3f88d95c	1.0691333
15	0x3f838636	1.0275333
16	0x3f8238c4	1.0173573
17	0x3f833707	1.0251168
18	0x3f87591d	1.057407
19	0x3f86e249	1.0537807
20	0x3f8643a9	1.0489398
21	0x3f85f033	1.0463928

base.feature_norm.bias f4 [22]
0	0x3bdd9334	0.0067619327
1	0x3c90f73c	0.017696016
2	0xbbd0cd45	-0.0063721263
3	0xbcc09af9	-0.023511397
4	0xbc592cd1	-0.013255314
5	0x3b075f58	0.0020656195
6	0x3baef383	0.0053390875
7	0xbbd2cb11	-0.006432899
8	0xb857d789	-5.1460727e-05
9	0xbcc427d8	-0.02394478
10	0x3cc409ae	0.023930397
11	0xbc344e56	-0.011005005
12	0x3c0dadeb	0.008647422
13	0xbc0383dc	-0.008027043
14	0x3bae9468	0.00532775
15	0x3c477770	0.012174472
16	0xbbc631f7	-0.0060484367
17	0x3c5f07b6	0.013612678
18	0xbbfbf791	-0.0076894243
19	0x3d079022	0.03309644
20	0x3c3f9484	0.011693124
21	0x3a931dfa	0.0011224144

base.mlp.fc1.0.weight f4 [256, 22]
0	0xbda36c02	-0.07979585
1	0xbdd6c269	-0.104862995
2	0x3d706f57	0.058699932
3	0x3dc7a451	0.09748138
4	0xbd12c264	-0.035829917
5	0x3ccd47b5	0.025058607
6	0x3bf5af59	0.0074977097
7	0x3cf3eeaa	0.02977689
8	0x3d138802	0.03601838
9	0xbe156506	-0.14589319
10	0xbdb440fe	-0.08801459
11	0xbc28e175	-0.010307659
12	0xbe0772e0	-0.13227415
13	0x3d0d028a	0.03442625
14	0xbd649b0a	-0.05581192
15	0x3ce97453	0.02849785
16	0x3d450acf	0.04810601
17	0xbc9a17b1	-0.018810125
18	0x3decd3a6	0.11563806
19	0x3d1d3a2b	0.03838555
20	0x3da08b0c	0.07839021
21	0x3d8705d1	0.06592906
22	0x3c9a30d6	0.018822115
23	0xbe3dcc58	-0.18534982
24	0xbd4215db	-0.047384124
25	0x3bcb95f1	0.006212943
26	0x3e25854b	0.16164128
27	0xbbd0bd55	-0.0063702264
28	0x3e18d0dd	0.14923425
29	0xbe034d25	-0.12822397
30	0x3d8dd3eb	0.06925186
31	0x3d4f0cf9	0.05054948
32	0x3d05378a	0.03252367
33	0x3c53ea8b	0.012934337
34	0x3d8eac47	0.06966453
35	0x3d05ff2b	0.03271405
36	0x3dcae591	0.099070676
37	0x3de35e1e	0.11101936
38	0xbdb7f136	-0.08981554
39	0xbcd72756	-0.026263874
40	0xbd267d27	-0.0406467
41	0xbbcf9e96	-0.0063360436
42	0xbb164d9f	-0.002293445
43	0x3d905195	0.070468105
44	0x3e111740	0.14169025
45	0x3e010b48	0.1260196
46	0x3b667471	0.003516462
47	0x3d279603	0.040914547
48	0x3dac1a05	0.084034
49	0xbe081067	-0.13287507
50	0x3de5f433	0.11228218
51	0x3dc8f1ce	0.098117456
52	0x3da30efa	0.07961841
53	0xbd9efd0f	-0.07763111
54	0x3cbcc0ed	0.023041213
55	0xbd98c2d8	-0.074590385
56	0x3d438cea	0.047741808
57	0x3ced3083	0.028953796
58	0x3dce23db	0.10065433
59	0xbde5c2f9	-0.11218829
60	0xbd4ed115	-0.050492365
61	0x3b556109	0.0032559058
62	0x3e181ef6	0.1485556
63	0x3d96aec2	0.07357551
64	0xbd2ca2a8	-0.04214731
65	0xbe376a1c	-0.17911571
66	0xbe925a41	-0.28584483
67	0x3dac2572	0.084055796
68	0x3de23bc8	0.110465586
69	0x3d70c5da	0.058782436
70	0xbd1ef571	-0.03880829
71	0xbcd2eaec	-0.025746785
72	0x3db21bbf	0.086966984
73	0xbdab9935	-0.08378831
74	0x3d0863aa	0.033298172
75	0xbda61902	-0.081102386
76	0xbd8abfb1	-0.067748435
77	0x3dacdeaa	0.08440907
78	0xbd360d52	-0.044446297
79	0x3ce7868c	0.0282624
80	0x3d9a901c	0.07547018
81	0x3c93e5bf	0.018053887
82	0x3cc5a20c	0.024125122
83	0x3d21b5da	0.039480068
84	0x3d53ae0f	0.051679667
85	0x3d9e4cde	0.07729505
86	0x3e1054b1	0.14094807
87	0x3bf684aa	0.007523139
88	0x3e1a1fc7	0.15051185
89	0xbc8beaca	-0.01707973
90	0xbd562a1f	-0.052286264
91	0x3e124434	0.1428383
92	0xbd8f6315	-0.0700132
93	0x3d105168	0.035233885
94	0xbdb87843	-0.09007313
95	0x3c431410	0.011906639
96	0x3c6e7774	0.014554847
97	0x3ccabef2	0.024749253
98	0xbb56975c	-0.0032744026
99	0xbe654dfc	-0.2239303
100	0x3e094a12	0.13407162
101	0xbc35bb34	-0.011091996
102	0xbdaecd49	-0.08535249
103	0x3c3b3a59	0.011427485
104	0xbe1020b8	-0.14074981
105	0xbcc6913e	-0.024239179
106	0xbdbf0994	-0.09327999
107	0xbde8a90e	-0.113603696
108	0x3cd2dfcc	0.02574148
109	0x3ca75327	0.020425392
110	0x3ca8bc2c	0.02059754
111	0x3ddec299	0.1087696
112	0x3d838726	0.06422262
113	0xbd7e95b2	-0.06215448
114	0xbd312fc3	-0.04325844
115	0xbd218b5b	-0.03943954
116	0xbe611cdc	-0.21983665
117	0xbe03242d	-0.12806769
118	0xbd2ce367	-0.042209055
119	0x3d375cdb	0.04476629
120	0xbb217fab	-0.0024642746
121	0xbcc6f6ce	-0.024287608
122	0x3d08fda5	0.03344502
123	0xbd2430ea	-0.04008571
124	0x3e1002a8	0.14063513
125	0xbd9e4234	-0.07727471
126	0xbd8d60f9	-0.06903262
127	0xbe0984c0	-0.13429546
128	0xbd8dfa3f	-0.06932496
129	0xbe035bfd	-0.1282806
130	0x3c84cb88	0.016210333
131	0x3d8fbaa4	0.07018021
132	0xbd7893c1	-0.060687784
133	0xbdb9e2db	-0.09076472
134	0xbddba5f1	-0.1072501
135	0x3dadda1a	0.08488865
136	0x3db46668	0.08808595
137	0xbdcc9032	-0.099884406
138	0x3d9fc9be	0.07802151
139	0xbe175d06	-0.1478158
140	0x3e1fbf46	0.15600309
141	0xbdb3f3f7	-0.08786767
142	0xbd9cd2ba	-0.076573804
143	0x3d327058	0.04356417
144	0xbd43b464	-0.047779456
145	0xbdbe3bea	-0.092887715
146	0xbbb94876	-0.00565439
147	0x3cb1d973	0.021710133
148	0x3d9bb748	0.076033175
149	0x3deb6533	0.114939116
150	0xbdc37c60	-0.09545207
151	0xbbaf8a02	-0.005357028
152	0xbd079c6f	-0.03310817
153	0x3e3ccb2e	0.18436882
154	0xbd0fb99b	-0.035089117
155	0xbd8d37e8	-0.06895429
156	0xbe02558e	-0.12727949
157	0x3c93e9bb	0.018055787
158	0x3e4cf824	0.20016533
159	0xbc986e4a	-0.018607277
160	0xbccfe815	-0.02537922
161	0xbb7b818f	-0.0038376783
162	0xbe28e798	-0.16494596
163	0x3ca17ef5	0.019713858
164	0x3d5e230d	0.054232646
165	0xbdbba530	-0.091623664
166	0x3d3c306d	0.04594462
167	0x3cb5e94a	0.022205967
168	0x3e351871	0.17685105
169	0x3d4b072c	0.049567387
170	0x3bc54b2d	0.0060209245
171	0xbdef6645	-0.11689428
172	0xb81c17e1	-3.7215537e-05
173	0x3ca40677	0.020022614
174	0xbca4cce3	-0.020117229
175	0xbbf25d74	-0.0073963944
176	0x3cdd17ec	0.026988946
177	0xbce70a58	-0.028203174
178	0xbe0752bd	-0.13215156
179	0xbdc25e8b	-0.09490689
180	0x3b83b82a	0.004019757
181	0x3c9283c7	0.017885102
182	0xbd2199c0	-0.039453268
183	0xbdf10ce9	-0.117700405
184	0x3df60b20	0.12013841
185	0xbdc430e6	-0.09579639
186	0x3cded6c8	0.027202025
187	0x3caac9f1	0.020848246
188	0xb8df425c	-0.00010645829
189	0xbe008821	-0.12551929
190	0xbd6cc111	-0.05780131
191	0xbd70bb1b	-0.058772188
192	0xbdabf0ce	-0.08395539
193	0xbd4b2857	-0.049599018
194	0x3e092e96	0.13396677
195	0xbdd240f8	-0.10266298
196	0xbc4e8145	-0.012604062
197	0xbe0357b7	-0.1282643
198	0xbadbefd2	-0.0016779846
199	0x3d7eda6c	0.062220022
200	0x3bfdfd44	0.007751139
201	0xbd81d065	-0.06338576
202	0xbd2d41d5	-0.04229911
203	0xbc5b416d	-0.013382298
204	0x3e6285de	0.22121379
205	0x3da164b9	0.078805394
206	0x3d4b07fc	0.04956816
207	0xbe108e9f	-0.14116906
208	0xbe002199	-0.12512816
209	0x3cf1f107	0.029533876
210	0xbd93fabb	-0.072255574
211	0xbe1e458e	-0.1545622
212	0xbe396e00	-0.18108368
213	0x3dd5d3db	0.10440799
214	0xbde611be	-0.11233853
215	0xbd91f11e	-0.071260676
216	0xbd93d6d4	-0.072187096
217	0xbd588c82	-0.052868374
218	0x3d877315	0.06613747
219	0x3d959f3b	0.073057614
220	0xbe5cb13c	-0.21551985
221	0xbbb58557	-0.005539577
222	0xbbc6461d	-0.0060508386
223	0x3d8b0183	0.06787398
224	0xbc9b04b5	-0.018923143
225	0xbd8b227b	-0.06793686
226	0x3d919311	0.07108129
227	0xbc8a4648	-0.016879216
228	0x3cef724b	0.029229304
229	0x3deb4cf6	0.114892885
230	0x3d9b7421	0.07590509
231	0xbd010571	-0.03149933
232	0x3e924bf9	0.28573588
233	0x3c36ff79	0.011169308
234	0xbe46e1a2	-0.1942201
235	0xbd8873b3	-0.06662693
236	0x3cb9a7d1	0.022663029
237	0x3dab0a94	0.08351627
238	0xbdd7522f	-0.10513722
239	0x3d334698	0.043768495
240	0x3cc279c9	0.023739712
241	0x3c98dcca	0.018659968
242	0x3e16c39c	0.14723057
243	0xbd13122b	-0.035906
244	0x3e2ce2b5	0.16883357
245	0x3d6eaffb	0.058273297
246	0xbd4aa3f9	-0.049472783
247	0x3d659002	0.05604554
248	0xbdc25152	-0.09488167
249	0x3ae65a65	0.0017574547
250	0x3c104971	0.008806572
251	0x3e1a98a0	0.15097284
252	0xbd5700cf	-0.052491006
253	0x3c481831	0.012212799
254	0xbd1fca80	-0.03901148
255	0x3b97d6f4	0.0046337787

base.mlp.fc1.0.bias f4 [256]
0	0xbbc5d718	-0.006037604
1	0x3b188ee2	0.0023278524
2	0xbc7e8d23	-0.015536579
3	0xbc8e8ff4	-0.017402627
4	0xbcf80936	-0.03027783
5	0xbcfbf1f1	-0.030755015
6	0xbc555ed7	-0.0130231
7	0x3b818695	0.003952811
8	0xbbe41062	-0.006959961
9	0x3af400a9	0.0018615919
10	0x3b34af24	0.0027570212
11	0xbc9eb3b6	-0.019372802
12	0xbc7ef16c	-0.015560489
13	0x3d2a4e22	0.04157842
14	0x3c847bca	0.016172308
15	0xbb6c7a88	-0.0036083777
16	0x3c6b222b	0.014351408
17	0xbc4fc3c7	-0.012680954
18	0xbc4f7124	-0.012661252
19	0x3c8b0e50	0.016974598
20	0x3cbcb83d	0.02303707
21	0x3afb98b5	0.001919529
22	0x3b7d2bf1	0.0038630927
23	0x3c5826bf	0.013192832
24	0x3be90a23	0.007111804
25	0x3b5dee92	0.0033864123
26	0xbc9bee74	-0.019034602
27	0xbcdb73d2	-0.026788626
28	0xbcb82cc2	-0.02248228
29	0x3bfa1707	0.0076321396
30	0xbbbf4c24	-0.005837934
31	0xbcfcc871	-0.030857297
32	0x3c4bf726	0.0124490615
33	0xbbf55143	-0.007486494
34	0xb99e146a	-0.00030151318
35	0x3cb8f9af	0.022579996
36	0x3c8367d7	0.016040726
37	0x3bb01ad6	0.005374293
38	0xbb7fd677	-0.0039037743
39	0xbbb556d2	-0.0055340314
40	0xbb51d603	-0.003201843
41	0xbc2be6cf	-0.010492041
42	0x3c6f6bef	0.014613136
43	0x3b02db3f	0.0019967107
44	0x3c26a6ca	0.010171602
45	0x3b09b9a8	0.00210152
46	0xbb4b40b8	-0.0031013917
47	0xbc2adbc4	-0.010428373
48	0xbccef7f4	-0.025264718
49	0x3bf7a119	0.007557046
50	0xbbaec627	-0.00533368
51	0xbc8dd1a1	-0.017311873
52	0x3c0698b3	0.008215117
53	0xbb1cb81f	-0.0023913456
54	0x3c39110d	0.011295569
55	0xbc041558	-0.008061729
56	0xbca1a59b	-0.019732287
57	0x3caf8478	0.02142547
58	0xba85bb20	-0.0010202862
59	0xbc8d69d8	-0.017262384
60	0xbb5a0743	-0.0033268488
61	0xbce38c57	-0.02777688
62	0xbc235c60	-0.009970754
63	0x3c5e8336	0.013581088
64	0xbce45c31	-0.027875992
65	0xbc037a2e	-0.008024735
66	0xb9b00fb1	-0.00033581027
67	0xbce65c25	-0.02812011
68	0xbcc244ac	-0.023714386
69	0x3bb58655	0.0055396953
70	0xbc9fa0d8	-0.019485876
71	0x3c527871	0.012846098
72	0xbd1e2094	-0.038605288
73	0x3c58545f	0.013203709
74	0x3b025d21	0.0019891935
75	0x3cc727e2	0.02431101
76	0xbbc4a425	-0.006001013
77	0x3c38d41e	0.011281041
78	0xbcfd36ec	-0.030909978
79	0x3c5bfbc5	0.013426726
80	0xbc713d28	-0.014724053
81	0x3a8561ef	0.0010176281
82	0xbbcd6788	-0.0062684454
83	0xbcaec180	-0.021332502
84	0xbccd854c	-0.025087975
85	0xbc2fa091	-0.010719434
86	0xbc8a016a	-0.016846377
87	0xbc57eecf	-0.013179495
88	0x3bb9438a	0.0056538032
89	0x3c4e4e65	0.012591933
90	0xbd17de2f	-0.037077125
91	0xbcda9120	-0.02668053
92	0xbc21a48d	-0.009865892
93	0x3ba149b3	0.0049221157
94	0xbcf2e4c3	-0.029650098
95	0xbc9f1aba	-0.019421924
96	0x3a41615e	0.00073768746
97	0x3c1df7f0	0.009641632
98	0xbcea15cc	-0.028574847
99	0x3bb1b0f1	0.0054227044
100	0x3bdc8329	0.0067295027
101	0xbb86cc4c	-0.0041137096
102	0xbcd1521b	-0.025551846
103	0x3b842204	0.0040323753
104	0xbbf69418	-0.0075249784
105	0x3c5fcd41	0.013659776
106	0x3cc62775	0.024188736
107	0xbc894097	-0.016754432
108	0x3b56ae6e	0.0032757777
109	0x3a5dac62	0.0008456168
110	0x3c60a2af	0.013710662
111	0xbb5c38aa	-0.003360311
112	0x3b61ccf2	0.0034454432
113	0xbcdc8692	-0.026919637
114	0x3ca685e5	0.020327518
115	0xbc779b2b	-0.0151126785
116	0xbc1c726b	-0.009548764
117	0xbd0e1073	-0.034683656
118	0xbc659100	-0.0140116215
119	0x3c94e846	0.018177163
120	0x3ccbd80e	0.024883296
121	0xbc4edd2d	-0.012625975
122	0x3b05e4b8	0.0020430516
123	0xbb5df667	-0.003386879
124	0xb98539ae	-0.00025410712
125	0xbcae298f	-0.021260051
126	0xba168aed	-0.00057427475
127	0x3cb70b84	0.022344358
128	0x3b412cc1	0.0029476138
129	0x3bd65c08	0.0065417327
130	0x3cc02040	0.023452878
131	0xbbe1fda1	-0.00689669
132	0x3b176f88	0.002310725
133	0xbc2e564a	-0.01064069
134	0xbc55f0b7	-0.013057879
135	0x3cb11802	0.021617893
136	0xbbbb9cf4	-0.0057254974
137	0xbc1567e5	-0.009119009
138	0xba806055	-0.0009794334
139	0xbc037651	-0.008023814
140	0x3aceefcc	0.0015788018
141	0x3bfd854e	0.0077368384
142	0x3badff74	0.0053099934
143	0xbc3e5059	-0.011615836
144	0x3bb94055	0.005653421
145	0x3cc914de	0.024546083
146	0xbb565e9d	-0.0032710203
147	0xbc0ed3fb	-0.008717532
148	0x3c6fd7ae	0.014638824
149	0xbc482d2d	-0.012217802
150	0xbc79af9d	-0.015239623
151	0xbcc5a0be	-0.0241245
152	0xba885d05	-0.0010403699
153	0xbc5eb8d9	-0.013593876
154	0xbbadafcd	-0.005300498
155	0x3bff90b8	0.0077992342
156	0x3c9c84d4	0.019106306
157	0x3c0fc06e	0.008773906
158	0x3b894387	0.004188958
159	0x3b0f93fd	0.0021908276
160	0x3c458880	0.01205647
161	0x3b919f52	0.0044440413
162	0xbc9cc7f5	-0.019138316
163	0x3c5c6ed3	0.013454157
164	0x3b5bbf41	0.0033530744
165	0x3be975c2	0.0071246335
166	0xbbfd6f47	-0.0077342126
167	0xbc93bf6a	-0.01803561
168	0xbc865d91	-0.016402038
169	0xbc38e1d6	-0.011284312
170	0xbb76ed94	-0.0037678229
171	0xbc1c233b	-0.009529884
172	0xbb775eef	-0.0037745794
173	0xbbe7ae52	-0.007070341
174	0xbb9c5b66	-0.0047716377
175	0xbd416fc5	-0.047225732
176	0x3c290d14	0.0103180595
177	0x3cd9073a	0.026492704
178	0x3b92052a	0.004456182
179	0x3bf33833	0.007422471
180	0x3be7fe55	0.0070798793
181	0xbbbb1183	-0.0057088747
182	0xbced2fb8	-0.028953418
183	0x3986e81c	0.00025731407
184	0xbc0f3cef	-0.008742555
185	0xbc920f93	-0.017829692
186	0xbc12c279	-0.008957499
187	0xbcb3d3e3	-0.021951621
188	0xba013562	-0.0004928914
189	0x3c689578	0.014195792
190	0xbb06a13f	-0.0020542888
191	0xbc8f7898	-0.017513558
192	0x3c028f21	0.007968695
193	0xbbc2e017	-0.0059471237
194	0x3b0e68c7	0.0021729933
195	0x3b6cf167	0.003615463
196	0xbc899a79	-0.016797291
197	0xbcd431ae	-0.025902595
198	0xbc161b69	-0.0091618085
199	0xbc8350a4	-0.016029663
200	0xbc28403e	-0.010269223
201	0xbb1330c9	-0.0022459498
202	0xbc2fdabc	-0.010733303
203	0x3c3d7237	0.0115628755
204	0x3b0bc773	0.0021328598
205	0x3c9bbc64	0.01901073
206	0x3c0c725a	0.008572185
207	0xbbce47fb	-0.006295202
208	0xbcba0bab	-0.022710642
209	0xbc860182	-0.01635814
210	0xbc5f78d4	-0.0136396475
211	0xbc95c60b	-0.01828291
212	0xbcc546af	-0.024081556
213	0x3ca25070	0.019813746
214	0x3c06e357	0.008232913
215	0xbc6b60e8	-0.014366366
216	0xbc30e1fd	-0.010796067
217	0xbc38abf1	-0.011271463
218	0xbbb120ab	-0.0054055057
219	0x3ca0f860	0.019649684
220	0xbbef3c9b	-0.007300926
221	0xb9f4196b	-0.00046558245
222	0xbc3dbdbc	-0.011580881
223	0xbb355a1b	-0.0027672115
224	0xbc8d933a	-0.017282117
225	0x3c8144e5	0.015779922
226	0xba3ce988	-0.000720643
227	0xbc0bd84d	-0.008535457
228	0x3c74cc96	0.014941355
229	0xbcf3ff3b	-0.02978479
230	0xbc47efd6	-0.012203177
231	0x3d1276cb	0.03575782
232	0x3c110985	0.008852367
233	0xbcd7f499	-0.02636175
234	0xbc28ae7f	-0.010295509
235	0xbad4ade7	-0.0016226143
236	0x3a5c5c10	0.00084060524
237	0xbc5e7271	-0.01357709
238	0xbca12fb0	-0.01967606
239	0x3ca12765	0.019672105
240	0x3b89a3d9	0.0042004404
241	0x3c098df4	0.008395661
242	0x3bde658f	0.006787009
243	0x3b079562	0.0020688404
244	0x3b95ab37	0.0045675295
245	0xbba6ff01	-0.005096317
246	0x3b335348	0.0027362872
247	0x3a41600b	0.0007376677
248	0xb8fea5ac	-0.000121425226
249	0xbb218c74	-0.0024650367
250	0xbc08f87b	-0.008360024
251	0xbce1447f	-0.027498482
252	0xbc70f4e0	-0.01470682
253	0xbbc531ac	-0.0060178842
254	0xbca819ee	-0.020520177
255	0xbca400f4	-0.020019986

base.mlp.fc1.2.weight f4 [256]
0	0x3f7dd409	0.99151665
1	0x3f7cb608	0.9871526
2	0x3f81ddfb	1.0145868
3	0x3f7e0fa2	0.99242604
4	0x3f7e900c	0.9943855
5	0x3f7a9839	0.97888523
6	0x3f7aee00	0.9801941
7	0x3f7cf555	0.98811847
8	0x3f811edc	1.0087543
9	0x3f817267	1.0113038
10	0x3f8151bb	1.0103067
11	0x3f7fd1bf	0.9992942
12	0x3f823032	1.0170958
13	0x3f84bba4	1.0369763
14	0x3f7f2329	0.99663025
15	0x3f80421f	1.0020179
16	0x3f7eb8c9	0.9950071
17	0x3f808c10	1.0042744
18	0x3f7ce523	0.98787135
19	0x3f8129e7	1.0090913
20	0x3f7df91f	0.99208254
21	0x3f77fcb8	0.96869993
22	0x3f805a66	1.0027587
23	0x3f80ffec	1.0078101
24	0x3f7c0747	0.98448604
25	0x3f7f2bb4	0.9967606
26	0x3f7ec698	0.9952178
27	0x3f806c40	1.0033035
28	0x3f7b4726	0.9815544
29	0x3f84300b	1.0327162
30	0x3f80f702	1.0075381
31	0x3f7e8289	0.9941793
32	0x3f7c38c8	0.9852414
33	0x3f7dba50	0.99112415
34	0x3f813d54	1.0096841
35	0x3f82c1e3	1.021542
36	0x3f7f97fa	0.9984127
37	0x3f81beea	1.0136387
38	0x3f7e9d89	0.9945913
39	0x3f7f7b2d	0.99797326
40	0x3f7cee3d	0.9880102
41	0x3f7f525f	0.99735063
42	0x3f7dffcc	0.9921844
43	0x3f835edc	1.0263324
44	0x3f81b198	1.0132322
45	0x3f7e3b4d	0.99309236
46	0x3f8452bb	1.0337747
47	0x3f7bc5dc	0.98348784
48	0x3f7bd370	0.98369503
49	0x3f801863	1.0007442
50	0x3f819b34	1.0125489
51	0x3f82576f	1.0182933
52	0x3f804454	1.0020852
53	0x3f7cca2b	0.98745984
54	0x3f80847d	1.0040432
55	0x3f7adffb	0.9799802
56	0x3f802001	1.0009767
57	0x3f85c112	1.0449545
58	0x3f7fb36a	0.9988314
59	0x3f811de2	1.0087245
60	0x3f7ed0a7	0.9953713
61	0x3f7fa1a4	0.9985602
62	0x3f7b25af	0.98104376
63	0x3f7e80d2	0.99415314
64	0x3f7c81af	0.9863538
65	0x3f7ee988	0.9957509
66	0x3f7aa8c3	0.9791376
67	0x3f8074ce	1.0035646
68	0x3f818e6b	1.0121588
69	0x3f7af7b7	0.9803423
70	0x3f813eb3	1.0097259
71	0x3f804038	1.0019598
72	0x3f829eb4	1.0204682
73	0x3f7e4a24	0.9933188
74	0x3f805b05	1.0027777
75	0x3f83dc58	1.0301619
76	0x3f823f08	1.0175486
77	0x3f7c75a6	0.9861702
78	0x3f813873	1.0095352
79	0x3f836eeb	1.0268224
80	0x3f81d263	1.014233
81	0x3f829dd1	1.0204412
82	0x3f80d74b	1.0065702
83	0x3f7b4cc0	0.98163986
84	0x3f7e9a88	0.99454546
85	0x3f8070f1	1.0034467
86	0x3f8082ec	1.0039954
87	0x3f83a347	1.0284203
88	0x3f83cf49	1.0297633
89	0x3f808eb0	1.0043545
90	0x3f793036	0.9733919
91	0x3f82061c	1.0158114
92	0x3f813025	1.0092818
93	0x3f83dd7d	1.0301968
94	0x3f7d256e	0.9888524
95	0x3f7d5ffc	0.98974586
96	0x3f804aa8	1.0022783
97	0x3f8414c0	1.0318832
98	0x3f7ade03	0.97995013
99	0x3f809804	1.0046391
100	0x3f822b2c	1.0169425
101	0x3f805f90	1.0029163
102	0x3f7b5666	0.9817871
103	0x3f824d2c	1.0179801
104	0x3f8184f2	1.0118697
105	0x3f7a647a	0.97809565
106	0x3f8112fc	1.0083919
107	0x3f7d9243	0.990513
108	0x3f7fda8c	0.9994285
109	0x3f822231	1.0166684
110	0x3f82bf5a	1.0214646
111	0x3f80f34b	1.0074247
112	0x3f8107fb	1.008056
113	0x3f7e25b9	0.9927631
114	0x3f82855f	1.0196952
115	0x3f77a055	0.9672902
116	0x3f816f28	1.0112047
117	0x3f76e33c	0.9644048
118	0x3f821b6e	1.0164621
119	0x3f84d654	1.0377908
120	0x3f8079c9	1.0037166
121	0x3f7cc798	0.98742056
122	0x3f79d19e	0.97585475
123	0x3f80d4d2	1.0064948
124	0x3f818d39	1.0121223
125	0x3f7fb91f	0.9989185
126	0x3f7ab90e	0.9793862
127	0x3f8208fa	1.015899
128	0x3f8208df	1.0158957
129	0x3f7dc140	0.99123
130	0x3f7e1613	0.9925243
131	0x3f7f1a5a	0.99649584
132	0x3f83b39b	1.0289186
133	0x3f820946	1.015908
134	0x3f7c00b4	0.9843857
135	0x3f80ad9b	1.005298
136	0x3f7ba458	0.98297644
137	0x3f7e6cb5	0.99384624
138	0x3f828d82	1.0199435
139	0x3f809542	1.004555
140	0x3f82d95b	1.0222582
141	0x3f7b07df	0.98058885
142	0x3f7ebef6	0.99510133
143	0x3f83cc14	1.0296655
144	0x3f80c7b6	1.0060947
145	0x3f80753c	1.0035777
146	0x3f823161	1.0171319
147	0x3f7d7b90	0.99016666
148	0x3f785819	0.97009426
149	0x3f76c697	0.96396774
150	0x3f7af55f	0.98030657
151	0x3f7de821	0.99182326
152	0x3f7f7363	0.9978544
153	0x3f81f4d8	1.0152845
154	0x3f8007f4	1.0002427
155	0x3f80d0d8	1.0063734
156	0x3f7d166a	0.98862326
157	0x3f7f15ad	0.9964245
158	0x3f829138	1.0200567
159	0x3f7fc6eb	0.999129
160	0x3f8015f4	1.00067
161	0x3f7f908e	0.9982995
162	0x3f815631	1.0104429
163	0x3f80b898	1.0056334
164	0x3f7c3a23	0.9852621
165	0x3f830228	1.0235033
166	0x3f7d8d66	0.9904388
167	0x3f7f87c1	0.9981652
168	0x3f81d3a7	1.0142716
169	0x3f829ac3	1.020348
170	0x3f833066	1.0249145
171	0x3f83abfc	1.028686
172	0x3f804748	1.0021753
173	0x3f813b8d	1.0096298
174	0x3f83b14d	1.0288483
175	0x3f84135d	1.0318409
176	0x3f83f600	1.0309448
177	0x3f80e4b5	1.0069796
178	0x3f7d1598	0.98861074
179	0x3f7b1af5	0.9808801
180	0x3f80701a	1.0034211
181	0x3f83b554	1.0289712
182	0x3f7ca638	0.9869113
183	0x3f7ba060	0.9829159
184	0x3f7e8b53	0.9943134
185	0x3f7e8a25	0.9942954
186	0x3f7bd61f	0.983736
187	0x3f8024f2	1.0011275
188	0x3f819aef	1.0125407
189	0x3f7a7b4a	0.97844374
190	0x3f7a8971	0.9786597
191	0x3f7e951f	0.9944629
192	0x3f7ecd09	0.9953161
193	0x3f835224	1.0259442
194	0x3f7fd54e	0.9993485
195	0x3f802f56	1.0014446
196	0x3f7c5200	0.9856262
197	0x3f7c9672	0.9866706
198	0x3f82084b	1.0158781
199	0x3f804d87	1.002366
200	0x3f8308c0	1.0237045
201	0x3f7ec8b1	0.9952498
202	0x3f810bde	1.0081747
203	0x3f7f5901	0.99745184
204	0x3f7d2604	0.9888613
205	0x3f82680b	1.0188001
206	0x3f7f462a	0.99716437
207	0x3f8150f9	1.0102836
208	0x3f7f49e9	0.9972215
209	0x3f809d03	1.0047916
210	0x3f7bb28d	0.9831932
211	0x3f8196d2	1.0124152
212	0x3f7b52fa	0.9817349
213	0x3f81034e	1.0079134
214	0x3f8167c7	1.0109795
215	0x3f7eae7d	0.99485
216	0x3f7b9410	0.982728
217	0x3f82c73d	1.0217053
218	0x3f8333ec	1.025022
219	0x3f8364b9	1.0265113
220	0x3f7d6189	0.9897695
221	0x3f7dc921	0.99135023
222	0x3f8074b8	1.003562
223	0x3f822ae7	1.0169343
224	0x3f7df478	0.99201155
225	0x3f841c9e	1.0321233
226	0x3f8001e3	1.0000576
227	0x3f82044e	1.0157564
228	0x3f81beb9	1.0136329
229	0x3f78bce2	0.9716321
230	0x3f7d91f7	0.9905085
231	0x3f81b24d	1.0132538
232	0x3f813517	1.0094327
233	0x3f7c75e1	0.9861737
234	0x3f7efe01	0.9960633
235	0x3f805fc6	1.0029228
236	0x3f7d204c	0.98877406
237	0x3f7f193a	0.9964787
238	0x3f818a81	1.0120393
239	0x3f7d1fc2	0.98876584
240	0x3f7dce38	0.9914279
241	0x3f7f02bb	0.9961354
242	0x3f7f77b3	0.9979202
243	0x3f7d62fa	0.9897915
244	0x3f7cea13	0.9879467
245	0x3f7d1030	0.98852825
246	0x3f7df15a	0.991964
247	0x3f7d2ce9	0.9889665
248	0x3f8196c5	1.0124136
249	0x3f835aaf	1.026205
250	0x3f7f9e86	0.9985126
251	0x3f7ce899	0.98792416
252	0x3f7c5dae	0.98580444
253	0x3f7cf3a6	0.9880928
254	0x3f7c0269	0.9844118
255	0x3f7dd143	0.99147433

base.mlp.fc1.2.bias f4 [256]
0	0x3a57876d	0.0008221779
1	0x3c198a3e	0.009371338
2	0xbc2a9493	-0.010411399
3	0xbca9063a	-0.020632852
4	0xbc5db5e1	-0.013532133
5	0x3c1bf6f5	0.009519328
6	0xbbe2df04	-0.006923558
7	0x3b66183d	0.0035109662
8	0x3bb4d1b0	0.0055181608
9	0x3bccdfc8	0.0062522627
10	0xbc6b3670	-0.014356241
11	0x3b1a5943	0.002355174
12	0xbc6087d4	-0.013704259
13	0x3ccee5a3	0.025255984
14	0x3afc7d22	0.0019263367
15	0x3c1002c4	0.008789722
16	0x3cb55a35	0.02213774
17	0x3adbf291	0.0016780664
18	0xbc7f68e0	-0.015588969
19	0x3a2f5316	0.0006688101
20	0x3c6d0f4c	0.014468979
21	0x3ca773bf	0.020440934
22	0xbad74c29	-0.0016425896
23	0x3c899717	0.016795678
24	0xbb14bcc3	-0.0022695519
25	0x3c001d62	0.007819505
26	0xbc8f0d1c	-0.017462306
27	0xbc98bf7d	-0.018645996
28	0xbc0477b6	-0.008085182
29	0x3c060395	0.008179565
30	0xbbdf521a	-0.006815207
31	0xbbc41d51	-0.00598494
32	0x3c257dc3	0.010100785
33	0x3be3d767	0.006953168
34	0x39a3565e	0.0003115413
35	0xbc2cddb7	-0.010550908
36	0x3c150da6	0.009097492
37	0xbbd4fd0b	-0.0064998916
38	0x3c525f24	0.012840066
39	0xbb82e186	-0.0039941696
40	0xbc3a06f3	-0.011354196
41	0xbbd0e001	-0.0063743596
42	0xbbd072b9	-0.0063613323
43	0xb93eb442	-0.00018186963
44	0x3b4b2c88	0.0031001884
45	0x3cad7e55	0.021178404
46	0xbc0ae942	-0.008478465
47	0x3be59dfb	0.007007358
48	0xbc0607a1	-0.00818053
49	0x3cb12905	0.021626005
50	0xbac2b063	-0.0014853593
51	0xbb957583	-0.0045611276
52	0x3bf4caad	0.00747045
53	0x3c1b7484	0.009488229
54	0x3d0d02a6	0.034426354
55	0x3c06b514	0.008221883
56	0xbcae78fd	-0.021297926
57	0x3bf81bce	0.007571674
58	0x3c7c7a37	0.015409998
59	0xbc478e62	-0.012179943
60	0x3b1332b5	0.0022460644
61	0xbcef6d52	-0.029226933
62	0x3c577e32	0.013152646
63	0x3c2808bd	0.01025599
64	0xbc2ed3c7	-0.010670609
65	0x3c6b7f24	0.014373574
66	0xbb47060d	-0.0030368597
67	0xbaffea4a	-0.001952478
68	0xbcd68adb	-0.026189258
69	0x3b8a1a40	0.004214555
70	0x3b8344bd	0.004005997
71	0xbbd04c18	-0.0063567273
72	0xbd0c0525	-0.034184594
73	0x3c9d82d1	0.019227417
74	0x3c8a64ae	0.016893711
75	0x3b11442e	0.0022165882
76	0xbbfb790c	-0.007674342
77	0x3caf0415	0.021364251
78	0xbbecaf22	-0.007223026
79	0xbc5f1a6c	-0.013617139
80	0xbca6e7b8	-0.020374164
81	0xbbf0f6ad	-0.007353625
82	0xbb8474d7	-0.0040422487
83	0xba722f4b	-0.00092386146
84	0x3c03528f	0.008015289
85	0xbc4331f5	-0.011913766
86	0xb98e2a13	-0.00027115698
87	0xbc6c54ee	-0.014424546
88	0xbc317f07	-0.010833508
89	0x3b821f63	0.0039710267
90	0xbc95b1b7	-0.018273218
91	0xbb990077	-0.004669245
92	0xbba930c2	-0.005163283
93	0x3c3fe738	0.011712842
94	0xbb9da9d7	-0.0048115063
95	0xbc3dde8c	-0.011588704
96	0xba8402a9	-0.0010071594
97	0xb9387099	-0.00017589553
98	0xbbda61ec	-0.006664505
99	0xbb9b7773	-0.004744464
100	0xbb863e28	-0.004096765
101	0xbb14aaa8	-0.0022684727
102	0xbb41f656	-0.002959629
103	0x3b9ffdd0	0.0048825517
104	0xbc81292e	-0.015766706
105	0x3cfea550	0.031084687
106	0x3c497708	0.012296446
107	0xbc4fe346	-0.012688464
108	0x3aef0add	0.001823749
109	0xbb83c94b	-0.0040217987
110	0x3cad9cbd	0.021192903
111	0x3c8b5fa2	0.017013375
112	0x3b356886	0.002768071
113	0xbcbe1b54	-0.02320639
114	0xbb534a05	-0.0032240164
115	0x3c355330	0.011067197
116	0xbc816077	-0.015793068
117	0xbb9dea32	-0.004819178
118	0xbc61eb06	-0.013788944
119	0xbc376988	-0.011194594
120	0x3cc5dc5d	0.024152929
121	0x3c4bed3f	0.012446701
122	0x3c0a4ec3	0.00844163
123	0xbc0f5932	-0.008749293
124	0x3bd84749	0.0066002947
125	0xbbdbb27d	-0.006704627
126	0x3c599dce	0.0132822525
127	0x3cfb9cc9	0.03071441
128	0xbc65ccef	-0.014025911
129	0x39e36597	0.00043372504
130	0x3d0bc7dc	0.034126148
131	0x3c79cd21	0.01524666
132	0x3b743246	0.003726141
133	0xbc8ac26f	-0.016938416
134	0x3c995b6e	0.018720355
135	0x3c26ab37	0.010172657
136	0x3af8201b	0.0018930467
137	0xbc2e1be4	-0.010626767
138	0xbc4bc149	-0.0124362195
139	0xbad61230	-0.0016332325
140	0xbb616ae1	-0.003439598
141	0x3c9f00e4	0.019409604
142	0x3af5a523	0.0018741231
143	0xbc8ce314	-0.017198123
144	0xba69e9d3	-0.0008923087
145	0x3cd6a5e1	0.026202144
146	0xbba7de04	-0.005122902
147	0xb94ffdba	-0.00019835579
148	0x3bb7dcfa	0.0056110593
149	0x3c359d8f	0.011084928
150	0xbbc698ed	-0.0060607106
151	0xbcc1b3de	-0.023645338
152	0x3c8448f1	0.016148062
153	0xbcced8d8	-0.025249884
154	0x3b8151b5	0.003946508
155	0xbc3aa6ea	-0.0113923345
156	0x3c5d1212	0.013493078
157	0xbbf9836b	-0.007614543
158	0xbb8404f0	-0.004028909
159	0xbb6d5a3c	-0.0036217114
160	0x3c36dcbd	0.011161027
161	0x3b61016e	0.0034333128
162	0xbc8fd6db	-0.017558506
163	0xbc468fc4	-0.012119237
164	0x3ca1162d	0.019663895
165	0x3c93ad5b	0.018026998
166	0x3c233be0	0.009963006
167	0x3c03bdc6	0.008040851
168	0xbccfdbeb	-0.02537342
169	0x3b970a4e	0.0046093827
170	0xbc111734	-0.00885563
171	0xbc2e7b79	-0.010649555
172	0x3b9fb94e	0.004874385
173	0xba657136	-0.00087525265
174	0xbc431ea8	-0.0119091645
175	0xbcef7921	-0.029232563
176	0x3bddce97	0.006769012
177	0x3cd95e57	0.026534243
178	0x3c58eff1	0.0132408
179	0x3c1d90e2	0.009617062
180	0xbb113c22	-0.0022161086
181	0xbc3c6ff3	-0.0115013
182	0xbcb032c2	-0.021508578
183	0x390fcfc9	0.00013714949
184	0xbad820c1	-0.0016489254
185	0xbb9d6b05	-0.0048040175
186	0xbbf57abd	-0.007491438
187	0xbc76ae8f	-0.015056266
188	0xbc652f66	-0.013988351
189	0x3cb66a62	0.022267524
190	0x3c27c12d	0.010238928
191	0x3becfb66	0.0072321175
192	0x3c43d1e0	0.011951894
193	0xbcd19b65	-0.025586793
194	0xb92cf089	-0.00016492805
195	0x3c6db690	0.014508858
196	0x3b776872	0.0037751463
197	0xbc801bee	-0.015638318
198	0xbc0c0193	-0.008545297
199	0xbbfb2e88	-0.007665459
200	0xbb2e03dc	-0.0026552593
201	0x3abe33b6	0.0014511261
202	0x3c806fdb	0.015678337
203	0x3c912e06	0.017722141
204	0xb981637c	-0.0002467892
205	0x3c468837	0.012117437
206	0x3c919395	0.017770568
207	0xbbc549db	-0.006020767
208	0xbc4bb7ae	-0.012433929
209	0xbb4da41c	-0.0031378334
210	0x3bc2cc7d	0.005944787
211	0xbc816670	-0.015795916
212	0x3c6ad81d	0.014333752
213	0x3ce39000	0.027778625
214	0x3c4c5b7e	0.012472985
215	0x3b0355a5	0.0020040062
216	0x3c908bd8	0.017644808
217	0xbc18710b	-0.009304295
218	0xbb23968c	-0.002496156
219	0xbafa7f7c	-0.001911148
220	0xbd196099	-0.03744564
221	0x3c596498	0.013268612
222	0xbc172495	-0.00922503
223	0x3bcb579b	0.0062055117
224	0x3b945dd8	0.0045277886
225	0xbbfeef88	-0.007780019
226	0x3a9a9642	0.0011794048
227	0xbbe52b5d	-0.0069936947
228	0xbc25f533	-0.010129261
229	0xbb223d44	-0.0024755755
230	0x3c957d7b	0.01824831
231	0x3c944e3f	0.018103717
232	0x3cf28a46	0.02960695
233	0xbbfbfdc8	-0.007690165
234	0xbbb664ae	-0.005566201
235	0x3c3259ad	0.010885638
236	0x3c79bd5b	0.0152429
237	0x3c02a277	0.007973305
238	0xbc8fa918	-0.017536685
239	0x3cc707fb	0.024295798
240	0xbb3d676c	-0.0028900756
241	0x3c83a2ba	0.016068805
242	0x39819079	0.00024712438
243	0x3c84c96a	0.016209323
244	0x3c8b0038	0.016967878
245	0xb8e4bc27	-0.00010906933
246	0x3af65ad9	0.0018795385
247	0x3c806cc4	0.015676863
248	0xbaba584a	-0.0014216986
249	0xbb362664	-0.0027793879
250	0xbb852a64	-0.0040638912
251	0xbca0a027	-0.019607617
252	0xbc6f2217	-0.01459553
253	0x3c857003	0.016288763
254	0xbc1083e8	-0.008820511
255	0xbc453810	-0.012037292

base.mlp.fc_h.0.weight f4 [256, 256]
0	0x3d185d3f	0.0371983
1	0xbdd85222	-0.105625406
2	0xbdacb2cc	-0.0843254
3	0x3e17c38e	0.14820692
4	0xbd92f2ef	-0.07175242
5	0xbd03abd4	-0.03214629
6	0xbadb7f3a	-0.001674629
7	0xbcf0b322	-0.029382292
8	0xbe7291e5	-0.23688467
9	0xbd1ae00c	-0.037811324
10	0xbd806c74	-0.06270686
11	0x3e30dfbc	0.17272848
12	0xbd90d99c	-0.07072756
13	0x3d01af77	0.031661477
14	0x3d13668c	0.03598647
15	0xbd0ad7a8	-0.033897072
16	0xbdb19721	-0.08671404
17	0xbb2e1830	-0.002656471
18	0x3ca9d0f2	0.020729516
19	0xbccea3d6	-0.025224607
20	0xbda7d294	-0.081944615
21	0xbd8074c6	-0.06272273
22	0x3cc392e8	0.023873761
23	0x3d9bc1da	0.076053336
24	0x3e242e4c	0.16033286
25	0x3d0f6261	0.03500593
26	0xbd0acab0	-0.033884704
27	0xbcd67ac1	-0.02618158
28	0xbdd612d3	-0.10452809
29	0x3d640752	0.055671044
30	0xbe33a8a7	-0.17544805
31	0x3cbe2efe	0.023215767
32	0x3cd7e3ff	0.026353834
33	0xbb94b5ec	-0.0045382883
34	0xbdd25b9f	-0.102713816
35	0xbdfa0a1c	-0.122089595
36	0xbd2cd9f1	-0.042200033
37	0x3d4903c4	0.049075857
38	0xbdb7be70	-0.0897187
39	0xbdb43b4f	-0.08800375
40	0xbd621eee	-0.055205278
41	0xbd055e33	-0.03256054
42	0xbc8f30a6	-0.017479252
43	0xbb296087	-0.0025844888
44	0x3d31e477	0.04343077
45	0x3d8bec6c	0.06832203
46	0xbd70b4c8	-0.058766156
47	0xbe01b06e	-0.12664959
48	0xbe6486e6	-0.22317085
49	0x3cbe7baf	0.023252336
50	0x3d453db6	0.048154555
51	0xbd446852	-0.04795105
52	0x3c84f6d1	0.016230972
53	0x3e030874	0.12796193
54	0xbd956209	-0.07294089
55	0xbca9af97	-0.02071361
56	0x3cdec962	0.027195636
57	0xbdb709c4	-0.089374095
58	0x3e2a311b	0.16620295
59	0x3d8c8ff2	0.06863393
60	0xbd07c4fb	-0.03314684
61	0xbd1eda7b	-0.038782578
62	0x3d4abb91	0.049495284
63	0xbdeac78e	-0.11463843
64	0xbdc1be85	-0.09460167
65	0x3e0e66d6	0.13906416
66	0xbdaa58bd	-0.08317707
67	0xbc160a25	-0.009157692
68	0xbdd3f76e	-0.10349928
69	0x39d6a59f	0.00040940658
70	0xbc8d3f63	-0.01724214
71	0xbc85cd97	-0.016333384
72	0x3d3745f8	0.04474446
73	0x3c7747ca	0.015092799
74	0xbced5292	-0.028970037
75	0xbe068fb2	-0.13140753
76	0x3d37c2ea	0.04486362
77	0x3c0aa35a	0.008461798
78	0xbce8bf91	-0.028411658
79	0xbc3c2d7a	-0.011485452
80	0x3d0b44ad	0.03400104
81	0xbe0ca4b1	-0.137347
82	0xbdad2cdc	-0.08455822
83	0x3c49e543	0.012322727
84	0xbd5feae4	-0.05466737
85	0xbd88e83a	-0.06684919
86	0xbb9bd3c8	-0.004755471
87	0xbd309101	-0.043107037
88	0xbd775a6d	-0.06038897
89	0x3d2a5873	0.041588258
90	0xbc52f82f	-0.012876554
91	0x3cbe0036	0.02319346
92	0x3cbee081	0.023300411
93	0xbdeae41f	-0.11469292
94	0x3e1742a0	0.14771509
95	0x3c4a8c81	0.0123626
96	0x3cff387a	0.03115486
97	0x3dc0ef07	0.09420591
98	0x3e05a88e	0.1305258
99	0x3dc0788f	0.09397995
100	0x3e1f02bc	0.15528387
101	0xbd348d55	-0.044080097
102	0xbe1583e6	-0.14601097
103	0x3e0d254a	0.13783756
104	0x3d5c7a03	0.053827297
105	0xbce2932c	-0.027658068
106	0x3b5cf200	0.003371358
107	0xbd60978b	-0.054832023
108	0xbdec60ab	-0.115418755
109	0xbe09196f	-0.13388608
110	0xbdce7039	-0.100799985
111	0xbcbd593f	-0.023113845
112	0x3da46c77	0.080285005
113	0x3d8a4367	0.06751137
114	0xbdf838cd	-0.12120209
115	0x3d559ce0	0.05215156
116	0x3e31d839	0.17367639
117	0xbd441493	-0.047871184
118	0x3d861c73	0.06548395
119	0xbd8dc650	-0.06922591
120	0x3e090d82	0.13384059
121	0x3d01742d	0.031604934
122	0x3d9f4f38	0.07778782
123	0x3e0c9cae	0.13731644
124	0xbd8e2139	-0.069399305
125	0x3c882e18	0.016623542
126	0x3d2cf645	0.04222705
127	0x3d137210	0.03599745
128	0xbddebffb	-0.10876461
129	0xbe0732a0	-0.13202906
130	0xbcd71c43	-0.026258593
131	0x3be1b190	0.006887622
132	0x3db55016	0.08853166
133	0xbe088781	-0.1333294
134	0xbdde8f51	-0.10867179
135	0xbd223c08	-0.03960803
136	0x3d5175fd	0.051137913
137	0x3d708b93	0.05872686
138	0x3d438ad8	0.047739834
139	0xbc3941f6	-0.01130723
140	0x3d90c064	0.070679456
141	0x3cc60bb0	0.024175495
142	0xbd92a185	-0.07159714
143	0x3cd3c443	0.02585042
144	0xbcde28ff	-0.027119158
145	0x3d811ae5	0.06303958
146	0x3dd4aa4a	0.103840426
147	0x3e644a24	0.22293907
148	0xbdbbdcfa	-0.09173007
149	0x3cb34ac8	0.021886244
150	0xbd9fe5b8	-0.07807487
151	0xbd2b78a1	-0.041863088
152	0x3dd6fd93	0.10497584
153	0x3e96e9e6	0.29475325
154	0x3d82f564	0.06394461
155	0xbc6e8952	-0.014559107
156	0xbda5e3d2	-0.08100094
157	0x3d670c63	0.056408297
158	0x3cf5048c	0.029909395
159	0xbc5031a7	-0.012707151
160	0xbca304f7	-0.019899828
161	0xbba9c2f4	-0.005180711
162	0x3d546e77	0.05186316
163	0xbe074bc3	-0.13212495
164	0x3e342a9a	0.17594376
165	0x3d971724	0.073774606
166	0xbc54c573	-0.012986529
167	0x3e20751e	0.15669677
168	0xbd3b7894	-0.04576929
169	0x3e091a67	0.13388978
170	0x3db75576	0.08951847
171	0x3d6d9ea3	0.058012616
172	0xbe42c8bd	-0.19021888
173	0xbc764a5a	-0.015032375
174	0x3da9016b	0.082522236
175	0x3d4253d8	0.04744324
176	0xbc65975e	-0.0140131395
177	0xbd1c6f14	-0.03819187
178	0xbe043f39	-0.12914743
179	0xbdec3061	-0.11532665
180	0x3d4a4d8f	0.049390372
181	0x3dd61c1f	0.104545824
182	0x3d77d1cd	0.060502816
183	0x3d3aa1b9	0.045564387
184	0xbca081f1	-0.01959321
185	0xbe38f982	-0.1806393
186	0xbd3818d4	-0.044945553
187	0x3d8cc8c0	0.068742275
188	0x3b5eaf4d	0.0033979
189	0xbcc14262	-0.023591224
190	0xbde3c36d	-0.11121259
191	0x3df65c3f	0.12029313
192	0x3d88d2e3	0.066808484
193	0xbe454c21	-0.19267322
194	0x3dbc61e3	0.09198358
195	0xbd5669bd	-0.052346934
196	0x3d5cf603	0.053945553
197	0x3e1a79cd	0.15085526
198	0xbda81d11	-0.08208669
199	0x3da122d2	0.078679696
200	0xbb982c56	-0.004643957
201	0x3d88881c	0.06666586
202	0xbe38f977	-0.18063913
203	0xbe00c1d2	-0.12573937
204	0xbd445f7e	-0.04794263
205	0xbd161b9a	-0.036647417
206	0xbda76dc8	-0.08175236
207	0x3ddb3c75	0.10704891
208	0x3d580d10	0.052746832
209	0x3e2d5a35	0.16928943
210	0x3ceb97b0	0.028758854
211	0xbc30dd79	-0.010794991
212	0x3c90f811	0.017696412
213	0xbd256373	-0.040378045
214	0x3c999928	0.018749788
215	0xbd111450	-0.035419762
216	0x3d1c2dd7	0.038129654
217	0xbe0158f6	-0.12631592
218	0x3e5eb2c0	0.21747875
219	0x3d8565a5	0.06513528
220	0xbde90d0e	-0.11379443
221	0x3c48b55c	0.012250271
222	0x3d32acaa	0.043621697
223	0x3bb0e42e	0.005398295
224	0x3d752e71	0.059858743
225	0xbbd27636	-0.0064227832
226	0x3da3e4e3	0.08002641
227	0xbda1907d	-0.07888887
228	0x3dea5a44	0.11442998
229	0xbe276584	-0.16347319
230	0x3e3212e1	0.17390014
231	0x3ce0111c	0.027351908
232	0x3d92e971	0.07173432
233	0xbca4922f	-0.020089237
234	0x3de589b2	0.11207904
235	0x3d8a499b	0.067523204
236	0xbcf1f9a0	-0.029537976
237	0xbe0ddf41	-0.13854696
238	0xbb04ae40	-0.0020245463
239	0xbd754f86	-0.059890293
240	0xbd680ead	-0.05665462
241	0x3dc9f91e	0.098619685
242	0x3d351e46	0.044218324
243	0xbdb27904	-0.08714488
244	0x3dbfe4dd	0.09369824
245	0x3cfa638f	0.030565051
246	0xbd984354	-0.07434717
247	0xbe016468	-0.12635958
248	0x3d11f8d5	0.035637695
249	0x3d1d81f7	0.038454022
250	0x3b85b96d	0.0040809424
251	0x3d1c7d05	0.038205165
252	0x3e6884cb	0.22706906
253	0x3d810a1f	0.063007586
254	0x3dd03e14	0.101680905
255	0xbdf46dae	-0.11934982

base.mlp.fc_h.0.bias f4 [256]
0	0x00000000	0.0
1	0x00000000	0.0
2	0x00000000	0.0
3	0x00000000	0.0
4	0x00000000	0.0
5	0x00000000	0.0
6	0x00000000	0.0
7	0x00000000	0.0
8	0x00000000	0.0
9	0x00000000	0.0
10	0x00000000	0.0
11	0x00000000	0.0
12	0x00000000	0.0
13	0x00000000	0.0
14	0x00000000	0.0
15	0x00000000	0.0
16	0x00000000	0.0
17	0x00000000	0.0
18	0x00000000	0.0
19	0x00000000	0.0
20	0x00000000	0.0
21	0x00000000	0.0
22	0x00000000	0.0
23	0x00000000	0.0
24	0x00000000	0.0
25	0x00000000	0.0
26	0x00000000	0.0
27	0x00000000	0.0
28	0x00000000	0.0
29	0x00000000	0.0
30	0x00000000	0.0
31	0x00000000	0.0
32	0x00000000	0.0
33	0x00000000	0.0
34	0x00000000	0.0
35	0x00000000	0.0
36	0x00000000	0.0
37	0x00000000	0.0
38	0x00000000	0.0
39	0x00000000	0.0
40	0x00000000	0.0
41	0x00000000	0.0
42	0x00000000	0.0
43	0x00000000	0.0
44	0x00000000	0.0
45	0x00000000	0.0
46	0x00000000	0.0
47	0x00000000	0.0
48	0x00000000	0.0
49	0x00000000	0.0
50	0x00000000	0.0
51	0x00000000	0.0
52	0x00000000	0.0
53	0x00000000	0.0
54	0x00000000	0.0
55	0x00000000	0.0
56	0x00000000	0.0
57	0x00000000	0.0
58	0x00000000	0.0
59	0x00000000	0.0
60	0x00000000	0.0
61	0x00000000	0.0
62	0x00000000	0.0
63	0x00000000	0.0
64	0x00000000	0.0
65	0x00000000	0.0
66	0x00000000	0.0
67	0x00000000	0.0
68	0x00000000	0.0
69	0x00000000	0.0
70	0x00000000	0.0
71	0x00000000	0.0
72	0x00000000	0.0
73	0x00000000	0.0
74	0x00000000	0.0
75	0x00000000	0.0
76	0x00000000	0.0
77	0x00000000	0.0
78	0x00000000	0.0
79	0x00000000	0.0
80	0x00000000	0.0
81	0x00000000	0.0
82	0x00000000	0.0
83	0x00000000	0.0
84	0x00000000	0.0
85	0x00000000	0.0
86	0x00000000	0.0
87	0x00000000	0.0
88	0x00000000	0.0
89	0x00000000	0.0
90	0x00000000	0.0
91	0x00000000	0.0
92	0x00000000	0.0
93	0x00000000	0.0
94	0x00000000	0.0
95	0x00000000	0.0
96	0x00000000	0.0
97	0x00000000	0.0
98	0x00000000	0.0
99	0x00000000	0.0
100	0x00000000	0.0
101	0x00000000	0.0
102	0x00000000	0.0
103	0x00000000	0.0
104	0x00000000	0.0
105	0x00000000	0.0
106	0x00000000	0.0
107	0x00000000	0.0
108	0x00000000	0.0
109	0x00000000	0.0
110	0x00000000	0.0
111	0x00000000	0.0
112	0x00000000	0.0
113	0x00000000	0.0
114	0x00000000	0.0
115	0x00000000	0.0
116	0x00000000	0.0
117	0x00000000	0.0
118	0x00000000	0.0
119	0x00000000	0.0
120	0x00000000	0.0
121	0x00000000	0.0
122	0x00000000	0.0
123	0x00000000	0.0
124	0x00000000	0.0
125	0x00000000	0.0
126	0x00000000	0.0
127	0x00000000	0.0
128	0x00000000	0.0
129	0x00000000	0.0
130	0x00000000	0.0
131	0x00000000	0.0
132	0x00000000	0.0
133	0x00000000	0.0
134	0x00000000	0.0
135	0x00000000	0.0
136	0x00000000	0.0
137	0x00000000	0.0
138	0x00000000	0.0
139	0x00000000	0.0
140	0x00000000	0.0
141	0x00000000	0.0
142	0x00000000	0.0
143	0x00000000	0.0
144	0x00000000	0.0
145	0x00000000	0.0
146	0x00000000	0.0
147	0x00000000	0.0
148	0x00000000	0.0
149	0x00000000	0.0
150	0x00000000	0.0
151	0x00000000	0.0
152	0x00000000	0.0
153	0x00000000	0.0
154	0x00000000	0.0
155	0x00000000	0.0
156	0x00000000	0.0
157	0x00000000	0.0
158	0x00000000	0.0
159	0x00000000	0.0
160	0x00000000	0.0
161	0x00000000	0.0
162	0x00000000	0.0
163	0x00000000	0.0
164	0x00000000	0.0
165	0x00000000	0.0
166	0x00000000	0.0
167	0x00000000	0.0
168	0x00000000	0.0
169	0x00000000	0.0
170	0x00000000	0.0
171	0x00000000	0.0
172	0x00000000	0.0
173	0x00000000	0.0
174	0x00000000	0.0
175	0x00000000	0.0
176	0x00000000	0.0
177	0x00000000	0.0
178	0x00000000	0.0
179	0x00000000	0.0
180	0x00000000	0.0
181	0x00000000	0.0
182	0x00000000	0.0
183	0x00000000	0.0
184	0x00000000	0.0
185	0x00000000	0.0
186	0x00000000	0.0
187	0x00000000	0.0
188	0x00000000	0.0
189	0x00000000	0.0
190	0x00000000	0.0
191	0x00000000	0.0
192	0x00000000	0.0
193	0x00000000	0.0
194	0x00000000	0.0
195	0x00000000	0.0
196	0x00000000	0.0
197	0x00000000	0.0
198	0x00000000	0.0
199	0x00000000	0.0
200	0x00000000	0.0
201	0x00000000	0.0
202	0x00000000	0.0
203	0x00000000	0.0
204	0x00000000	0.0
205	0x00000000	0.0
206	0x00000000	0.0
207	0x00000000	0.0
208	0x00000000	0.0
209	0x00000000	0.0
210	0x00000000	0.0
211	0x00000000	0.0
212	0x00000000	0.0
213	0x00000000	0.0
214	0x00000000	0.0
215	0x00000000	0.0
216	0x00000000	0.0
217	0x00000000	0.0
218	0x00000000	0.0
219	0x00000000	0.0
220	0x00000000	0.0
221	0x00000000	0.0
222	0x00000000	0.0
223	0x00000000	0.0
224	0x00000000	0.0
225	0x00000000	0.0
226	0x00000000	0.0
227	0x00000000	0.0
228	0x00000000	0.0
229	0x00000000	0.0
230	0x00000000	0.0
231	0x00000000	0.0
232	0x00000000	0.0
233	0x00000000	0.0
234	0x00000000	0.0
235	0x00000000	0.0
236	0x00000000	0.0
237	0x00000000	0.0
238	0x00000000	0.0
239	0x00000000	0.0
240	0x00000000	0.0
241	0x00000000	0.0
242	0x00000000	0.0
243	0x00000000	0.0
244	0x00000000	0.0
245	0x00000000	0.0
246	0x00000000	0.0
247	0x00000000	0.0
248	0x00000000	0.0
249	0x00000000	0.0
250	0x00000000	0.0
251	0x00000000	0.0
252	0x00000000	0.0
253	0x00000000	0.0
254	0x00000000	0.0
255	0x00000000	0.0

base.mlp.fc_h.2.weight f4 [256]
0	0x3f800000	1.0
1	0x3f800000	1.0
2	0x3f800000	1.0
3	0x3f800000	1.0
4	0x3f800000	1.0
5	0x3f800000	1.0
6	0x3f800000	1.0
7	0x3f800000	1.0
8	0x3f800000	1.0
9	0x3f800000	1.0
10	0x3f800000	1.0
11	0x3f800000	1.0
12	0x3f800000	1.0
13	0x3f800000	1.0
14	0x3f800000	1.0
15	0x3f800000	1.0
16	0x3f800000	1.0
17	0x3f800000	1.0
18	0x3f800000	1.0
19	0x3f800000	1.0
20	0x3f800000	1.0
21	0x3f800000	1.0
22	0x3f800000	1.0
23	0x3f800000	1.0
24	0x3f800000	1.0
25	0x3f800000	1.0
26	0x3f800000	1.0
27	0x3f800000	1.0
28	0x3f800000	1.0
29	0x3f800000	1.0
30	0x3f800000	1.0
31	0x3f800000	1.0
32	0x3f800000	1.0
33	0x3f800000	1.0
34	0x3f800000	1.0
35	0x3f800000	1.0
36	0x3f800000	1.0
37	0x3f800000	1.0
38	0x3f800000	1.0
39	0x3f800000	1.0
40	0x3f800000	1.0
41	0x3f800000	1.0
42	0x3f800000	1.0
43	0x3f800000	1.0
44	0x3f800000	1.0
45	0x3f800000	1.0
46	0x3f800000	1.0
47	0x3f800000	1.0
48	0x3f800000	1.0
49	0x3f800000	1.0
50	0x3f800000	1.0
51	0x3f800000	1.0
52	0x3f800000	1.0
53	0x3f800000	1.0
54	0x3f800000	1.0
55	0x3f800000	1.0
56	0x3f800000	1.0
57	0x3f800000	1.0
58	0x3f800000	1.0
59	0x3f800000	1.0
60	0x3f800000	1.0
61	0x3f800000	1.0
62	0x3f800000	1.0
63	0x3f800000	1.0
64	0x3f800000	1.0
65	0x3f800000	1.0
66	0x3f800000	1.0
67	0x3f800000	1.0
68	0x3f800000	1.0
69	0x3f800000	1.0
70	0x3f800000	1.0
71	0x3f800000	1.0
72	0x3f800000	1.0
73	0x3f800000	1.0
74	0x3f800000	1.0
75	0x3f800000	1.0
76	0x3f800000	1.0
77	0x3f800000	1.0
78	0x3f800000	1.0
79	0x3f800000	1.0
80	0x3f800000	1.0
81	0x3f800000	1.0
82	0x3f800000	1.0
83	0x3f800000	1.0
84	0x3f800000	1.0
85	0x3f800000	1.0
86	0x3f800000	1.0
87	0x3f800000	1.0
88	0x3f800000	1.0
89	0x3f800000	1.0
90	0x3f800000	1.0
91	0x3f800000	1.0
92	0x3f800000	1.0
93	0x3f800000	1.0
94	0x3f800000	1.0
95	0x3f800000	1.0
96	0x3f800000	1.0
97	0x3f800000	1.0
98	0x3f800000	1.0
99	0x3f800000	1.0
100	0x3f800000	1.0
101	0x3f800000	1.0
102	0x3f800000	1.0
103	0x3f800000	1.0
104	0x3f800000	1.0
105	0x3f800000	1.0
106	0x3f800000	1.0
107	0x3f800000	1.0
108	0x3f800000	1.0
109	0x3f800000	1.0
110	0x3f800000	1.0
111	0x3f800000	1.0
112	0x3f800000	1.0
113	0x3f800000	1.0
114	0x3f800000	1.0
115	0x3f800000	1.0
116	0x3f800000	1.0
117	0x3f800000	1.0
118	0x3f800000	1.0
119	0x3f800000	1.0
120	0x3f800000	1.0
121	0x3f800000	1.0
122	0x3f800000	1.0
123	0x3f800000	1.0
124	0x3f800000	1.0
125	0x3f800000	1.0
126	0x3f800000	1.0
127	0x3f800000	1.0
128	0x3f800000	1.0
129	0x3f800000	1.0
130	0x3f800000	1.0
131	0x3f800000	1.0
132	0x3f800000	1.0
133	0x3f800000	1.0
134	0x3f800000	1.0
135	0x3f800000	1.0
136	0x3f800000	1.0
137	0x3f800000	1.0
138	0x3f800000	1.0
139	0x3f800000	1.0
140	0x3f800000	1.0
141	0x3f800000	1.0
142	0x3f800000	1.0
143	0x3f800000	1.0
144	0x3f800000	1.0
145	0x3f800000	1.0
146	0x3f800000	1.0
147	0x3f800000	1.0
148	0x3f800000	1.0
149	0x3f800000	1.0
150	0x3f800000	1.0
151	0x3f800000	1.0
152	0x3f800000	1.0
153	0x3f800000	1.0
154	0x3f800000	1.0
155	0x3f800000	1.0
156	0x3f800000	1.0
157	0x3f800000	1.0
158	0x3f800000	1.0
159	0x3f800000	1.0
160	0x3f800000	1.0
161	0x3f800000	1.0
162	0x3f800000	1.0
163	0x3f800000	1.0
164	0x3f800000	1.0
165	0x3f800000	1.0
166	0x3f800000	1.0
167	0x3f800000	1.0
168	0x3f800000	1.0
169	0x3f800000	1.0
170	0x3f800000	1.0
171	0x3f800000	1.0
172	0x3f800000	1.0
173	0x3f800000	1.0
174	0x3f800000	1.0
175	0x3f800000	1.0
176	0x3f800000	1.0
177	0x3f800000	1.0
178	0x3f800000	1.0
179	0x3f800000	1.0
180	0x3f800000	1.0
181	0x3f800000	1.0
182	0x3f800000	1.0
183	0x3f800000	1.0
184	0x3f800000	1.0
185	0x3f800000	1.0
186	0x3f800000	1.0
187	0x3f800000	1.0
188	0x3f800000	1.0
189	0x3f800000	1.0
190	0x3f800000	1.0
191	0x3f800000	1.0
192	0x3f800000	1.0
193	0x3f800000	1.0
194	0x3f800000	1.0
195	0x3f800000	1.0
196	0x3f800000	1.0
197	0x3f800000	1.0
198	0x3f800000	1.0
199	0x3f800000	1.0
200	0x3f800000	1.0
201	0x3f800000	1.0
202	0x3f800000	1.0
203	0x3f800000	1.0
204	0x3f800000	1.0
205	0x3f800000	1.0
206	0x3f800000	1.0
207	0x3f800000	1.0
208	0x3f800000	1.0
209	0x3f800000	1.0
210	0x3f800000	1.0
211	0x3f800000	1.0
212	0x3f800000	1.0
213	0x3f800000	1.0
214	0x3f800000	1.0
215	0x3f800000	1.0
216	0x3f800000	1.0
217	0x3f800000	1.0
218	0x3f800000	1.0
219	0x3f800000	1.0
220	0x3f800000	1.0
221	0x3f800000	1.0
222	0x3f800000	1.0
223	0x3f800000	1.0
224	0x3f800000	1.0
225	0x3f800000	1.0
226	0x3f800000	1.0
227	0x3f800000	1.0
228	0x3f800000	1.0
229	0x3f800000	1.0
230	0x3f800000	1.0
231	0x3f800000	1.0
232	0x3f800000	1.0
233	0x3f800000	1.0
234	0x3f800000	1.0
235	0x3f800000	1.0
236	0x3f800000	1.0
237	0x3f800000	1.0
238	0x3f800000	1.0
239	0x3f800000	1.0
240	0x3f800000	1.0
241	0x3f800000	1.0
242	0x3f800000	1.0
243	0x3f800000	1.0
244	0x3f800000	1.0
245	0x3f800000	1.0
246	0x3f800000	1.0
247	0x3f800000	1.0
248	0x3f800000	1.0
249	0x3f800000	1.0
250	0x3f800000	1.0
251	0x3f800000	1.0
252	0x3f800000	1.0
253	0x3f800000	1.0
254	0x3f800000	1.0
255	0x3f800000	1.0

base.mlp.fc_h.2.bias f4 [256]
0	0x00000000	0.0
1	0x00000000	0.0
2	0x00000000	0.0
3	0x00000000	0.0
4	0x00000000	0.0
5	0x00000000	0.0
6	0x00000000	0.0
7	0x00000000	0.0
8	0x00000000	0.0
9	0x00000000	0.0
10	0x00000000	0.0
11	0x00000000	0.0
12	0x00000000	0.0
13	0x00000000	0.0
14	0x00000000	0.0
15	0x00000000	0.0
16	0x00000000	0.0
17	0x00000000	0.0
18	0x00000000	0.0
19	0x00000000	0.0
20	0x00000000	0.0
21	0x00000000	0.0
22	0x00000000	0.0
23	0x00000000	0.0
24	0x00000000	0.0
25	0x00000000	0.0
26	0x00000000	0.0
27	0x00000000	0.0
28	0x00000000	0.0
29	0x00000000	0.0
30	0x00000000	0.0
31	0x00000000	0.0
32	0x00000000	0.0
33	0x00000000	0.0
34	0x00000000	0.0
35	0x00000000	0.0
36	0x00000000	0.0
37	0x00000000	0.0
38	0x00000000	0.0
39	0x00000000	0.0
40	0x00000000	0.0
41	0x00000000	0.0
42	0x00000000	0.0
43	0x00000000	0.0
44	0x00000000	0.0
45	0x00000000	0.0
46	0x00000000	0.0
47	0x00000000	0.0
48	0x00000000	0.0
49	0x00000000	0.0
50	0x00000000	0.0
51	0x00000000	0.0
52	0x00000000	0.0
53	0x00000000	0.0
54	0x00000000	0.0
55	0x00000000	0.0
56	0x00000000	0.0
57	0x00000000	0.0
58	0x00000000	0.0
59	0x00000000	0.0
60	0x00000000	0.0
61	0x00000000	0.0
62	0x00000000	0.0
63	0x00000000	0.0
64	0x00000000	0.0
65	0x00000000	0.0
66	0x00000000	0.0
67	0x00000000	0.0
68	0x00000000	0.0
69	0x00000000	0.0
70	0x00000000	0.0
71	0x00000000	0.0
72	0x00000000	0.0
73	0x00000000	0.0
74	0x00000000	0.0
75	0x00000000	0.0
76	0x00000000	0.0
77	0x00000000	0.0
78	0x00000000	0.0
79	0x00000000	0.0
80	0x00000000	0.0
81	0x00000000	0.0
82	0x00000000	0.0
83	0x00000000	0.0
84	0x00000000	0.0
85	0x00000000	0.0
86	0x00000000	0.0
87	0x00000000	0.0
88	0x00000000	0.0
89	0x00000000	0.0
90	0x00000000	0.0
91	0x00000000	0.0
92	0x00000000	0.0
93	0x00000000	0.0
94	0x00000000	0.0
95	0x00000000	0.0
96	0x00000000	0.0
97	0x00000000	0.0
98	0x00000000	0.0
99	0x00000000	0.0
100	0x00000000	0.0
101	0x00000000	0.0
102	0x00000000	0.0
103	0x00000000	0.0
104	0x00000000	0.0
105	0x00000000	0.0
106	0x00000000	0.0
107	0x00000000	0.0
108	0x00000000	0.0
109	0x00000000	0.0
110	0x00000000	0.0
111	0x00000000	0.0
112	0x00000000	0.0
113	0x00000000	0.0
114	0x00000000	0.0
115	0x00000000	0.0
116	0x00000000	0.0
117	0x00000000	0.0
118	0x00000000	0.0
119	0x00000000	0.0
120	0x00000000	0.0
121	0x00000000	0.0
122	0x00000000	0.0
123	0x00000000	0.0
124	0x00000000	0.0
125	0x00000000	0.0
126	0x00000000	0.0
127	0x00000000	0.0
128	0x00000000	0.0
129	0x00000000	0.0
130	0x00000000	0.0
131	0x00000000	0.0
132	0x00000000	0.0
133	0x00000000	0.0
134	0x00000000	0.0
135	0x00000000	0.0
136	0x00000000	0.0
137	0x00000000	0.0
138	0x00000000	0.0
139	0x00000000	0.0
140	0x00000000	0.0
141	0x00000000	0.0
142	0x00000000	0.0
143	0x00000000	0.0
144	0x00000000	0.0
145	0x00000000	0.0
146	0x00000000	0.0
147	0x00000000	0.0
148	0x00000000	0.0
149	0x00000000	0.0
150	0x00000000	0.0
151	0x00000000	0.0
152	0x00000000	0.0
153	0x00000000	0.0
154	0x00000000	0.0
155	0x00000000	0.0
156	0x00000000	0.0
157	0x00000000	0.0
158	0x00000000	0.0
159	0x00000000	0.0
160	0x00000000	0.0
161	0x00000000	0.0
162	0x00000000	0.0
163	0x00000000	0.0
164	0x00000000	0.0
165	0x00000000	0.0
166	0x00000000	0.0
167	0x00000000	0.0
168	0x00000000	0.0
169	0x00000000	0.0
170	0x00000000	0.0
171	0x00000000	0.0
172	0x00000000	0.0
173	0x00000000	0.0
174	0x00000000	0.0
175	0x00000000	0.0
176	0x00000000	0.0
177	0x00000000	0.0
178	0x00000000	0.0
179	0x00000000	0.0
180	0x00000000	0.0
181	0x00000000	0.0
182	0x00000000	0.0
183	0x00000000	0.0
184	0x00000000	0.0
185	0x00000000	0.0
186	0x00000000	0.0
187	0x00000000	0.0
188	0x00000000	0.0
189	0x00000000	0.0
190	0x00000000	0.0
191	0x00000000	0.0
192	0x00000000	0.0
193	0x00000000	0.0
194	0x00000000	0.0
195	0x00000000	0.0
196	0x00000000	0.0
197	0x00000000	0.0
198	0x00000000	0.0
199	0x00000000	0.0
200	0x00000000	0.0
201	0x00000000	0.0
202	0x00000000	0.0
203	0x00000000	0.0
204	0x00000000	0.0
205	0x00000000	0.0
206	0x00000000	0.0
207	0x00000000	0.0
208	0x00000000	0.0
209	0x00000000	0.0
210	0x00000000	0.0
211	0x00000000	0.0
212	0x00000000	0.0
213	0x00000000	0.0
214	0x00000000	0.0
215	0x00000000	0.0
216	0x00000000	0.0
217	0x00000000	0.0
218	0x00000000	0.0
219	0x00000000	0.0
220	0x00000000	0.0
221	0x00000000	0.0
222	0x00000000	0.0
223	0x00000000	0.0
224	0x00000000	0.0
225	0x00000000	0.0
226	0x00000000	0.0
227	0x00000000	0.0
228	0x00000000	0.0
229	0x00000000	0.0
230	0x00000000	0.0
231	0x00000000	0.0
232	0x00000000	0.0
233	0x00000000	0.0
234	0x00000000	0.0
235	0x00000000	0.0
236	0x00000000	0.0
237	0x00000000	0.0
238	0x00000000	0.0
239	0x00000000	0.0
240	0x00000000	0.0
241	0x00000000	0.0
242	0x00000000	0.0
243	0x00000000	0.0
244	0x00000000	0.0
245	0x00000000	0.0
246	0x00000000	0.0
247	0x00000000	0.0
248	0x00000000	0.0
249	0x00000000	0.0
250	0x00000000	0.0
251	0x00000000	0.0
252	0x00000000	0.0
253	0x00000000	0.0
254	0x00000000	0.0
255	0x00000000	0.0
