Training_Parameter_Storage/0517/hd003formthres_5v1_vel0108_collide_001/actor_prey.pt (torch, 830635 bytes, 21 tensors)

base.feature_norm.weight f4 [22]
000000 b7 49 88 3f cb 60 8a 3f b3 a2 7e 3f bd 76 7c 3f
       1.0647496 1.0810789 0.9946701 0.9861868
000010 6e 2e 7a 3f 40 cd 78 3f e9 43 79 3f b4 99 78 3f
       0.97727096 0.97188187 0.9736925 0.9710953
000020 27 ee 77 3f 37 86 7f 3f 33 51 76 3f 57 55 75 3f
       0.96847767 0.9981417 0.9621765 0.95833343
000030 5b 95 84 3f 6b 1e 82 3f c7 a8 88 3f 9d 1a 85 3f
       1.035808 1.0165533 1.0676507 1.0398747
000040 ae fc 81 3f 8c 80 82 3f 2e 79 86 3f 60 b2 85 3f
       1.0155237 1.0195479 1.0505731 1.0445061
000050 58 ac 86 3f 83 a2 86 3f
       1.0521345 1.0518345

base.feature_norm.bias f4 [22]
000000 3b f7 89 3b 2b f3 a9 3c 2b 2f fc bb bd 09 a2 bc
       0.0042103804 0.020745834 -0.0076960525 -0.019780034
000010 69 fd 72 bb b0 38 b9 ba cd 11 d3 39 56 88 22 bc
       -0.0037077314 -0.0014131274 0.0004025832 -0.0099202
000020 6d e2 35 bc 1a 53 ca bc 4a e5 8b 3c 32 9f 35 bc
       -0.011101347 -0.024697829 0.017077107 -0.011085318
000030 55 d6 4b 3c b2 91 6c bc 59 7c 07 ba 2b f5 31 3c
       0.012441237 -0.014439033 -0.00051683706 0.010861675
000040 d6 8a 04 bc 29 84 55 3c da 1e 9c bb 8e 76 08 3d
       -0.008089742 0.013031998 -0.00476442 0.033316188
000050 19 bd 44 3c b8 c0 3e 3a
       0.012007975 0.0007276642

base.mlp.fc1.0.weight f4 [256, 22]
000000 ac 0f c6 bd ad 78 df bd 2e 98 61 3d cd 1b b6 3d
       -0.09670958 -0.10911689 0.05507677 0.08892021
000010 d5 e1 e1 bc 21 d6 11 3d df 2b 72 3c a8 70 20 3d
       -0.027573505 0.0356046 0.0147809675 0.039169937
000020 2a 17 21 3d 22 98 11 be 11 cf be bd 59 ef f9 bb
       0.03932873 -0.1421819 -0.093168385 -0.0076274094
000030 57 03 06 be 6d cd 1c 3d 1b 32 75 bd 58 22 a9 3c
       -0.13087212 0.038281847 -0.059862237 0.02064626
000040 c8 97 38 3d 1e 5d ff bc 24 2b e3 3d bc 24 33 3d
       0.045066625 -0.031172331 0.11092213 0.043736205
000050 31 51 7c 3d c3 ff 71 3d 55 26 84 3c b6 0d 26 be
       0.061600868 0.059081804 0.01613156 -0.16216168
000060 38 8f 24 bd ea 65 b1 ba 04 5e 25 3e a6 74 67 bc
       -0.040175647 -0.0013534401 0.16149145 -0.014126932
000070 b6 4c 0b 3e c7 37 f4 bd b3 e9 a5 3d 11 56 54 3d
       0.13603482 -0.11924701 0.08101215 0.05183989
000080 b6 d4 1d 3d b5 9c 50 3c 77 4b 64 3d 4b 3f 03 3d
       0.038532935 0.012732674 0.05573603 0.032042783
000090 61 6d c2 3d 90 f1 d0 3d c6 8c c7 bd 19 a1 3c bc
       0.094935186 0.102023244 -0.09743647 -0.011513018
0000a0 ff 44 09 bd 4a a8 7e bb b7 58 1e bc 4d 88 a2 3d
       -0.033513065 -0.0038857632 -0.009664706 0.079361536
0000b0 0d df 03 3e f3 c2 10 3e d7 37 9e b9 96 c3 30 3d
       0.12878056 0.14136867 -0.00030177712 0.043155275
0000c0 37 9a b5 3d be d3 10 be b9 de ee 3d da b4 bb 3d
       0.08867305 -0.14143273 0.11663575 0.09165354
0000d0 c3 17 ab 3d da 61 ad bd b5 59 05 3d 50 63 99 bd
       0.083541416 -0.08465929 0.032556254 -0.074896455
0000e0 da ee 3c 3d 85 32 96 3c 95 89 e9 3d e6 3e cb bd
       0.046126224 0.018334636 0.11403195 -0.09924106
0000f0 1f cb 6b bd 34 a9 a4 3c 38 8d 15 3e 94 e2 b2 3d
       -0.05756676 0.020100214 0.14604652 0.087346226
000100 8a c4 24 bd 07 85 30 be 9e df 88 be 11 2d b9 3d
       -0.040226497 -0.17238246 -0.26733106 0.09041799
000110 77 0a f7 3d 46 b3 82 3d 5e a2 21 bd 3a bf 14 bd
       0.12062543 0.0638185 -0.039461486 -0.03631518
000120 07 1f b0 3d 67 b8 bf bd a7 a2 23 3d d5 be 98 bd
       0.08599668 -0.09361344 0.03995004 -0.07458273
000130 6d 38 90 bd 31 76 9e 3d 16 65 5f bd d4 26 9a 3c
       -0.07042012 0.07737387 -0.054539762 0.018817343
000140 eb 8d 87 3d 3f f4 de 3c 54 cd ad 3c d4 1c 4e 3d
       0.066188656 0.027216075 0.021216072 0.05032046
000150 c0 cd 69 3d 00 a5 94 3d 88 fa 19 3e 4e 75 a8 3c
       0.057080984 0.07258034 0.15036976 0.020563748
000160 67 da 15 3e cb 6f 04 bd 8d c3 6e bd bd d6 0b 3e
       0.14634095 -0.032333177 -0.05829196 0.13656135
000170 e9 f8 92 bd f0 77 21 3d 26 f1 be bd cf 1c 72 3c
       -0.07176382 0.039421022 -0.09323339 0.014777376
000180 3b 71 d6 3c 6d f0 ee 3c 68 5e 19 bc 55 43 59 be
       0.02617704 0.029167378 -0.009360887 -0.21217091
000190 09 41 0b 3e cb 3a 1f bb e3 c6 96 bd 77 5b dc ba
       0.13599028 -0.0024296518 -0.073621534 -0.0016811927
0001a0 6b d4 11 be 78 fe 19 bd 6c f4 95 bd 4c 11 00 be
       -0.14241187 -0.037596196 -0.073220104 -0.12506598
0001b0 9e 7f 1b 3d ac d9 08 3b d4 37 c0 3c ac 22 cf 3d
       0.037963502 0.0020881696 0.02346412 0.10114035
0001c0 e2 4c 5f 3d 79 e3 5f bd b4 0a 1a bd 8a bf 5e bd
       0.05451668 -0.054660294 -0.037607864 -0.054381885
0001d0 51 56 60 be 87 1a 0a be 4c 8e 3b bd 35 d1 57 3d
       -0.21907927 -0.13486682 -0.04579 0.05268975
0001e0 5a 2c 00 3c fb 8b dd bc df 60 11 3d 28 ce 02 bd
       0.007823074 -0.027044287 0.035492774 -0.031934887
0001f0 f7 20 16 3e 30 7d ad bd 6d 68 96 bd 77 6a 14 be
       0.14661013 -0.08471143 -0.073441364 -0.14493738
000200 52 c2 90 bd ab 00 05 be 18 57 22 3c d7 42 aa 3d
       -0.07068314 -0.12988536 0.00990846 0.0831353
000210 ad ac 5b bd 3b 4b c1 bd 84 f9 e7 bd b3 df a6 3d
       -0.053631473 -0.09438177 -0.11326888 0.08148136
000220 d1 b2 ad 3d 67 33 d9 bd 2d 18 b0 3d 2f 03 22 be
       0.08481372 -0.10605507 0.08598361 -0.15821527
000230 1c 39 1d 3e f9 21 cf bd 9f f6 95 bd c5 1b 44 3d
       0.15353817 -0.10113902 -0.0732243 0.047878046
000240 fb 1e fa bc 4a 70 bc bd fa d9 32 3b 8b 7e 89 3c
       -0.03053235 -0.09201105 0.0027290569 0.016783973
000250 79 99 b8 3d c6 86 e8 3d 38 d0 c1 bd 2e b1 cd ba
       0.090136476 0.11353831 -0.09463543 -0.0015693062
000260 f6 94 a4 bc 49 f8 37 3e 6d 08 07 bd bc 84 98 bd
       -0.020090561 0.17965807 -0.03296702 -0.07447192
000270 69 34 09 be f3 56 3a 3c 51 39 49 3e 74 f1 f5 bc
       -0.13398899 0.011373269 0.1965077 -0.03002236
000280 d8 20 07 bc 5c 4e d5 3b 9a 22 16 be 5d 4c 99 3c
       -0.008247577 0.0065095853 -0.14661637 0.01871317
000290 bd b8 79 3d ed ec bf bd 79 6a 67 3d 47 55 c8 3c
       0.060967196 -0.09371362 0.056498025 0.024454726
0002a0 55 3e 2e 3e fb a1 0b 3d e5 c0 02 3c e2 b9 04 be
       0.17015965 0.034090023 0.00798056 -0.12961534
0002b0 2d 63 b2 3a 33 61 2a 3c 3a f7 94 bc c2 a2 ca bc
       0.0013609879 0.010399151 -0.018184293 -0.024735812
0002c0 72 4d b6 3c 0a 17 ea bc f9 81 08 be 54 a8 cb bd
       0.022253726 -0.028575439 -0.1333083 -0.099442154
0002d0 26 aa b1 3b 4a 09 d9 3c 5a 40 2e bd db fb e1 bd
       0.0054218946 0.026493687 -0.04254184 -0.11034366
0002e0 ae 09 f2 3d b5 ab b6 bd b0 57 7d 3c ee 20 c4 3c
       0.118182525 -0.08919469 0.015462801 0.023941483
0002f0 a0 5e 9b b9 8b d3 f8 bd a7 a9 5f bd e3 8b 72 bd
       -0.00029634405 -0.121497236 -0.054605152 -0.059215438
000300 ed 66 bc bd ad 49 43 bd e2 e3 08 3e 94 d9 d6 bd
       -0.09199319 -0.047677685 0.1336818 -0.104907185
000310 dc bf c6 bb 0b 63 00 be 94 cf 3c 3b f0 26 86 3d
       -0.006065352 -0.12537782 0.002881025 0.065503955
000320 05 b0 95 3c 84 97 83 bd b0 7e 62 bd 8a 7d b9 bc
       0.01827241 -0.06425384 -0.0552966 -0.02264287
000330 39 0f 59 3e ca c6 a0 3d 55 f0 22 3d c3 ce 02 be
       0.21197213 0.07850416 0.03977998 -0.12774186
000340 72 86 fe bd 49 b3 16 3d e9 82 94 bd 4b 52 22 be
       -0.12427987 0.036792073 -0.07251532 -0.15851705
000350 36 bd 29 be 66 a6 c4 3d 6c 60 f8 bd 1e 0c 8c bd
       -0.16576084 0.096020505 -0.12127766 -0.06838249
000360 72 ca a2 bd 40 fe 4e bd 40 79 aa 3d 8b 32 a4 3d
       -0.0794877 -0.05053544 0.08323908 0.08017453
000370 2a 53 58 be e0 a5 ce 3b 5e 31 3f bc 69 93 7b 3d
       -0.21125475 0.006306395 -0.011669485 0.06141988
000380 a4 9e 85 bc 64 7c 92 bd a6 61 91 3d c3 1a 40 bc
       -0.016310997 -0.07152632 0.07098703 -0.0117251305
000390 4b 99 d2 3c 07 27 f4 3d b6 59 ae 3d d9 7a fd bc
       0.025707861 0.119215064 0.08513205 -0.030942367
0003a0 08 ea 93 3e 6c 25 65 3c 72 2a 48 be b2 af 97 bd
       0.2888949 0.013985973 -0.19547442 -0.07406558
0003b0 e5 ee c6 3c 94 da b2 3d f6 da de bd 92 32 0a 3d
       0.024283836 0.08733097 -0.10881607 0.033739634
0003c0 7f e1 c3 3c 9c 29 48 3c 1a 2e 14 3e 6d 61 0e bd
       0.023911236 0.012216952 0.14470711 -0.03476088
0003d0 98 06 30 3e cf 12 54 3d a6 c2 33 bd 58 02 72 3d
       0.17190015 0.05177575 -0.043886803 0.059084266
0003e0 28 53 c5 bd e4 ec 7e 3b cb 77 8f 3b ca bf 0d 3e
       -0.096350014 0.0038898522 0.004378294 0.13842693
0003f0 9f 03 4d bd 4e 05 fe 3b be 48 12 bd fd 8e 72 3b
       -0.05005228 0.007752097 -0.035713904 0.0037011497

base.mlp.fc1.0.bias f4 [256]
000000 7f 0a fb bb 2d ba d2 38 c1 75 ed bb 1c 29 7d bc
       -0.0076611633 0.00010048258 -0.0072467034 -0.015451696
000010 4d 99 f3 bc c8 a3 cb bc a1 c8 a5 bc 1b d7 a6 39
       -0.029736185 -0.02485837 -0.020237269 0.00031822253
000020 02 1e 0d bc 40 21 10 bc 65 94 73 38 56 b9 c7 bc
       -0.008613111 -0.00879699 5.8073918e-05 -0.024380367
000030 ed 93 8e bc 25 96 1f 3d c5 35 5f 3c ca 76 8c bb
       -0.01740452 0.03896155 0.0136236595 -0.0042866217
000040 4b 7b 9d 3c 6f 0e a2 bb 8f 8f 94 bc b2 fb 03 3c
       0.01922383 -0.0049455683 -0.01813486 0.008055614
000050 41 2e 89 3c b6 2f 66 3c 58 b7 d9 3b 60 a9 21 3c
       0.016745688 0.014049461 0.0066441707 0.009867042
000060 54 b6 d4 3b 68 c8 1e 3c c7 fa 96 bc 27 3c 39 bc
       0.006491462 0.009691335 -0.018430127 -0.011305845
000070 b1 28 ca bc 07 df 09 3c 0c 58 d4 ba 22 39 f1 bc
       -0.024677606 0.00841499 -0.0016200556 -0.029446188
000080 4f 46 39 3c b4 0f 0b bc 07 a8 0b bb 80 9d 21 3c
       0.011308267 -0.008487631 -0.002130987 0.009864211
000090 34 1a c5 3c e3 bd 57 3b 8f bd 92 bc ec 6d 5f bb
       0.024060346 0.0032919578 -0.017912654 -0.0034092618
0000a0 c0 3c ce ba 08 1a a1 ba af bb 2e 3c ea af 97 bb
       -0.0015734658 -0.0012291083 0.010664864 -0.004629125
0000b0 f1 5e 0d 3c d9 bc d8 bb a4 55 18 bb f2 c2 80 bc
       0.008628593 -0.0066143093 -0.0023244405 -0.015717957
0000c0 6d fe 85 bc 35 4d 0c 3c 75 bf 26 3b ce fe 20 bc
       -0.016356671 0.0085633295 0.0025443707 -0.009826375
0000d0 c7 98 fc 3b d8 33 f0 3b ae f3 08 3c 74 22 49 bc
       0.007708642 0.007330399 0.008358879 -0.012276281
0000e0 64 ca b4 bc 3d 31 10 3c c0 b7 ae 39 1b 1d ae bc
       -0.022069164 0.008800802 0.0003332477 -0.021254113
0000f0 57 0e 82 bb b2 48 f2 bc 9c d6 51 bc 96 95 25 3c
       -0.0039689946 -0.02957568 -0.0128075145 0.010106465
000100 46 bb d1 bc 29 b5 9d bb 27 c1 f0 bb e5 9e c8 bc
       -0.025601994 -0.0048128557 -0.0073472443 -0.02448983
000110 c4 75 49 bc b7 cf 77 3c 1f 93 ac bc 84 07 69 3c
       -0.012296144 0.015125207 -0.021066247 0.014222983
000120 ed 93 0e bd 47 95 d8 3b f8 3b 79 ba 27 fe 9a 3c
       -0.03480904 0.006609592 -0.0009507532 0.018920017
000130 9a 6f 2b 3a 80 5e 02 3c 57 f2 8b bc 50 d9 21 3c
       0.0006539762 0.007957101 -0.01708333 0.0098784715
000140 04 14 91 bc 0b 25 86 ba 61 7c b6 bb f0 b2 a6 bc
       -0.01770974 -0.0010234428 -0.0055690263 -0.020348996
000150 1e 74 0b bd ae 26 fb bb 19 3f 0d bc 64 f7 c6 bb
       -0.034046285 -0.007664523 -0.008621001 -0.0060719717
000160 40 eb 0c 3c 9d d8 57 3c 30 62 4e bd 11 d9 ac bc
       0.00860101 0.013174203 -0.050386608 -0.0210996
000170 a8 b1 b5 ba 98 1a 87 3b 2e f5 db bc b3 7a 61 bc
       -0.001386215 0.0041230433 -0.02685031 -0.013762164
000180 26 80 97 3b bf f8 1b 3c b2 7b be bc 3e ef 8f 3b
       0.004623431 0.009519755 -0.023252342 0.0043925336
000190 08 ba 16 3c 2f d7 08 bc d4 a2 a0 bc e9 9f f5 3b
       0.009199627 -0.008352085 -0.019608893 0.0074958694
0001a0 c5 5e c3 ba 3d e2 8e 3c 12 11 a5 3c 10 03 b0 bc
       -0.0014905563 0.017441863 0.020149741 -0.021485835
0001b0 bc 81 bb 3b 39 61 d6 3b fa 18 52 3c 85 f0 10 3a
       0.0057222527 0.0065423516 0.012823338 0.0005529004
0001c0 30 6b 0c 3c 34 0c c7 bc 87 1c c1 3c 96 59 b1 bb
       0.008570477 -0.024297811 0.023573173 -0.005412291
0001d0 41 69 7a bb 07 27 8e bc 82 0c 05 bc e8 f9 80 3c
       -0.003820971 -0.017352594 -0.008120658 0.015744165
0001e0 57 ba 86 3c 54 65 0e bc a2 66 9a bb bc cc 2d 3c
       0.016446276 -0.008691151 -0.004711942 0.0106078945
0001f0 47 59 0c 3b ea 0a 33 bc 0d cf 93 bb 77 7a d7 3c
       0.0021415518 -0.010927895 -0.0045107664 0.026303513
000200 15 d7 af bb e5 af 96 3b b1 b0 90 3c ba 1e 38 bc
       -0.005366216 0.004598605 0.017662378 -0.0112377945
000210 77 f1 97 3b b3 a1 23 bc 4e 2c ff bb e3 4e a3 3c
       0.004636939 -0.009987283 -0.007787264 0.019935077
000220 99 83 f7 bb 4e a2 f6 bb 85 23 30 3b 78 c6 61 3b
       -0.0075535295 -0.0075266724 0.002687664 0.0034450572
000230 b5 78 3e bb b8 f2 0c 3b 4d 1a 64 3b b3 02 00 bc
       -0.0029063646 0.0021506976 0.0034805716 -0.007813144
000240 20 02 a9 3b cb 57 b1 3c 01 9b 6c b8 d2 ce 3b bc
       0.005157724 0.021648308 -5.6411143e-05 -0.011462884
000250 2a ca 34 3c f2 f6 24 bc 99 16 7e bc 12 b2 90 bc
       0.011034528 -0.010068642 -0.015508317 -0.017663036
000260 05 f4 72 bc a2 be 76 bc 6f 2c ca 3a 4a f8 27 3c
       -0.014828687 -0.015060099 0.0015424619 0.010252068
000270 a4 93 26 3c fe 40 4b b8 9c ce 33 3b 2d e4 65 3b
       0.010167036 -4.84595e-05 0.0027436381 0.003507863
000280 ed e3 69 3c 81 e0 d7 bb 41 89 9c bc 6f 20 6d 3c
       0.014275533 -0.0065880422 -0.019108417 0.014473065
000290 1b 85 e3 3a b2 b3 8e 3b e8 da 6a bb b4 28 68 bc
       0.0017358394 0.0043549174 -0.0035836045 -0.014169861
0002a0 f8 d2 a4 bc 81 e5 16 bc 04 b2 df bb 27 8d 1b bc
       -0.020120129 -0.009209991 -0.006826641 -0.009494103
0002b0 f7 6a 03 bc e9 d3 22 bc 90 36 90 bb be f2 42 bd
       -0.008021108 -0.009938219 -0.0044010356 -0.04759478
0002c0 45 19 bc 3b ed b6 a8 3c 1e 29 eb bb 15 f1 53 3c
       0.005740317 0.020595038 -0.0071765324 0.012935896
0002d0 b5 6c 35 3c 0a b8 9c ba a1 59 dc bc 54 8f 90 3b
       0.011073281 -0.0011956703 -0.026898207 0.0044116173
0002e0 fd 50 53 bc d0 aa 8a bc 10 ab 2d bc 17 3a a3 bc
       -0.012897727 -0.016927153 -0.0105998665 -0.01992516
0002f0 6f c8 e9 3b 06 37 84 3c e6 72 4f bc f6 d1 06 bc
       0.0071344892 0.016139518 -0.012661671 -0.0082287695
000300 2f f7 0e 3c e9 bb 65 ba 57 02 31 3b 5c 4a 3b 3b
       0.008725925 -0.00087636575 0.0027009451 0.0028578257
000310 df 31 2e bc 07 10 c3 bc dd 92 92 bb 6e d3 6d bc
       -0.010632007 -0.023811353 -0.004473074 -0.014515741
000320 cc 44 11 bc 98 53 61 bb 90 90 38 bc 73 50 59 3c
       -0.0088665 -0.00343821 -0.011264935 0.0132638095
000330 8f 8e 23 3b 5d 4f 3f 3c a3 b0 ed 3b 42 a3 c8 bb
       0.0024956798 0.0116766365 0.0072537228 -0.0061229775
000340 d8 27 a5 bc 8e 2f df ba 63 f6 c5 bb dd fc 3c bc
       -0.0201606 -0.0017027722 -0.0060413345 -0.011534897
000350 d0 f2 ae bc b8 bb d3 3b 0a 62 d2 3a 94 16 39 bc
       -0.021356016 0.006461587 0.0016050946 -0.011296887
000360 c0 09 85 bb e3 e0 4a 3b db bd 8a ba f1 32 a7 3c
       -0.00406 0.0030956797 -0.0010585146 0.020410033
000370 65 be 4c bb 83 c9 09 bc ea 00 9d bc 89 ae 73 b9
       -0.0031241414 -0.008409861 -0.019165475 -0.00023239305
000380 84 d4 a7 bc 5f e1 cd 3c ce 02 47 bc 4e 02 cc ba
       -0.020487078 0.02513188 -0.012146665 -0.0015564652
000390 be cf 89 3c 1a 9c cf bc db 0c 50 bb 2f 9a ea 3c
       0.016822692 -0.02534299 -0.0031745944 0.028637974
0003a0 01 c2 d8 3a 68 c6 ca bc 1d 32 82 bc 72 a0 c8 39
       0.001653731 -0.02475281 -0.015893036 0.00038266514
0003b0 4e a1 96 3b 68 0d 0b bc c5 a9 63 bc ca 25 f2 3b
       0.0045968657 -0.008487083 -0.013895457 0.0073897587
0003c0 eb b5 bb ba 36 b5 11 3b 78 ec 9a 3c b5 80 4a 3b
       -0.0014321184 0.0022233254 0.018911585 0.003089947
0003d0 4b 2e c1 3a f7 6d 17 bc aa a6 c2 3b b6 77 98 bb
       0.0014738528 -0.009242526 0.005940278 -0.0046529425
0003e0 50 fa e9 3b 91 21 af bb 6d bc 53 bc 8e 96 e2 bc
       0.0071404353 -0.0053445776 -0.012923342 -0.02765968
0003f0 b5 03 62 bc 6d db 20 bc 65 f0 a8 bc 71 d6 77 bc
       -0.013794829 -0.00981794 -0.020622442 -0.01512681

base.mlp.fc1.2.weight f4 [256]
000000 7a 99 7d 3f 21 fd 79 3f ec 7d 82 3f 8a 8c 7e 3f
       0.9906231 0.9765187 1.0194678 0.99433196
000010 46 aa 7c 3f 15 d3 7b 3f f7 19 7d 3f 49 6b 7c 3f
       0.98697317 0.9836896 0.98867744 0.98601204
000020 5d f5 80 3f 85 00 81 3f 0d 03 82 3f 41 7b 80 3f
       1.0074879 1.0078284 1.0157181 1.0037614
000030 44 89 80 3f d7 b0 83 3f 00 d3 7e 3f 16 39 7f 3f
       1.004189 1.0288342 0.9954071 0.9969648
000040 f3 27 7e 3f 2d 35 81 3f 42 9d 7d 3f 45 df 81 3f
       0.9927971 1.0094353 0.9906808 1.0146261
000050 7b 1b 7d 3f 12 6b 7b 3f f2 1b 7e 3f 05 d8 80 3f
       0.98870057 0.9821025 0.9926139 1.0065924
000060 c4 f2 7c 3f 20 70 80 3f 0b c7 7e 3f 73 5b 7e 3f
       0.9880793 1.0034218 0.99522465 0.9935829
000070 97 09 7a 3f d7 cb 84 3f e6 c0 80 3f bd d9 7e 3f
       0.9767088 1.0374707 1.0058868 0.9955099
000080 a3 84 7d 3f 80 3e 7e 3f 9e c4 80 3f 0f 9a 81 3f
       0.9903051 0.9931412 1.0060003 1.012514
000090 72 0a 7f 3f 8c 58 82 3f c5 38 7c 3f ba 0c 80 3f
       0.99625313 1.0183272 0.98524123 1.0003884
0000a0 ce 4c 7c 3f 46 7e 80 3f 98 a9 7b 3f bf 6f 82 3f
       0.98554695 1.0038536 0.98305655 1.0190352
0000b0 a7 21 81 3f 2e a5 7d 3f 00 57 83 3f 60 d7 7b 3f
       1.0088395 0.9908017 1.0260925 0.9837551
0000c0 aa d0 7b 3f cb 92 7f 3f 97 3b 82 3f 14 2f 83 3f
       0.9836527 0.99833363 1.0174435 1.0248742
0000d0 b0 88 80 3f f4 8a 7e 3f 16 a7 80 3f 0e d8 7a 3f
       1.0041714 0.99430776 1.005099 0.97985923
0000e0 1a a1 7d 3f 5d be 83 3f 0c 35 7e 3f 2a f3 80 3f
       0.99073946 1.0292469 0.99299693 1.0074208
0000f0 e0 2a 80 3f 93 4a 7f 3f bf 8a 79 3f 43 cd 7d 3f
       1.0013084 0.99723166 0.97477335 0.9914133
000100 a5 50 7d 3f fa ac 7f 3f 1e f0 79 3f 76 9a 80 3f
       0.9895118 0.99873316 0.97632015 1.0047138
000110 5f 47 82 3f 87 a0 7b 3f e1 e8 7e 3f 12 9d 7f 3f
       1.0178031 0.9829182 0.99574095 0.99849045
000120 18 c1 82 3f 34 f9 7f 3f 95 84 7f 3f 71 5c 84 3f
       1.0215178 0.9998963 0.9981168 1.0340711
000130 03 aa 82 3f 70 a9 7e 3f 7e 53 81 3f 20 d7 82 3f
       1.0208133 0.9947729 1.0103605 1.0221901
000140 0f 9c 81 3f 40 6b 83 3f 4d d6 80 3f 86 25 7b 3f
       1.012575 1.0267105 1.00654 0.9810413
000150 15 01 7f 3f 37 48 81 3f 91 a6 80 3f 90 42 84 3f
       0.99611026 1.0100163 1.0050832 1.0332813
000160 c0 a2 82 3f e1 ec 7e 3f 89 08 76 3f a7 2f 82 3f
       1.0205917 0.995802 0.96106774 1.0170792
000170 b8 36 80 3f 33 6e 82 3f 3f a7 7d 3f d4 a2 7d 3f
       1.0016699 1.018988 0.9908332 0.9907658
000180 d7 fc 80 3f 21 f0 83 3f c9 97 7c 3f 16 19 81 3f
       1.0077161 1.0307657 0.98669106 1.0085781
000190 74 a0 81 3f f7 f7 80 3f dc 8a 7b 3f 6e c5 82 3f
       1.0127091 1.0075673 0.9825876 1.0216501
0001a0 d6 47 81 3f 6d ff 79 3f 15 c7 81 3f 0e 5a 7e 3f
       1.0100048 0.97655374 1.013888 0.9935616
0001b0 1b 80 7f 3f 34 65 82 3f 62 6a 83 3f a6 ef 80 3f
       0.9980485 1.0187135 1.026684 1.0073135
0001c0 92 ff 80 3f 91 f6 7e 3f 71 79 83 3f 46 a9 79 3f
       1.0077994 0.9959498 1.0271436 0.97523916
0001d0 a4 03 81 3f 46 4e 79 3f dc 02 82 3f c9 ae 83 3f
       1.0079236 0.9738506 1.0157123 1.0287715
0001e0 2b e4 7f 3f b7 5c 7c 3f 65 47 77 3f bf 7f 82 3f
       0.9995753 0.9857897 0.96593314 1.0195235
0001f0 18 d8 81 3f 42 24 80 3f 0a 0a 7a 3f b6 00 82 3f
       1.0144072 1.0011065 0.9767157 1.0156467
000200 f3 3f 82 3f da 5c 7c 3f e9 6a 7e 3f 36 f8 7e 3f
       1.0175766 0.9857918 0.9938188 0.9959749
000210 81 26 82 3f 97 b6 81 3f f1 fe 7b 3f 36 90 81 3f
       1.0168 1.0133847 0.98435885 1.0122135
000220 ed 04 7b 3f 04 a3 7d 3f cf eb 81 3f 0f 6b 80 3f
       0.9805439 0.9907687 1.0150088 1.0032672
000230 80 8e 82 3f 3d 54 7a 3f ae f9 7f 3f d7 3e 84 3f
       1.0199738 0.9778479 0.99990356 1.0331677
000240 5b 78 81 3f 2c 2b 80 3f 16 19 82 3f cd 5b 7b 3f
       1.0114855 1.0013175 1.0163906 0.9818695
000250 20 c6 78 3f b0 7d 7a 3f f3 50 7a 3f e0 73 7b 3f
       0.97177315 0.97848034 0.9777977 0.98223686
000260 16 eb 7d 3f f3 35 81 3f eb 58 7f 3f 88 97 81 3f
       0.9918684 1.0094589 0.99745053 1.0124369
000270 62 47 7d 3f ce e1 7c 3f 59 d4 82 3f 2c f1 80 3f
       0.98937047 0.9878205 1.0221053 1.00736
000280 a2 47 80 3f e2 7f 7f 3f aa cf 81 3f e3 38 81 3f
       1.0021861 0.9980451 1.0141499 1.0095485
000290 b4 85 7b 3f 8f d7 81 3f fc d9 7e 3f 17 b9 7f 3f
       0.9825089 1.0143908 0.9955137 0.998918
0002a0 3b 07 80 3f e4 dd 82 3f 2c aa 82 3f 65 35 84 3f
       1.0002207 1.0223966 1.0208182 1.0328795
0002b0 e5 13 80 3f 70 6a 7e 3f b0 45 83 3f 2d ed 82 3f
       1.0006071 0.9938116 1.0255642 1.022863
0002c0 b3 c0 82 3f 7d 48 80 3f 28 98 7d 3f ae de 7c 3f
       1.0215057 1.0022122 0.99060297 0.9877728
0002d0 4c 16 80 3f d4 4e 83 3f 96 a7 7d 3f 2c 42 7d 3f
       1.0006804 1.0258431 0.9908384 0.98929095
0002e0 90 d5 7b 3f 9e 4e 7f 3f 3c fd 7b 3f ca e5 7f 3f
       0.98372746 0.99729335 0.9843328 0.99960005
0002f0 23 2b 82 3f cd 13 7b 3f 2c f6 7a 3f a3 4a 80 3f
       1.0169414 0.9807709 0.9803188 1.0022777
000300 40 af 7f 3f 2e dd 82 3f 82 10 7f 3f 6d 5d 80 3f
       0.99876785 1.0223749 0.99634564 1.0028511
000310 77 79 7e 3f c6 ee 79 3f d3 97 81 3f eb f6 81 3f
       0.9940409 0.97629964 1.0124458 1.0153478
000320 4f 87 81 3f 9e be 7f 3f 93 40 81 3f b1 f8 7d 3f
       1.0119418 0.99900234 1.0097831 0.992076
000330 96 e9 7b 3f 9a 0c 81 3f e5 97 7f 3f d8 bc 80 3f
       0.984033 1.0081971 0.9984115 1.005763
000340 23 c6 80 3f 0c 76 82 3f 25 9d 7c 3f 53 36 81 3f
       1.0060467 1.0192275 0.98677284 1.0094703
000350 1b 06 7a 3f 1b b8 80 3f b8 6d 80 3f dd 12 80 3f
       0.97665566 1.0056185 1.0033484 1.0005757
000360 8c 7f 7b 3f 1b 0e 83 3f ac 3e 83 3f df c5 82 3f
       0.98241496 1.023868 1.0253501 1.0216635
000370 79 e0 7f 3f 15 49 7f 3f 85 f7 80 3f 85 f5 82 3f
       0.99951893 0.9972089 1.0075537 1.0231177
000380 06 57 7d 3f e4 6c 84 3f cf f9 7d 3f ee 5d 82 3f
       0.9896091 1.0345731 0.992093 1.0184915
000390 6f ad 81 3f b1 07 79 3f 96 8d 7f 3f cf 8f 81 3f
       1.0131053 0.9727736 0.9982542 1.0122012
0003a0 15 19 81 3f 44 19 7f 3f ca c9 7e 3f a6 4c 80 3f
       1.008578 0.9964793 0.99526656 1.0023391
0003b0 a8 dc 7d 3f 66 79 7e 3f d2 78 81 3f 27 af 7b 3f
       0.9916482 0.9940399 1.0114996 0.98314136
0003c0 54 a5 7d 3f ea c7 7f 3f 52 be 7e 3f 6c bc 7d 3f
       0.99080396 0.9991442 0.99509156 0.99115634
0003d0 29 6c 7f 3f c0 a3 7e 3f 3c 33 80 3f 5c 31 7c 3f
       0.99774414 0.9946861 1.0015635 0.98512816
0003e0 ff ee 81 3f 07 30 82 3f a3 23 7f 3f 9b 9d 7c 3f
       1.0151061 1.0170907 0.9966375 0.98677987
0003f0 ca 63 7d 3f c3 25 7c 3f 23 98 7c 3f 2e c9 7f 3f
       0.9898039 0.9849512 0.9866964 0.9991635

base.mlp.fc1.2.bias f4 [256]
000000 7f d3 3c ba 29 95 ce 3b f4 d5 ac bb a1 88 72 bc
       -0.0007203146 0.0063044024 -0.0052745286 -0.014803083
000010 07 87 58 bc 02 82 37 3c d3 01 1c bc a1 4f 0a 3c
       -0.013215787 0.01120043 -0.009521919 0.008441837
000020 6c 30 83 3b a5 83 65 3a bf 12 83 bc 76 6f db bb
       0.004003575 0.00087552733 -0.01600015 -0.006696637
000030 6b f3 5d bc 62 6a ca 3c 2a 35 63 3b 58 f8 0e 3c
       -0.013546805 0.02470893 0.003466914 0.008726202
000040 51 36 bd 3c 18 1e 98 3b 3d db 82 bc c7 41 c2 3a
       0.02309719 0.0046422593 -0.015973682 0.0014820629
000050 f8 02 50 3c 19 17 b2 3c 9c e6 52 3b 82 98 46 3c
       0.01269602 0.02173953 0.003218091 0.012121322
000060 54 3a 85 3a 7f 56 d3 3b e6 0c 53 bc be d8 01 bc
       0.0010164478 0.00644952 -0.012881493 -0.0079252105
000070 c5 2e 2d bc f0 9b ad 3b 5e 17 c2 bb 10 72 08 bc
       -0.010570233 0.00529813 -0.0059231957 -0.008327976
000080 6a 38 13 3c 0d 36 e1 39 5a b7 03 3a 4a ee 3f bc
       0.008985618 0.00042955615 0.0005024575 -0.011714527
000090 d0 a4 0b 3c 81 c5 90 bb 7b ce 2c 3c 89 50 97 bb
       0.008523181 -0.0044180756 0.010547276 -0.004617755
0000a0 0e 85 55 bc 22 f1 44 bb 47 f7 33 bb 86 1a 3c bc
       -0.013032211 -0.0030050953 -0.0027460621 -0.011480933
0000b0 d6 69 2a b9 b6 f0 8b 3c a4 2b 1d bc bd 49 2f 3b
       -0.0001625189 0.017082553 -0.009592924 0.0026746832
0000c0 a6 a0 73 bb 45 61 de 3c b0 8f 44 3a af d9 c7 bb
       -0.0037174611 0.027145991 0.0007498218 -0.006098948
0000d0 af b5 e4 3a d4 73 40 3c 98 a1 08 3d 3b 76 cd 3b
       0.0017449165 0.011746366 0.033357233 0.0062701977
0000e0 30 73 53 bc 7f 34 f6 3b 3b c1 2c 3c 12 ef 7a bc
       -0.012905881 0.0075135822 0.010544117 -0.015315788
0000f0 56 22 b7 3b e7 6f f6 bc b6 e5 08 3c b8 b4 12 3c
       0.00558881 -0.030082656 0.008355549 0.0089542195
000100 d6 e2 0c bc a5 26 5c 3c a4 8b b0 bb 7a ba c6 b9
       -0.008599004 0.013436948 -0.00538774 -0.0003790444
000110 d6 1c a4 bc d3 4e 30 3c f6 66 8f 3b 7d b4 90 bb
       -0.020033281 0.010760981 0.0043762876 -0.004416047
000120 0a 36 e6 bc 14 78 35 3c 12 4d 76 3c b5 78 3a 3b
       -0.02810194 0.011075992 0.015033023 0.0028453295
000130 9b 48 97 3a 5e 85 56 3c 7b 16 c6 bb d5 b9 36 bc
       0.0011542024 0.013093321 -0.0060451603 -0.011152704
000140 b3 90 c9 bc 24 02 ce bb 2f 28 06 bb 74 04 9c 3a
       -0.02460513 -0.0062868763 -0.0020470729 0.0011903183
000150 5f e8 98 bb 49 6b 34 bc 3d bc d9 37 76 29 4f bc
       -0.0046663727 -0.011011907 2.5956071e-05 -0.012644162
000160 da 8b 00 bc e9 d0 01 3c fc a6 4b bc f9 7e 44 bb
       -0.007845843 0.007923343 -0.012429949 -0.0029982908
000170 5a 16 86 36 fa 1e 35 3c 12 95 2a bb 00 6f 58 bc
       3.9961133e-06 0.011054749 -0.0026028794 -0.013210058
000180 cc 06 76 39 75 e1 28 3b 76 12 bc bb f1 02 e0 bb
       0.0002346292 0.0025769148 -0.0057395054 -0.006836288
000190 f6 e7 c0 bb 63 51 bc bb d8 7a be bb 76 b9 f2 3b
       -0.005887027 -0.0057470067 -0.005812984 0.0074073626
0001a0 5e 7c f9 ba 4f 3b 0a 3d 18 91 78 3c d2 7d 92 bc
       -0.0019034257 0.033747967 0.015171312 -0.017882261
0001b0 48 ce c9 3b 6d d2 c4 3b b5 7c 95 3c 2b d5 71 3c
       0.006158624 0.00600653 0.018247942 0.014760296
0001c0 0f d2 07 3b ab 2a e8 bc 37 f4 2c bb b2 5a 3c 3c
       0.002072457 -0.028340658 -0.002639068 0.011496233
0001d0 df 24 1d bc 75 32 36 3b 8a 19 29 bc 46 40 af bb
       -0.00959131 0.002780107 -0.01032103 -0.005348238
0001e0 ef c6 43 3c 4c 0c 68 3c 6f 4a a6 3b 52 5f 04 bb
       0.011949285 0.014163088 0.005074791 -0.0020198417
0001f0 50 29 11 3c 46 58 7c ba 55 3d 36 3c 2b 8a 0b 3d
       0.008859947 -0.0009626191 0.011123021 0.034067314
000200 37 ae 1a bc e9 6c c6 3a 6a bf da 3c cf 63 33 3c
       -0.00944095 0.0015138659 0.026702601 0.010949089
000210 05 16 1f 3c 99 05 82 bc 99 43 95 3c be 61 69 3c
       0.00970984 -0.01587181 0.01822071 0.014244495
000220 0d e9 b4 3a be 93 1d bc 3e 6a 15 bc be f0 ca 3b
       0.0013802365 -0.009617744 -0.009119568 0.0061932495
000230 da d3 f5 bb 76 0f 7b 3c 05 7b 81 3b c6 4b 87 bc
       -0.0075020613 0.01532351 0.0039514326 -0.016515624
000240 8d b4 3c bb bf c6 f2 3c 7a 42 8d b9 7d 66 dc 39
       -0.002879414 0.029635785 -0.00026943145 0.0004203803
000250 dd ee c1 3b 7a 4a cb 3b 4b 78 a4 ba e3 3d 7b bc
       0.0059183673 0.0062039467 -0.0012548057 -0.015334579
000260 48 4b 71 3c d5 54 db bc 91 82 06 3c 9a a2 16 bc
       0.014727421 -0.02677385 0.00820984 -0.009194041
000270 d8 a3 16 3c a4 25 ef bb f0 66 f4 ba 68 a9 ab bb
       0.009194337 -0.0072981883 -0.00186464 -0.0052387007
000280 09 6c 57 3c c9 7b 9d 3a 09 cf a5 bc ea eb 81 bb
       0.013148316 0.001201504 -0.020240324 -0.0039648907
000290 cf 1a 9d 3c 49 11 64 3c 2c 81 2c 3c 72 48 fa 3a
       0.019177822 0.013920137 0.010528844 0.0019095077
0002a0 a8 54 c5 bc c5 4a 11 3b 1b 78 fc bb d1 e7 3a bc
       -0.024088219 0.002216981 -0.0077047474 -0.011407808
0002b0 7f 7d c1 3b d8 eb a9 3b 32 69 59 bc b5 5e c7 bc
       0.005904853 0.0051855855 -0.013269709 -0.024337152
0002c0 32 52 5b 3b 3d f8 cd 3c e0 e2 12 3b 90 5d 45 3c
       0.003346574 0.025142783 0.002241306 0.012046233
0002d0 c5 1d 0c bb 30 40 d6 ba 28 89 a8 bc 95 25 11 bb
       -0.0021380049 -0.0016346034 -0.020573214 -0.0022147645
0002e0 60 45 75 3b 44 07 1f bc f5 59 92 bb 53 5f 51 bc
       0.0037425384 -0.009706322 -0.00446629 -0.012779075
0002f0 4b ab f9 bb ff dd ea 3c a7 20 ea 3b 63 dc 02 3c
       -0.0076192967 0.02867031 0.0071450057 0.007987115
000300 ac b8 fe 3b f9 50 98 bc 72 87 d1 3b 5a f3 3a 3c
       0.0077734794 -0.018593298 0.00639432 0.011410559
000310 db 8b 0f 3c 5a 65 06 bc 29 8d 58 bb 89 e7 48 bb
       0.0087613715 -0.008202875 -0.0033043122 -0.0030655584
000320 12 67 6f 39 85 46 06 3b 0f 54 04 3c b5 65 85 3c
       0.00022831213 0.002048881 0.008076682 0.01628385
000330 4a 3d 4d 3b b5 79 01 3c ce e9 3a 3c e7 a8 67 bb
       0.0031317049 0.007902552 0.011408282 -0.0035348476
000340 29 2e 86 bc 06 a1 67 ba a9 43 a9 3b c3 d0 15 bc
       -0.016379433 -0.0008835945 0.0051655364 -0.009144011
000350 5a da 6e 3c 9b 3c 31 3c c4 24 10 3c bb 62 c1 3a
       0.014578426 0.010817672 0.008797828 0.0014754155
000360 d2 95 a3 3c 87 f0 38 3a 3b 7c 87 bb 77 43 13 bb
       0.0199689 0.00070548843 -0.0041346825 -0.0022470632
000370 b4 f0 08 bd df fc 90 3b 6c 06 95 bc 8e 86 9f 3a
       -0.033432677 0.004424676 -0.018191539 0.0012170838
000380 39 2b 05 ba 75 44 04 3b 57 46 dd 3a 76 e2 c4 bb
       -0.0005079988 0.0020182405 0.0016881925 -0.0060084416
000390 30 84 f4 bb 34 22 40 3b 6e f1 90 3c 16 7f 7e 3c
       -0.007462047 0.0029317262 0.017693248 0.015533229
0003a0 4b 2d e1 3c d3 28 ec bb f3 a6 0d bc ac 55 14 3c
       0.027487418 -0.007207015 -0.008645761 0.009053629
0003b0 1e c3 6e 3c 94 19 66 3c 98 e4 37 bc 8e d6 9c 3c
       0.014572887 0.014044184 -0.011223935 0.019145276
0003c0 88 ba 0b bc 64 e2 3a 3c 73 8f 8b 3b ef 79 48 3c
       -0.008528359 0.011406515 0.004259044 0.0122361025
0003d0 d0 4e 46 3c d9 5c e5 bb f8 ac 66 ba ee c3 0b 3c
       0.012103751 -0.0069995937 -0.0008799578 0.0085306
0003e0 0d ed 80 ba 18 fe 29 3a 67 6b 0a bc 2a 35 7d bc
       -0.0009836272 0.00064847013 -0.008448458 -0.01545457
0003f0 85 7e 0f bc a8 79 23 3c aa 1d 65 bc 86 d5 39 bc
       -0.008758192 0.009977736 -0.013984123 -0.011342412

base.mlp.fc_h.0.weight f4 [256, 256]
000000 3f 5d 18 3d 22 52 d8 bd cc b2 ac bd 8e c3 17 3e
       0.0371983 -0.105625406 -0.0843254 0.14820692
000010 ef f2 92 bd d4 ab 03 bd 3a 7f db ba 22 b3 f0 bc
       -0.07175242 -0.03214629 -0.001674629 -0.029382292
000020 e5 91 72 be 0c e0 1a bd 74 6c 80 bd bc df 30 3e
       -0.23688467 -0.037811324 -0.06270686 0.17272848
000030 9c d9 90 bd 77 af 01 3d 8c 66 13 3d a8 d7 0a bd
       -0.07072756 0.031661477 0.03598647 -0.033897072
000040 21 97 b1 bd 30 18 2e bb f2 d0 a9 3c d6 a3 ce bc
       -0.08671404 -0.002656471 0.020729516 -0.025224607
000050 94 d2 a7 bd c6 74 80 bd e8 92 c3 3c da c1 9b 3d
       -0.081944615 -0.06272273 0.023873761 0.076053336
000060 4c 2e 24 3e 61 62 0f 3d b0 ca 0a bd c1 7a d6 bc
       0.16033286 0.03500593 -0.033884704 -0.02618158
000070 d3 12 d6 bd 52 07 64 3d a7 a8 33 be fe 2e be 3c
       -0.10452809 0.055671044 -0.17544805 0.023215767
000080 ff e3 d7 3c ec b5 94 bb 9f 5b d2 bd 1c 0a fa bd
       0.026353834 -0.0045382883 -0.102713816 -0.122089595
000090 f1 d9 2c bd c4 03 49 3d 70 be b7 bd 4f 3b b4 bd
       -0.042200033 0.049075857 -0.0897187 -0.08800375
0000a0 ee 1e 62 bd 33 5e 05 bd a6 30 8f bc 87 60 29 bb
       -0.055205278 -0.03256054 -0.017479252 -0.0025844888
0000b0 77 e4 31 3d 6c ec 8b 3d c8 b4 70 bd 6e b0 01 be
       0.04343077 0.06832203 -0.058766156 -0.12664959
0000c0 e6 86 64 be af 7b be 3c b6 3d 45 3d 52 68 44 bd
       -0.22317085 0.023252336 0.048154555 -0.04795105
0000d0 d1 f6 84 3c 74 08 03 3e 09 62 95 bd 97 af a9 bc
       0.016230972 0.12796193 -0.07294089 -0.02071361
0000e0 62 c9 de 3c c4 09 b7 bd 1b 31 2a 3e f2 8f 8c 3d
       0.027195636 -0.089374095 0.16620295 0.06863393
0000f0 fb c4 07 bd 7b da 1e bd 91 bb 4a 3d 8e c7 ea bd
       -0.03314684 -0.038782578 0.049495284 -0.11463843
000100 85 be c1 bd d6 66 0e 3e bd 58 aa bd 25 0a 16 bc
       -0.09460167 0.13906416 -0.08317707 -0.009157692
000110 6e f7 d3 bd 9f a5 d6 39 63 3f 8d bc 97 cd 85 bc
       -0.10349928 0.00040940658 -0.01724214 -0.016333384
000120 f8 45 37 3d ca 47 77 3c 92 52 ed bc b2 8f 06 be
       0.04474446 0.015092799 -0.028970037 -0.13140753
000130 ea c2 37 3d 5a a3 0a 3c 91 bf e8 bc 7a 2d 3c bc
       0.04486362 0.008461798 -0.028411658 -0.011485452
000140 ad 44 0b 3d b1 a4 0c be dc 2c ad bd 43 e5 49 3c
       0.03400104 -0.137347 -0.08455822 0.012322727
000150 e4 ea 5f bd 3a e8 88 bd c8 d3 9b bb 01 91 30 bd
       -0.05466737 -0.06684919 -0.004755471 -0.043107037
000160 6d 5a 77 bd 73 58 2a 3d 2f f8 52 bc 36 00 be 3c
       -0.06038897 0.041588258 -0.012876554 0.02319346
000170 81 e0 be 3c 1f e4 ea bd a0 42 17 3e 81 8c 4a 3c
       0.023300411 -0.11469292 0.14771509 0.0123626
000180 7a 38 ff 3c 07 ef c0 3d 8e a8 05 3e 8f 78 c0 3d
       0.03115486 0.09420591 0.1305258 0.09397995
000190 bc 02 1f 3e 55 8d 34 bd e6 83 15 be 4a 25 0d 3e
       0.15528387 -0.044080097 -0.14601097 0.13783756
0001a0 03 7a 5c 3d 2c 93 e2 bc 00 f2 5c 3b 8b 97 60 bd
       0.053827297 -0.027658068 0.003371358 -0.054832023
0001b0 ab 60 ec bd 6f 19 09 be 39 70 ce bd 3f 59 bd bc
       -0.115418755 -0.13388608 -0.100799985 -0.023113845
0001c0 77 6c a4 3d 67 43 8a 3d cd 38 f8 bd e0 9c 55 3d
       0.080285005 0.06751137 -0.12120209 0.05215156
0001d0 39 d8 31 3e 93 14 44 bd 73 1c 86 3d 50 c6 8d bd
       0.17367639 -0.047871184 0.06548395 -0.06922591
0001e0 82 0d 09 3e 2d 74 01 3d 38 4f 9f 3d ae 9c 0c 3e
       0.13384059 0.031604934 0.07778782 0.13731644
0001f0 39 21 8e bd 18 2e 88 3c 45 f6 2c 3d 10 72 13 3d
       -0.069399305 0.016623542 0.04222705 0.03599745
000200 fb bf de bd a0 32 07 be 43 1c d7 bc 90 b1 e1 3b
       -0.10876461 -0.13202906 -0.026258593 0.006887622
000210 16 50 b5 3d 81 87 08 be 51 8f de bd 08 3c 22 bd
       0.08853166 -0.1333294 -0.10867179 -0.03960803
000220 fd 75 51 3d 93 8b 70 3d d8 8a 43 3d f6 41 39 bc
       0.051137913 0.05872686 0.047739834 -0.01130723
000230 64 c0 90 3d b0 0b c6 3c 85 a1 92 bd 43 c4 d3 3c
       0.070679456 0.024175495 -0.07159714 0.02585042
000240 ff 28 de bc e5 1a 81 3d 4a aa d4 3d 24 4a 64 3e
       -0.027119158 0.06303958 0.103840426 0.22293907
000250 fa dc bb bd c8 4a b3 3c b8 e5 9f bd a1 78 2b bd
       -0.09173007 0.021886244 -0.07807487 -0.041863088
000260 93 fd d6 3d e6 e9 96 3e 64 f5 82 3d 52 89 6e bc
       0.10497584 0.29475325 0.06394461 -0.014559107
000270 d2 e3 a5 bd 63 0c 67 3d 8c 04 f5 3c a7 31 50 bc
       -0.08100094 0.056408297 0.029909395 -0.012707151
000280 f7 04 a3 bc f4 c2 a9 bb 77 6e 54 3d c3 4b 07 be
       -0.019899828 -0.005180711 0.05186316 -0.13212495
000290 9a 2a 34 3e 24 17 97 3d 73 c5 54 bc 1e 75 20 3e
       0.17594376 0.073774606 -0.012986529 0.15669677
0002a0 94 78 3b bd 67 1a 09 3e 76 55 b7 3d a3 9e 6d 3d
       -0.04576929 0.13388978 0.08951847 0.058012616
0002b0 bd c8 42 be 5a 4a 76 bc 6b 01 a9 3d d8 53 42 3d
       -0.19021888 -0.015032375 0.082522236 0.04744324
0002c0 5e 97 65 bc 14 6f 1c bd 39 3f 04 be 61 30 ec bd
       -0.0140131395 -0.03819187 -0.12914743 -0.11532665
0002d0 8f 4d 4a 3d 1f 1c d6 3d cd d1 77 3d b9 a1 3a 3d
       0.049390372 0.104545824 0.060502816 0.045564387
0002e0 f1 81 a0 bc 82 f9 38 be d4 18 38 bd c0 c8 8c 3d
       -0.01959321 -0.1806393 -0.044945553 0.068742275
0002f0 4d af 5e 3b 62 42 c1 bc 6d c3 e3 bd 3f 5c f6 3d
       0.0033979 -0.023591224 -0.11121259 0.12029313
000300 e3 d2 88 3d 21 4c 45 be e3 61 bc 3d bd 69 56 bd
       0.066808484 -0.19267322 0.09198358 -0.052346934
000310 03 f6 5c 3d cd 79 1a 3e 11 1d a8 bd d2 22 a1 3d
       0.053945553 0.15085526 -0.08208669 0.078679696
000320 56 2c 98 bb 1c 88 88 3d 77 f9 38 be d2 c1 00 be
       -0.004643957 0.06666586 -0.18063913 -0.12573937
000330 7e 5f 44 bd 9a 1b 16 bd c8 6d a7 bd 75 3c db 3d
       -0.04794263 -0.036647417 -0.08175236 0.10704891
000340 10 0d 58 3d 35 5a 2d 3e b0 97 eb 3c 79 dd 30 bc
       0.052746832 0.16928943 0.028758854 -0.010794991
000350 11 f8 90 3c 73 63 25 bd 28 99 99 3c 50 14 11 bd
       0.017696412 -0.040378045 0.018749788 -0.035419762
000360 d7 2d 1c 3d f6 58 01 be c0 b2 5e 3e a5 65 85 3d
       0.038129654 -0.12631592 0.21747875 0.06513528
000370 0e 0d e9 bd 5c b5 48 3c aa ac 32 3d 2e e4 b0 3b
       -0.11379443 0.012250271 0.043621697 0.005398295
000380 71 2e 75 3d 36 76 d2 bb e3 e4 a3 3d 7d 90 a1 bd
       0.059858743 -0.0064227832 0.08002641 -0.07888887
000390 44 5a ea 3d 84 65 27 be e1 12 32 3e 1c 11 e0 3c
       0.11442998 -0.16347319 0.17390014 0.027351908
0003a0 71 e9 92 3d 2f 92 a4 bc b2 89 e5 3d 9b 49 8a 3d
       0.07173432 -0.020089237 0.11207904 0.067523204
0003b0 a0 f9 f1 bc 41 df 0d be 40 ae 04 bb 86 4f 75 bd
       -0.029537976 -0.13854696 -0.0020245463 -0.059890293
0003c0 ad 0e 68 bd 1e f9 c9 3d 46 1e 35 3d 04 79 b2 bd
       -0.05665462 0.098619685 0.044218324 -0.08714488
0003d0 dd e4 bf 3d 8f 63 fa 3c 54 43 98 bd 68 64 01 be
       0.09369824 0.030565051 -0.07434717 -0.12635958
0003e0 d5 f8 11 3d f7 81 1d 3d 6d b9 85 3b 05 7d 1c 3d
       0.035637695 0.038454022 0.0040809424 0.038205165
0003f0 cb 84 68 3e 1f 0a 81 3d 14 3e d0 3d ae 6d f4 bd
       0.22706906 0.063007586 0.101680905 -0.11934982

base.mlp.fc_h.0.bias f4 [256]
000000 00 00 00 00 00 00 00 00 00 00 00 00 00 00 00 00
       0.0 0.0 0.0 0.0
000010 00 00 00 00 00 00 00 00 00 00 00 00 00 00 00 00
       0.0 0.0 0.0 0.0
000020 00 00 00 00 00 00 00 00 00 00 00 00 00 00 00 00
       0.0 0.0 0.0 0.0
000030 00 00 00 00 00 00 00 00 00 00 00 00 00 00 00 00
       0.0 0.0 0.0 0.0
000040 00 00 00 00 00 00 00 00 00 00 00 00 00 00 00 00
       0.0 0.0 0.0 0.0
000050 00 00 00 00 00 00 00 00 00 00 00 00 00 00 00 00
       0.0 0.0 0.0 0.0
000060 00 00 00 00 00 00 00 00 00 00 00 00 00 00 00 00
       0.0 0.0 0.0 0.0
000070 00 00 00 00 00 00 00 00 00 00 00 00 00 00 00 00
       0.0 0.0 0.0 0.0
000080 00 00 00 00 00 00 00 00 00 00 00 00 00 00 00 00
       0.0 0.0 0.0 0.0
000090 00 00 00 00 00 00 00 00 00 00 00 00 00 00 00 00
       0.0 0.0 0.0 0.0
0000a0 00 00 00 00 00 00 00 00 00 00 00 00 00 00 00 00
       0.0 0.0 0.0 0.0
0000b0 00 00 00 00 00 00 00 00 00 00 00 00 00 00 00 00
       0.0 0.0 0.0 0.0
0000c0 00 00 00 00 00 00 00 00 00 00 00 00 00 00 00 00
       0.0 0.0 0.0 0.0
0000d0 00 00 00 00 00 00 00 00 00 00 00 00 00 00 00 00
       0.0 0.0 0.0 0.0
0000e0 00 00 00 00 00 00 00 00 00 00 00 00 00 00 00 00
       0.0 0.0 0.0 0.0
0000f0 00 00 00 00 00 00 00 00 00 00 00 00 00 00 00 00
       0.0 0.0 0.0 0.0
000100 00 00 00 00 00 00 00 00 00 00 00 00 00 00 00 00
       0.0 0.0 0.0 0.0
000110 00 00 00 00 00 00 00 00 00 00 00 00 00 00 00 00
       0.0 0.0 0.0 0.0
000120 00 00 00 00 00 00 00 00 00 00 00 00 00 00 00 00
       0.0 0.0 0.0 0.0
000130 00 00 00 00 00 00 00 00 00 00 00 00 00 00 00 00
       0.0 0.0 0.0 0.0
000140 00 00 00 00 00 00 00 00 00 00 00 00 00 00 00 00
       0.0 0.0 0.0 0.0
000150 00 00 00 00 00 00 00 00 00 00 00 00 00 00 00 00
       0.0 0.0 0.0 0.0
000160 00 00 00 00 00 00 00 00 00 00 00 00 00 00 00 00
       0.0 0.0 0.0 0.0
000170 00 00 00 00 00 00 00 00 00 00 00 00 00 00 00 00
       0.0 0.0 0.0 0.0
000180 00 00 00 00 00 00 00 00 00 00 00 00 00 00 00 00
       0.0 0.0 0.0 0.0
000190 00 00 00 00 00 00 00 00 00 00 00 00 00 00 00 00
       0.0 0.0 0.0 0.0
0001a0 00 00 00 00 00 00 00 00 00 00 00 00 00 00 00 00
       0.0 0.0 0.0 0.0
0001b0 00 00 00 00 00 00 00 00 00 00 00 00 00 00 00 00
       0.0 0.0 0.0 0.0
0001c0 00 00 00 00 00 00 00 00 00 00 00 00 00 00 00 00
       0.0 0.0 0.0 0.0
0001d0 00 00 00 00 00 00 00 00 00 00 00 00 00 00 00 00
       0.0 0.0 0.0 0.0
0001e0 00 00 00 00 00 00 00 00 00 00 00 00 00 00 00 00
       0.0 0.0 0.0 0.0
0001f0 00 00 00 00 00 00 00 00 00 00 00 00 00 00 00 00
       0.0 0.0 0.0 0.0
000200 00 00 00 00 00 00 00 00 00 00 00 00 00 00 00 00
       0.0 0.0 0.0 0.0
000210 00 00 00 00 00 00 00 00 00 00 00 00 00 00 00 00
       0.0 0.0 0.0 0.0
000220 00 00 00 00 00 00 00 00 00 00 00 00 00 00 00 00
       0.0 0.0 0.0 0.0
000230 00 00 00 00 00 00 00 00 00 00 00 00 00 00 00 00
       0.0 0.0 0.0 0.0
000240 00 00 00 00 00 00 00 00 00 00 00 00 00 00 00 00
       0.0 0.0 0.0 0.0
000250 00 00 00 00 00 00 00 00 00 00 00 00 00 00 00 00
       0.0 0.0 0.0 0.0
000260 00 00 00 00 00 00 00 00 00 00 00 00 00 00 00 00
       0.0 0.0 0.0 0.0
000270 00 00 00 00 00 00 00 00 00 00 00 00 00 00 00 00
       0.0 0.0 0.0 0.0
000280 00 00 00 00 00 00 00 00 00 00 00 00 00 00 00 00
       0.0 0.0 0.0 0.0
000290 00 00 00 00 00 00 00 00 00 00 00 00 00 00 00 00
       0.0 0.0 0.0 0.0
0002a0 00 00 00 00 00 00 00 00 00 00 00 00 00 00 00 00
       0.0 0.0 0.0 0.0
0002b0 00 00 00 00 00 00 00 00 00 00 00 00 00 00 00 00
       0.0 0.0 0.0 0.0
0002c0 00 00 00 00 00 00 00 00 00 00 00 00 00 00 00 00
       0.0 0.0 0.0 0.0
0002d0 00 00 00 00 00 00 00 00 00 00 00 00 00 00 00 00
       0.0 0.0 0.0 0.0
0002e0 00 00 00 00 00 00 00 00 00 00 00 00 00 00 00 00
       0.0 0.0 0.0 0.0
0002f0 00 00 00 00 00 00 00 00 00 00 00 00 00 00 00 00
       0.0 0.0 0.0 0.0
000300 00 00 00 00 00 00 00 00 00 00 00 00 00 00 00 00
       0.0 0.0 0.0 0.0
000310 00 00 00 00 00 00 00 00 00 00 00 00 00 00 00 00
       0.0 0.0 0.0 0.0
000320 00 00 00 00 00 00 00 00 00 00 00 00 00 00 00 00
       0.0 0.0 0.0 0.0
000330 00 00 00 00 00 00 00 00 00 00 00 00 00 00 00 00
       0.0 0.0 0.0 0.0
000340 00 00 00 00 00 00 00 00 00 00 00 00 00 00 00 00
       0.0 0.0 0.0 0.0
000350 00 00 00 00 00 00 00 00 00 00 00 00 00 00 00 00
       0.0 0.0 0.0 0.0
000360 00 00 00 00 00 00 00 00 00 00 00 00 00 00 00 00
       0.0 0.0 0.0 0.0
000370 00 00 00 00 00 00 00 00 00 00 00 00 00 00 00 00
       0.0 0.0 0.0 0.0
000380 00 00 00 00 00 00 00 00 00 00 00 00 00 00 00 00
       0.0 0.0 0.0 0.0
000390 00 00 00 00 00 00 00 00 00 00 00 00 00 00 00 00
       0.0 0.0 0.0 0.0
0003a0 00 00 00 00 00 00 00 00 00 00 00 00 00 00 00 00
       0.0 0.0 0.0 0.0
0003b0 00 00 00 00 00 00 00 00 00 00 00 00 00 00 00 00
       0.0 0.0 0.0 0.0
0003c0 00 00 00 00 00 00 00 00 00 00 00 00 00 00 00 00
       0.0 0.0 0.0 0.0
0003d0 00 00 00 00 00 00 00 00 00 00 00 00 00 00 00 00
       0.0 0.0 0.0 0.0
0003e0 00 00 00 00 00 00 00 00 00 00 00 00 00 00 00 00
       0.0 0.0 0.0 0.0
0003f0 00 00 00 00 00 00 00 00 00 00 00 00 00 00 00 00
       0.0 0.0 0.0 0.0

base.mlp.fc_h.2.weight f4 [256]
000000 00 00 80 3f 00 00 80 3f 00 00 80 3f 00 00 80 3f
       1.0 1.0 1.0 1.0
000010 00 00 80 3f 00 00 80 3f 00 00 80 3f 00 00 80 3f
       1.0 1.0 1.0 1.0
000020 00 00 80 3f 00 00 80 3f 00 00 80 3f 00 00 80 3f
       1.0 1.0 1.0 1.0
000030 00 00 80 3f 00 00 80 3f 00 00 80 3f 00 00 80 3f
       1.0 1.0 1.0 1.0
000040 00 00 80 3f 00 00 80 3f 00 00 80 3f 00 00 80 3f
       1.0 1.0 1.0 1.0
000050 00 00 80 3f 00 00 80 3f 00 00 80 3f 00 00 80 3f
       1.0 1.0 1.0 1.0
000060 00 00 80 3f 00 00 80 3f 00 00 80 3f 00 00 80 3f
       1.0 1.0 1.0 1.0
000070 00 00 80 3f 00 00 80 3f 00 00 80 3f 00 00 80 3f
       1.0 1.0 1.0 1.0
000080 00 00 80 3f 00 00 80 3f 00 00 80 3f 00 00 80 3f
       1.0 1.0 1.0 1.0
000090 00 00 80 3f 00 00 80 3f 00 00 80 3f 00 00 80 3f
       1.0 1.0 1.0 1.0
0000a0 00 00 80 3f 00 00 80 3f 00 00 80 3f 00 00 80 3f
       1.0 1.0 1.0 1.0
0000b0 00 00 80 3f 00 00 80 3f 00 00 80 3f 00 00 80 3f
       1.0 1.0 1.0 1.0
0000c0 00 00 80 3f 00 00 80 3f 00 00 80 3f 00 00 80 3f
       1.0 1.0 1.0 1.0
0000d0 00 00 80 3f 00 00 80 3f 00 00 80 3f 00 00 80 3f
       1.0 1.0 1.0 1.0
0000e0 00 00 80 3f 00 00 80 3f 00 00 80 3f 00 00 80 3f
       1.0 1.0 1.0 1.0
0000f0 00 00 80 3f 00 00 80 3f 00 00 80 3f 00 00 80 3f
       1.0 1.0 1.0 1.0
000100 00 00 80 3f 00 00 80 3f 00 00 80 3f 00 00 80 3f
       1.0 1.0 1.0 1.0
000110 00 00 80 3f 00 00 80 3f 00 00 80 3f 00 00 80 3f
       1.0 1.0 1.0 1.0
000120 00 00 80 3f 00 00 80 3f 00 00 80 3f 00 00 80 3f
       1.0 1.0 1.0 1.0
000130 00 00 80 3f 00 00 80 3f 00 00 80 3f 00 00 80 3f
       1.0 1.0 1.0 1.0
000140 00 00 80 3f 00 00 80 3f 00 00 80 3f 00 00 80 3f
       1.0 1.0 1.0 1.0
000150 00 00 80 3f 00 00 80 3f 00 00 80 3f 00 00 80 3f
       1.0 1.0 1.0 1.0
000160 00 00 80 3f 00 00 80 3f 00 00 80 3f 00 00 80 3f
       1.0 1.0 1.0 1.0
000170 00 00 80 3f 00 00 80 3f 00 00 80 3f 00 00 80 3f
       1.0 1.0 1.0 1.0
000180 00 00 80 3f 00 00 80 3f 00 00 80 3f 00 00 80 3f
       1.0 1.0 1.0 1.0
000190 00 00 80 3f 00 00 80 3f 00 00 80 3f 00 00 80 3f
       1.0 1.0 1.0 1.0
0001a0 00 00 80 3f 00 00 80 3f 00 00 80 3f 00 00 80 3f
       1.0 1.0 1.0 1.0
0001b0 00 00 80 3f 00 00 80 3f 00 00 80 3f 00 00 80 3f
       1.0 1.0 1.0 1.0
0001c0 00 00 80 3f 00 00 80 3f 00 00 80 3f 00 00 80 3f
       1.0 1.0 1.0 1.0
0001d0 00 00 80 3f 00 00 80 3f 00 00 80 3f 00 00 80 3f
       1.0 1.0 1.0 1.0
0001e0 00 00 80 3f 00 00 80 3f 00 00 80 3f 00 00 80 3f
       1.0 1.0 1.0 1.0
0001f0 00 00 80 3f 00 00 80 3f 00 00 80 3f 00 00 80 3f
       1.0 1.0 1.0 1.0
000200 00 00 80 3f 00 00 80 3f 00 00 80 3f 00 00 80 3f
       1.0 1.0 1.0 1.0
000210 00 00 80 3f 00 00 80 3f 00 00 80 3f 00 00 80 3f
       1.0 1.0 1.0 1.0
000220 00 00 80 3f 00 00 80 3f 00 00 80 3f 00 00 80 3f
       1.0 1.0 1.0 1.0
000230 00 00 80 3f 00 00 80 3f 00 00 80 3f 00 00 80 3f
       1.0 1.0 1.0 1.0
000240 00 00 80 3f 00 00 80 3f 00 00 80 3f 00 00 80 3f
       1.0 1.0 1.0 1.0
000250 00 00 80 3f 00 00 80 3f 00 00 80 3f 00 00 80 3f
       1.0 1.0 1.0 1.0
000260 00 00 80 3f 00 00 80 3f 00 00 80 3f 00 00 80 3f
       1.0 1.0 1.0 1.0
000270 00 00 80 3f 00 00 80 3f 00 00 80 3f 00 00 80 3f
       1.0 1.0 1.0 1.0
000280 00 00 80 3f 00 00 80 3f 00 00 80 3f 00 00 80 3f
       1.0 1.0 1.0 1.0
000290 00 00 80 3f 00 00 80 3f 00 00 80 3f 00 00 80 3f
       1.0 1.0 1.0 1.0
0002a0 00 00 80 3f 00 00 80 3f 00 00 80 3f 00 00 80 3f
       1.0 1.0 1.0 1.0
0002b0 00 00 80 3f 00 00 80 3f 00 00 80 3f 00 00 80 3f
       1.0 1.0 1.0 1.0
0002c0 00 00 80 3f 00 00 80 3f 00 00 80 3f 00 00 80 3f
       1.0 1.0 1.0 1.0
0002d0 00 00 80 3f 00 00 80 3f 00 00 80 3f 00 00 80 3f
       1.0 1.0 1.0 1.0
0002e0 00 00 80 3f 00 00 80 3f 00 00 80 3f 00 00 80 3f
       1.0 1.0 1.0 1.0
0002f0 00 00 80 3f 00 00 80 3f 00 00 80 3f 00 00 80 3f
       1.0 1.0 1.0 1.0
000300 00 00 80 3f 00 00 80 3f 00 00 80 3f 00 00 80 3f
       1.0 1.0 1.0 1.0
000310 00 00 80 3f 00 00 80 3f 00 00 80 3f 00 00 80 3f
       1.0 1.0 1.0 1.0
000320 00 00 80 3f 00 00 80 3f 00 00 80 3f 00 00 80 3f
       1.0 1.0 1.0 1.0
000330 00 00 80 3f 00 00 80 3f 00 00 80 3f 00 00 80 3f
       1.0 1.0 1.0 1.0
000340 00 00 80 3f 00 00 80 3f 00 00 80 3f 00 00 80 3f
       1.0 1.0 1.0 1.0
000350 00 00 80 3f 00 00 80 3f 00 00 80 3f 00 00 80 3f
       1.0 1.0 1.0 1.0
000360 00 00 80 3f 00 00 80 3f 00 00 80 3f 00 00 80 3f
       1.0 1.0 1.0 1.0
000370 00 00 80 3f 00 00 80 3f 00 00 80 3f 00 00 80 3f
       1.0 1.0 1.0 1.0
000380 00 00 80 3f 00 00 80 3f 00 00 80 3f 00 00 80 3f
       1.0 1.0 1.0 1.0
000390 00 00 80 3f 00 00 80 3f 00 00 80 3f 00 00 80 3f
       1.0 1.0 1.0 1.0
0003a0 00 00 80 3f 00 00 80 3f 00 00 80 3f 00 00 80 3f
       1.0 1.0 1.0 1.0
0003b0 00 00 80 3f 00 00 80 3f 00 00 80 3f 00 00 80 3f
       1.0 1.0 1.0 1.0
0003c0 00 00 80 3f 00 00 80 3f 00 00 80 3f 00 00 80 3f
       1.0 1.0 1.0 1.0
0003d0 00 00 80 3f 00 00 80 3f 00 00 80 3f 00 00 80 3f
       1.0 1.0 1.0 1.0
0003e0 00 00 80 3f 00 00 80 3f 00 00 80 3f 00 00 80 3f
       1.0 1.0 1.0 1.0
0003f0 00 00 80 3f 00 00 80 3f 00 00 80 3f 00 00 80 3f
       1.0 1.0 1.0 1.0
