Training_Parameter_Storage/0517/hd003formthres_5v1_vel0108_collide_001/actor_prey.pt (torch, 830635 bytes, 21 tensors)

base.feature_norm.weight f4 [22]
00000000: 588a 893f a38b 8c3f 5010 7f3f 0a59 7c3f
00000010: 969c 773f 2b08 773f 5a3d 783f 0d5f 753f
00000020: 9dad 783f bf37 7c3f dac7 783f cf03 733f
00000030: 183c 853f 3ae6 823f ce25 883f daab 833f
00000040: 897a 833f 6591 833f 393e 873f e73f 873f
00000050: 8fda 853f 0d66 863f
1.0745344 1.0980114 0.99634266 0.9857336 0.96723306 0.9649684 0.96968615 0.9584816
0.9713991 0.9852256 0.9717995 0.94927686 1.0408964 1.022651 1.0636537 1.028682
1.027177 1.0278746 1.0565864 1.0566376 1.0457324 1.0499893

base.feature_norm.bias f4 [22]
00000000: 740b 093c c0a8 6e3c b55a bdbb c485 dcbc
00000010: f473 94bc 308d cc3a f26a b03b fa6a 43bb
00000020: dc0c 99bb d20d b1bc 5667 bd3c 7958 08bc
00000030: 0be8 9d3b f3dc 31bc 6ebc 9e3a f919 953c
00000040: c0d7 1abc 68eb 8b3c 6d35 823a 0605 073d
00000050: e4e8 273c 62c7 8e3b
0.008364547 0.0145666 -0.0057786354 -0.026919253 -0.018121697 0.0015606042 0.0053838426 -0.0029818402
-0.0046707224 -0.021613035 0.023120563 -0.008321875 0.0048189214 -0.010855901 0.00121106 0.018200861
-0.009450853 0.017080024 0.0009934135 0.032963775 0.010248397 0.0043572644

base.mlp.fc1.0.weight f4 [256, 22]
00000000: 338b c0bd 8085 debd 230f 473d 758a d83d
00000010: 8768 18bd ef0a f33c a867 233c e39a 093d
00000020: d52e 2f3d 0cb8 18be e02c a3bd a906 fbbb
00000030: c322 05be b057 bc3c 19e1 61bd d9b5 dd3c
00000040: 49f7 123d 6713 debc 043f fd3d 9480 ec3c
00000050: 8162 913d 3265 8e3d 2b98 cf3c 862f 3dbe
00000060: 2cc5 45bd c380 c63b defe 263e 5efc ccbb
00000070: 78b0 173e e7ab 03be 20f9 903d f6cf 513d
00000080: c9f2 da3c 1b6e 293c 12d3 873d 7c8c f13c
00000090: 8c8d c13d 6d5c ea3d 119c a3bd f9ad d5bc
000000a0: ac73 28bd 1c5f 9c3b a388 223c 3979 953d
000000b0: 33f9 0f3e a5ef 033e 38e9 df3b dc20 343d
000000c0: af6e a53d 881f 09be 5054 e63d 8888 c33d
000000d0: 2427 a03d 8195 a8bd 0ba6 a83c 4512 99bd
000000e0: c9c3 453d ddb1 d53c a07b bc3d 0b58 ddbd
000000f0: 801e 40bd cc48 7a3c 794a 173e 7bd5 ae3d
00000100: 0639 25bd a708 34be c36f 98be 7679 af3d
00000110: 628b df3d cec2 5c3d d324 31bd 496a d6bc
00000120: a8ca c23d 2217 9cbd c3a7 343d fb3e a4bd
00000130: 4efa 86bd 1377 a43d e168 2abd 3eeb d03c
00000140: 4e67 9a3d bb4d e83c 0ea4 e13c 564f 193d
00000150: d8b8 523d 6617 823d 66a2 093e 3a1b 1f3b
00000160: 77b9 1f3e ac3a 4dbc b88f 57bd 9104 0d3e
00000170: 0a42 91bd 0e5d 153d 5550 c6bd 3636 4b3c
00000180: f8f0 033c 6382 f93c e8c9 37ba bbb8 63be
00000190: ffae 073e d727 47bc 5306 adbd ae98 bf3c
000001a0: c895 0cbe 6263 8cbc 0896 bbbd b2f2 d4bd
000001b0: 1e5c b23c e09d d83c c962 643c 72ea c33d
000001c0: 703f 863d be50 8bbd 6afe 47bd 34cb 1abd
000001d0: 7aea 6abe ed07 e8bd d5bb 18bd 9ff0 613d
000001e0: c842 82bb ded7 42bc 3f03 243d 9bb6 2abd
000001f0: ac09 023e 2867 95bd 7646 a8bd e50b 0dbe
00000200: 4188 94bd 9251 05be c7e2 d23c 7462 783d
00000210: 1d8c 77bd 2383 b3bd 00e0 d5bd 6427 b13d
00000220: 64d6 b53d 53a6 d3bd c19d ab3d 54f0 1dbe
00000230: a9ab 1d3e e84a b6bd 1e11 a0bd 4306 083d
00000240: afe1 3abd 2a1f cdbd 0b53 d5b9 8f7d e83c
00000250: b4c0 943d 6561 053e a6dc a2bd b0fd 373b
00000260: aa63 45bd 4af0 3e3e cc66 3ebd d9b4 a6bd
00000270: 0fd3 00be ed79 4a3c f05a 443e 8481 84bc
00000280: 02d9 d2bc b315 c0ba ef73 22be 8f3d 983c
00000290: f954 613d 30d5 aabd dbcf 633d ce7c c53c
000002a0: 6115 333e ab71 4b3d d745 2eba bff1 f2bd
000002b0: a5d7 86bc 6385 113d 870d cdbc 2717 aebb
000002c0: 13f7 f73c 1cc4 b0bc 8fc8 0bbe af07 b3bd
000002d0: 3c7b 233c b3f4 213c fcdf 21bd b46b e7bd
000002e0: 311b fd3d 5bee d6bd 0abc ea3c 5c86 db3c
000002f0: be53 b6b9 263d 01be 49d2 51bd 7b68 98bd
00000300: 7cec b0bd 9437 22bd 3a3c 073e 70c4 e4bd
00000310: 555d 8bbc 31a8 0dbe 1d0b 1fbb 1394 893d
00000320: 85af 0c3c 96ef 80bd c0de 29bd c4b0 5bbc
00000330: 9fa3 603e 5146 9f3d 3e28 3c3d 05bb 0cbe
00000340: d80d 04be 435c d93c c305 a5bd fc78 21be
00000350: ac9f 3abe 7604 f93d ba47 d1bd 24c7 97bd
00000360: 9b9b 62bd 0233 55bd 049d 903d f4f9 9d3d
00000370: 69ff 5abe 0c1e 88bb 3c19 f6bb 0d47 903d
00000380: 7b5f c4bc 3cc3 85bd f100 8b3d 0a7e 99bc
00000390: 72ab e53c 5d7e eb3d d22f a03d a8c7 43bd
000003a0: e136 943e 60a3 303c 0ac2 43be ed28 7dbd
000003b0: 95f7 c43c 9cd7 af3d 0d71 a6bd 41e1 3e3d
000003c0: 5582 ad3c cd63 f13c b1c3 0d3e a61a 2fbd
000003d0: bdd7 263e 03e9 743d c076 23bd f6b5 733d
000003e0: 2cc4 b8bd 7604 573a a5e4 7b3c 44ed 103e
000003f0: 23cb 5dbd 33f3 0c3c 3cca 12bd 93d7 b03b
-0.0940155 -0.10865307 0.04859842 0.105732836 -0.03720906 0.0296683 0.009973444 0.033594977
0.042769272 -0.14913958 -0.079675436 -0.007660706 -0.13001542 0.022991031 -0.05514631 0.02706425
0.03588036 -0.027108861 0.12365535 0.028869905 0.07098866 0.06952895 0.025341114 -0.1847516
-0.04828374 0.00605783 0.16308162 -0.0062556705 0.14813411 -0.12858544 0.07078767 0.051223718
0.026727097 0.010341193 0.06632055 0.029485933 0.09450826 0.1144341 -0.07988752 -0.026083933
-0.04112594 0.00477208 0.009920272 0.07298512 0.14059906 0.12884386 0.0068332218 0.04397665
0.08077752 -0.13390934 0.1124655 0.09547526 0.078199655 -0.082316406 0.020586988 -0.07474188
0.04828242 0.026085788 0.09203267 -0.108078085 -0.046904087 0.015276145 0.14774503 0.08536812
-0.040337585 -0.17581426 -0.29772767 0.08568089 0.10915257 0.053896718 -0.04324801 -0.026173728
0.0951131 -0.076216 0.044105303 -0.08019825 -0.065907106 0.08030524 -0.041603927 0.025502797
0.07539235 0.028357377 0.027544048 0.037429176 0.051445812 0.06352119 0.13440856 0.0024277703
0.15598093 -0.0125261955 -0.052627295 0.13771273 -0.07092674 0.036465697 -0.09683291 0.012403062
0.008053057 0.030457681 -0.00070109824 -0.22238438 0.1325035 -0.012155495 -0.08448472 0.023388233
-0.13729012 -0.017137233 -0.091594756 -0.10397853 0.02177244 0.026442468 0.013939568 0.09566201
0.065550685 -0.0680251 -0.048826613 -0.037791446 -0.22941008 -0.11329637 -0.037288506 0.055161115
-0.003975246 -0.011892287 0.04004216 -0.041678052 0.12699002 -0.07295066 -0.08216564 -0.13774069
-0.07252551 -0.13019398 0.025742901 0.060640767 -0.060436357 -0.08765247 -0.10443115 0.08650091
0.088787824 -0.10334458 0.083796985 -0.15423709 0.15397514 -0.08901006 -0.07815765 0.033209097
-0.045625385 -0.1001571 -0.00040688398 0.028380184 0.07263318 0.13025434 -0.079522416 0.0028074794
-0.04819075 0.1864635 -0.046484753 -0.08139963 -0.12580512 0.012358171 0.19175315 -0.01617504
-0.025738243 -0.0014654904 -0.15864538 0.01858404 0.055012677 -0.083414435 0.05561815 0.024107363
0.17488624 0.04966895 -0.000664798 -0.11862516 -0.01646025 0.035527598 -0.025030864 -0.0053128186
0.030269181 -0.021577887 -0.13650726 -0.087417 0.009978112 0.009885001 -0.03952025 -0.112998396
0.12358702 -0.104946814 0.028654117 0.026797466 -0.00034776138 -0.12620983 -0.051225934 -0.07441803
-0.08638856 -0.039603785 0.13206568 -0.1117028 -0.017012278 -0.13833691 -0.0024268099 0.06717696
0.008586769 -0.062956974 -0.041472197 -0.013408843 0.21937416 0.07777084 0.045936815 -0.13743217
-0.12895906 0.026533252 -0.080577396 -0.15768808 -0.18224972 0.12159054 -0.10218759 -0.0741103
-0.05532418 -0.052050598 0.07061198 0.077136904 -0.21386494 -0.0041539725 -0.0075103324 0.07044802
-0.02397131 -0.065313786 0.06787289 -0.018736858 0.028035853 0.11498711 0.07821621 -0.04779783
0.2894812 0.010781139 -0.19116989 -0.061806608 0.024043838 0.08586046 -0.081270315 0.046601538
0.021180311 0.029466534 0.13844182 -0.042750023 0.16293235 0.05979253 -0.03990817 0.059499703
-0.09021792 0.0008202264 0.015374337 0.1415301 -0.054148804 0.008602905 -0.035837397 0.005396792

base.mlp.fc1.0.bias f4 [256]
00000000: 0cd1 1cba c665 293a 5e65 5cbc c506 a2bc
00000010: ccd5 11bd 7ad3 0cbd ce33 f7bb 0474 ff3a
00000020: 2105 68bb 1739 a53b be10 f33a 5c06 9bbc
00000030: a6a5 81bc 6af8 363d 2e15 7d3c da2d e5bb
00000040: 1b30 9b3c 9a8c 1abc 1841 2cbc 9ea1 7c3c
00000050: 5c5d 963c 0097 3dba fd6d deba 1929 8d3c
00000060: e42f 143c bd9f 223b 2973 aabc de75 e4bc
00000070: bda8 a4bc 906a a43b bc31 e7bb 7438 f4bc
00000080: 2009 883c 93d6 d2bb efa8 dcba bf50 7d3c
00000090: 26ee aa3c 19f3 e13b 08e3 38bb 15ab 31bc
000000a0: 1cfd 02bb 3579 6e3a ceb1 f63b c981 7fbb
000000b0: 3b33 d03b 75cb 343c bf53 16bc 2288 10bb
000000c0: 0b79 e7bc e006 613c 2def e5bb 99b8 a2bc
000000d0: 180c dc3b 51ba ddba f099 713c 206c 24bb
000000e0: 84f5 d0bc f0ba a23c d7f2 24bb 175b 5fbc
000000f0: 7121 74bb 7411 28bc 4129 84bc 5f5e 233c
00000100: de41 f8bc 2b73 143a b280 893b f7ce 03bd
00000110: f03a c2bc e1b0 8a3b fcee e2bc 4485 6d3c
00000120: 2051 17bd 4270 2f3c 0d83 8d3b 7257 ca3c
00000130: cdf3 18bc 7b4c d33b 528e f0bc 7434 a13c
00000140: bc88 7abc 5f15 043b bf8a 09bc 5cc2 c6bc
00000150: 02d7 b5bc 6523 e0bb 28a3 8cbc bbd6 0bbc
00000160: d6bf 3e3a 600a 803c 5571 1fbd 5381 bfbc
00000170: 85ac 0cbc e5ee d139 25d3 0fbd 0266 d6bc
00000180: a386 91bb 03aa 2a3c f630 f2bc 4bcb 1d3c
00000190: 04c5 063b 5fc9 c1bb ba0f 0bbd 9063 053c
000001a0: 7932 fabb cca9 2a3c fc92 db3c 5a56 55bc
000001b0: bd00 ca3b c90a d53b 670c 5c3c 1045 16bc
000001c0: 8d5a 80bb 9533 eabc 14ee b33c c50c c4bc
000001d0: ddbc 92bb 30f1 29bd 8724 43bc 7b69 9a3c
000001e0: 643d eb3c 1298 91bc 7091 583a f385 dabb
000001f0: 812c e4b9 bbb4 97bc 6a9b 56bb c5aa 983c
00000200: d7bf 133a ff22 443b 8b61 b33c eca5 b9bb
00000210: 7cea 133b 0150 46bc 8b69 0bbc edad a43c
00000220: 11d5 343b d58e 3ebb 2194 a7ba 86cc ecba
00000230: d245 f83b a985 3a3c 4704 a13a 8545 92bc
00000240: e4f5 103c 1217 b63c fb26 46bc 4a33 16bc
00000250: 5280 883c 146c b6bb 3ba6 aabc c367 ecbc
00000260: 9475 adbb 02fe 34bc 8ec1 f1bb 5557 ad3b
00000270: 5b8f 9a3c f500 723c 5bc6 b83b f274 a5ba
00000280: 10c4 873c 3232 0e3c aab4 42bc 2892 843c
00000290: 7bb7 a0b9 21d0 cfba 3815 adba e318 8cbc
000002a0: 1b81 a2bc 1c32 40bc bb0a 8cbb 5dfb 88bb
000002b0: 5f8f 23bc 9c2a 7cbb c85c 75bb 7df6 66bd
000002c0: 9eb2 f63b 0166 fe3c 7634 5c3b f047 0e3c
000002d0: 100b 963b 5a74 29bc 186e fbbc e5d9 54ba
000002e0: 8e20 12bc 5219 8bbc 21d2 933b e908 b7bc
000002f0: 0c01 353b e0dd 533c dfd3 9cbb a296 bcbc
00000300: 71bb 7b3c 5b9f 9bbb 79c8 033c 6293 74ba
00000310: c1da 1fbc 9f6c b8bc c8c0 c6bb 67f1 24bc
00000320: 71bc 37bc b48f 9abb bc42 21bc 484e e13b
00000330: 269a 04bb 0a29 843c 081f 843c 3369 82bb
00000340: 33ac 83bc 8271 93bc a32e 9dbc e872 6abc
00000350: 0869 e7bc 3450 ac3c 1651 273c 0073 03bc
00000360: 4389 54bc dbd5 63bc d8d0 3cbc d990 743c
00000370: 6ad6 02bc 61d5 8cbb 635f 2cbb 747f 9f3b
00000380: 30b2 42bc 2e01 943c 3f3c 903a 8e82 13bc
00000390: 5259 bf3c 7769 03bd 6f54 70bc aba3 3e3d
000003a0: 8d95 143c 1ba8 d7bc bdde 4cbc d66e 56bc
000003b0: 0356 e33a 05d0 46bb f793 d8bc 273e 903c
000003c0: 8df7 7d3b 80ce a33b 4c4c ce3b 8556 563c
000003d0: 0895 083c 8332 0ebc e963 863a 7954 c23a
000003e0: e3d2 9e39 cb69 0abc facb f9bb fa58 04bd
000003f0: 1c58 9cbc 5677 dcbb 314e 93bc 0cce adbc
-0.0005982078 0.0006462004 -0.013451902 -0.019778619 -0.035604283 -0.034381367 -0.0075440174 0.0019489531
-0.0035403448 0.005042206 0.0018544418 -0.01892393 -0.015826058 0.0446705 0.015446944 -0.0069939913
0.018943837 -0.009432936 -0.010513566 0.015419392 0.018355064 -0.00072322786 -0.0016970035 0.017231511
0.009044621 0.002481445 -0.020806866 -0.027888235 -0.020099992 0.005017586 -0.0070554893 -0.029812075
0.016605914 -0.0064342706 -0.0016835014 0.015461146 0.020865511 0.0068954346 -0.0028211493 -0.010844012
-0.001998729 0.0009097041 0.00752852 -0.003898727 0.0063537634 0.011034836 -0.00917524 -0.0022053798
-0.02825596 0.013734549 -0.0070170374 -0.019863414 0.006715309 -0.0016916489 0.014746174 -0.0025088862
-0.025507696 0.01986453 -0.0025169158 -0.013632557 -0.0037251378 -0.010258067 -0.016132953 0.00997123
-0.030304845 0.00056629133 0.00419625 -0.0321798 -0.023709744 0.0042325114 -0.027701847 0.014497105
-0.0369426 0.010707917 0.004318601 0.0246999 -0.00933547 0.006448326 -0.029364739 0.019678332
-0.015291389 0.002015434 -0.008394896 -0.0242626 -0.02219725 -0.006840157 -0.017167643 -0.008535082
0.00072765106 0.015629947 -0.03892644 -0.023377096 -0.008586054 0.00040041577 -0.035113472 -0.026171688
-0.004441099 0.0104165105 -0.029564362 0.009630988 0.0020564208 -0.005913898 -0.033950545 0.008141413
-0.0076354113 0.010416459 0.026803486 -0.013021076 0.006164639 0.00650153 0.013430691 -0.009171739
-0.0039170445 -0.02858905 0.02196411 -0.02393187 -0.0044780807 -0.04148978 -0.011910564 0.018849125
0.028715797 -0.017772708 0.0008261418 -0.0066688 -0.00043520707 -0.018518796 -0.0032746443 0.018636117
0.00056361913 0.0029928086 0.021897098 -0.0056655314 0.0022570184 -0.012104035 -0.00850905 0.020102466
0.0027592818 -0.0029076834 -0.0012785235 -0.0018066324 0.0075766826 0.011384406 0.00122846 -0.017855415
0.008847687 0.022227798 -0.012094255 -0.009167502 0.01666275 -0.005567083 -0.020831218 -0.028858071
-0.0052935574 -0.011046888 -0.00737781 0.005289952 0.018867185 0.014770736 0.00563888 -0.0012623353
0.016572982 0.00867896 -0.011883894 0.016182974 -0.00030654282 -0.0015854874 -0.0013205176 -0.01710171
-0.019836953 -0.011730697 -0.00427374 -0.0041803555 -0.009982913 -0.0038477546 -0.0037439335 -0.056387413
0.007528617 0.031054499 0.0033600605 0.008684143 0.0045789555 -0.010342682 -0.030692145 -0.0008119627
-0.008918894 -0.016979847 0.0045111333 -0.022343116 0.0027619032 0.012931317 -0.004785999 -0.023021046
0.015364514 -0.0047492213 0.008043402 -0.0009329823 -0.009756745 -0.022512732 -0.006065462 -0.01006732
-0.0112143615 -0.004716838 -0.009842571 0.006875787 -0.0020233481 0.01613285 0.016128078 -0.003979826
-0.016073322 -0.01799846 -0.019187277 -0.014309622 -0.028248325 0.021034338 0.0102122035 -0.008023024
-0.012972179 -0.013905968 -0.011524402 0.0149271125 -0.007985691 -0.0042978977 -0.0026301972 0.0048674885
-0.0118833035 0.018066969 0.0011004283 -0.009003295 0.023358021 -0.032083 -0.014668568 0.046542805
0.009068859 -0.026325276 -0.012504277 -0.013087949 0.0017344359 -0.0030336392 -0.026437743 0.017607762
0.0038752288 0.004998982 0.0062957164 0.013082151 0.008336313 -0.008679035 0.0010253164 0.00148262
0.0003029323 -0.008448075 -0.007623193 -0.032311417 -0.019084983 -0.006728093 -0.01798162 -0.021216415

base.mlp.fc1.2.weight f4 [256]
00000000: fac7 7d3f 0f8f 7d3f 47c6 813f 710e 7e3f
00000010: 5878 7e3f f845 7b3f 9571 7b3f 1075 7a3f
00000020: 6c27 823f db9a 813f c3ba 813f 738e 7e3f
00000030: 56f0 813f 12d3 833f 9f86 7e3f ea06 803f
00000040: 911c 7f3f e59c 803f 7539 7d3f 0f54 803f
00000050: e279 7e3f 304a 763f 8d3c 803f 039a 813f
00000060: 50f1 7c3f b484 803f 5c29 7e3f 16cd 803f
00000070: b46b 7b3f 0553 833f 3bbe 813f 8717 803f
00000080: 103c 7d3f 3f03 7d3f 3149 813f f459 823f
00000090: 2525 7e3f 2d8c 823f 19a8 7f3f 8a03 7f3f
000000a0: 261c 7e3f f944 813f 6414 7d3f a57f 823f
000000b0: e852 813f 7e0f 7f3f 45c0 833f e9c4 7d3f
000000c0: cfe1 7a3f 29d4 803f 9487 803f 8cea 813f
000000d0: 8b89 803f 0cb4 7c3f c32c 803f d93a 7b3f
000000e0: 7b4d 7e3f 1e4c 843f 1d4a 7f3f 259d 823f
000000f0: 0d27 803f 972d 803f fcb1 7a3f d9aa 7c3f
00000100: c295 7b3f 3830 803f 887a 7a3f fe84 803f
00000110: d4d6 803f 0772 7b3f 562d 803f 9669 7f3f
00000120: a2d2 813f db4c 803f b880 813f 998b 843f
00000130: c013 823f d3ab 7b3f 6f64 813f 678c 833f
00000140: a3ed 813f 0498 833f 551f 803f da39 7b3f
00000150: d52e 7e3f e186 803f 397d 803f 21ef 833f
00000160: 1617 833f e98f 803f 5d54 793f e617 813f
00000170: cb1a 813f 739f 833f 6b70 7d3f 854a 803f
00000180: 1704 803f cd59 853f baf0 793f eb16 803f
00000190: 4d5d 823f 20f5 7f3f 9183 7b3f 0d43 833f
000001a0: a00a 823f c746 783f f938 803f c99c 7f3f
000001b0: 793c 7f3f 88fe 813f 1ea8 823f 8939 813f
000001c0: c56f 803f f94e 7e3f f514 823f cee2 763f
000001d0: d05a 813f f2b7 743f 8584 813f aa14 853f
000001e0: 33be 7f3f 5a6d 7c3f b22e 793f 0e50 803f
000001f0: fdee 823f c735 813f 866c 7a3f 23ec 813f
00000200: 8721 813f 7d61 7f3f 3d82 7c3f ffb2 803f
00000210: 89f9 823f 84df 813f 870d 7b3f 4ad1 803f
00000220: cfbc 7c3f 6903 803f bee0 813f 6b71 7e3f
00000230: b93e 833f e155 7d3f 23c0 7d3f 19ee 833f
00000240: 3d4e 813f 63e4 803f 1072 823f ae9a 7d3f
00000250: 4d82 783f 3e1e 793f 88e1 7a3f 226f 7c3f
00000260: 8fe2 7f3f 70c9 823f ceef 7e3f 3102 813f
00000270: d0ac 7a3f b60a 7f3f 5aeb 823f c225 7f3f
00000280: 9568 803f a0f2 7f3f 43e0 803f a675 803f
00000290: 4239 7a3f e312 823f 672a 803f 767e 7f3f
000002a0: 217c 813f c556 833f 79e9 823f 0752 843f
000002b0: 548f 7d3f 07c5 823f 7ea4 833f b6c8 843f
000002c0: acc4 823f 77c2 7f3f 77a5 7d3f 07bc 7b3f
000002d0: 32f6 7e3f 0523 823f 7192 793f 0d13 7c3f
000002e0: ffd4 7d3f eadf 7f3f f723 7c3f 9845 803f
000002f0: e358 823f b05d 7a3f c570 7c3f 270f 7f3f
00000300: 58ce 7d3f cf3d 843f 847f 7f3f 48dc 7e3f
00000310: 2994 7d3f d6af 7d3f 3048 823f a73a 7f3f
00000320: 8f75 823f 5f3a 803f 3d0c 813f 0e12 7e3f
00000330: 2b62 7c3f 12ee 813f 1ca3 7f3f a152 813f
00000340: 842b 803f cb4c 803f 9071 7a3f f4dd 813f
00000350: 1446 7d3f 0dbc 803f 3467 813f 72a8 803f
00000360: ea8b 7b3f 5c27 823f ff64 823f 1afa 823f
00000370: c236 7c3f c4e2 7e3f 4c94 7f3f 07e0 813f
00000380: d95d 7c3f c4c0 833f 5628 7f3f 8ecc 813f
00000390: 0c11 833f 3932 793f 4b9b 7b3f 5a81 833f
000003a0: fe7c 813f 59d4 7b3f c46e 803f d5ef 7f3f
000003b0: 1b63 803f 2be5 7d3f d514 813f e986 7d3f
000003c0: f74d 7b3f c868 7e3f d058 7d3f 2fd7 7f3f
000003d0: 5106 7d3f d706 7d3f d4b7 7e3f 8605 803f
000003e0: abdf 823f 07ba 823f 5c4e 7f3f 1823 803f
000003f0: 0a33 793f 9f65 7d3f f1f5 7a3f b53e 7f3f
0.99133265 0.99046415 1.0138634 0.99240786 0.9940238 0.9815364 0.9822019 0.97834873
1.0168281 1.0125383 1.013512 0.9943611 1.015147 1.0298789 0.99424165 1.000211
0.99652964 1.004788 0.989158 1.0025653 0.9940473 0.9620695 1.0018479 1.0125126
0.98805714 1.0040498 0.9928186 1.0062587 0.98211217 1.025971 1.0136179 1.000718
0.98919773 0.9883308 1.0100461 1.0183702 0.9927543 1.0199028 0.9986587 0.99614775
0.992617 1.0099174 0.9885924 1.0195204 1.0103426 0.99633014 1.0293051 0.99128586
0.98000807 1.0064746 1.0041375 1.0149703 1.0041975 0.9871223 1.001366 0.9813667
0.99336976 1.0335729 0.9972246 1.0204207 1.0011917 1.0013913 0.9792783 0.9869819
0.9827539 1.0014715 0.9784322 1.0040586 1.006556 0.98220867 1.0013835 0.99770486
1.0142405 1.0023454 1.0117407 1.0355102 1.0162277 0.9830906 1.0108775 1.0277222
1.0150646 1.0280766 1.0009562 0.9813515 0.9929021 1.0041162 1.0038215 1.0307351
1.024142 1.0043918 0.97394353 1.0085418 1.0086302 1.0283035 0.9899966 1.0022742
1.0001248 1.041803 0.97632945 1.0006994 1.0184723 0.99983406 0.9824763 1.0254837
1.0159492 0.96983 1.0017387 0.9984861 0.9970165 1.0155802 1.0207555 1.0095683
1.0034109 0.9933925 1.0162646 0.96439826 1.0105839 0.9559318 1.0118567 1.0396931
0.99899596 0.9860436 0.97336876 1.0024431 1.0229183 1.0094537 0.97821844 1.0150188
1.0088357 0.9975813 0.9863623 1.0054625 1.0232402 1.0146337 0.98067516 1.006387
0.987256 1.0001041 1.0146711 0.9939181 1.0253516 0.98959166 0.991213 1.0307037
1.0102001 1.0069698 1.0191059 0.9906415 0.97073823 0.9731177 0.98000383 0.98607075
0.99955076 1.0217724 0.9958466 1.0078794 0.9791994 0.9962572 1.0228074 0.9966699
1.0031916 0.9997959 1.0068439 1.0035903 0.9774362 1.0162014 1.001294 0.9980234
1.0116006 1.0260855 1.02275 1.0337533 0.99046826 1.0216378 1.0284574 1.0373752
1.021627 0.99906105 0.99080604 0.9833378 0.99594414 1.0166937 0.97489077 0.9846657
0.9915313 0.9995104 0.9849238 1.0021238 1.0183376 0.97799206 0.9860957 0.99632496
0.9914298 1.0331362 0.9980395 0.9955487 0.990542 0.9909643 1.017828 0.9969887
1.0192126 1.0017813 1.008186 0.992463 0.9858729 1.0150778 0.9985826 1.0103341
1.001328 1.0023435 0.9782953 1.014586 0.98935056 1.0057389 1.010962 1.0051405
0.98260367 1.0168262 1.0187072 1.0232575 0.98521054 0.99564767 0.9983566 1.0146493
0.985807 1.0293202 0.9967092 1.014055 1.0239577 0.9734226 0.98283833 1.027385
1.011627 0.9837089 1.0033803 0.9997533 1.0030245 0.9917781 1.0084482 0.9903398
0.9816584 0.99378633 0.9896364 0.9993772 0.98837763 0.9883856 0.9949925 1.0001686
1.0224508 1.0213021 0.9972894 1.001071 0.97343504 0.98983186 0.98031527 0.9970506

base.mlp.fc1.2.bias f4 [256]
00000000: bf61 8c3b 4c4f 0b3b dc22 3ebc 86a4 bbbc
00000010: 95c5 a6bc fc25 143c 91e7 8bbb 48a4 ad3b
00000020: 4ebc 8a3b bc30 da3b 1eab 8abc 65a0 09bb
00000030: d1c0 2bbc b031 033d d4aa e03b 7100 173c
00000040: 87e5 cb3c 3ba2 543b cb69 62bc 28ee 88ba
00000050: 54f0 243c b123 a13c e2e0 92bb 76c6 9b3c
00000060: d989 9abb e943 ba3b f3bb 91bc 95e2 d7bc
00000070: 30a6 04bc d6cc 423c ba96 33bc 722b 22bc
00000080: 2a01 273c e636 4c3c 28b4 92b9 7c7a 11bc
00000090: ad83 783c 1576 d5bb 6073 633c d132 1fbc
000000a0: be22 22bc 694c 0b3c 8f72 00bc 575b 68bb
000000b0: ebd7 633b 1267 c23c ae68 16bc c638 363c
000000c0: 643a 8cbb 5e0f c13c 6a10 7fbb 56d5 6dbb
000000d0: 6b5c cc3b 65c8 893c 19ab 193d 1ad9 443c
000000e0: de6f bcbc 9edd 233c 13de 7e3c 09b1 35bc
000000f0: 9fef 163b 6b83 babc f739 a33c 9131 3b3b
00000100: e567 3ebc 7fe6 823c 9b31 28bb 9797 94bb
00000110: 3627 cfbc 3fab fc3b e07e 02ba 2b3b 15bc
00000120: 7a69 00bd f5d1 d03c 6b58 a23c 1ba9 47ba
00000130: f766 03bc 7fb3 a03c 52d4 99bb 1ba7 35bc
00000140: f100 9cbc 4bf6 22bc 8519 66bb d2de 74ba
00000150: c36b 913b 4c8a 31bc e49d ceba 5cec 3bbc
00000160: e4f2 3cbc 41a0 bb3b 20fd 85bc 8ef3 5dbb
00000170: 3c53 f6ba b826 533c 4d6e e9ba 325e 9ebc
00000180: 7435 65bb 30e4 5ebb 1e46 16bc 0161 92bb
00000190: 82d6 91bb ab20 da39 17fd 13bc b44d a43b
000001a0: 432d 95bc 4326 db3c 4a79 2a3c 2a02 64bc
000001b0: a6d7 6639 4efb 5db9 9263 a53c 7839 393c
000001c0: 0709 9c3a 8aab d9bc e09c e4b9 5e94 2e3c
000001d0: cdf0 17bc 9ef8 3dbc 0c0c 87bc c849 3cbc
000001e0: c34a 0a3d e5ab 083c f749 993b 3bda c7bb
000001f0: 3e35 c73b ceb3 b0bb 7350 433c f871 003d
00000200: 08b3 75bc 3f97 81bb f0a9 0c3d 93bd 433c
00000210: 3623 913a e086 85bc 14ca b03c b3bd 053c
00000220: f959 003c 8136 1fbc b77e 35bc dc21 553b
00000230: f680 1dbb 42f5 663c 9035 6d3b ae08 99bc
00000240: b733 ecba 1bd6 bf3c d965 b5bb bdb6 f23a
00000250: 9a05 0f3b f4d7 a43c a95c 11bc e8ae d2bc
00000260: c39c 6f3c d2f8 b3bc 807f 783b 9c5e 1ebc
00000270: 3573 4d3c 000b 25bb a0f5 873a 4467 0cbc
00000280: 317c 943c 9ced a73b 9955 57bc 13e4 48bc
00000290: c83e ca3c 3b6c 2e3c 01c7 1d3c f7b9 713c
000002a0: facb dbbc 8ae5 8c3b df45 09bc da76 fbbb
000002b0: fb78 2d3c 24d8 a9bb 1785 17bc 7f31 16bd
000002c0: 455a 483c 82a4 0b3d d3a9 1c3c 641f 263c
000002d0: bafe bebb f1b2 9ebc b0d1 c6bc ddf7 1ebb
000002e0: 7b52 013b 1cd3 eabb db7e c8ba 962f 86bc
000002f0: 124d 31bc 5624 bd3c fa55 e93b 32ad 123a
00000300: cf4d 703c cffc c7bc 26ce eb3b d1ba 923c
00000310: 3828 fa3b 676f 58bc 3311 e0bb 9117 7bbb
00000320: 8ac0 07bb 04a2 8eba a29f 943c 809a 823c
00000330: 802d a2bb 68c9 1c3c 83ee a13c 4441 8abb
00000340: 9b11 5dbc 0c6c 2cbb 7c51 043b c59b 8bbc
00000350: 014c 393c b003 f33c d9ba ad3c 1f30 e93a
00000360: f565 7a3c 52ef 2fbc b40a c4bb 4552 b1bb
00000370: a5e1 03bd ee61 3e3c 857a 73bb e97b 6d3c
00000380: d897 113c e252 a3bb 4e58 36b8 7125 1ebc
00000390: e7ff 15bc 0a02 f4bb 873a 913c 5c44 b03c
000003a0: 5c2b db3c d2af 57bb b53c 59bc 6f90 0a3c
000003b0: 67f1 6f3c 849b 103c 0c63 8ebc a7c8 d63c
000003c0: 2ee0 073b 97a4 a13c 4d74 2bbb c6cb b13c
000003d0: 1853 813c 96fa ebb9 c537 d73a 5570 733c
000003e0: e90c 2bbb 90e4 28bb bfc3 00bb 8e24 c1bc
000003f0: a932 7dbc 7909 6e3c e5f8 c7ba f018 2abc
0.004284113 0.0021256981 -0.011604991 -0.0229056 -0.020357886 0.009042259 -0.004269548 0.005299125
0.0042338734 0.0066586416 -0.016927298 -0.0021000144 -0.010482983 0.032029808 0.006856302 0.009216414
0.02488972 0.003244533 -0.013819168 -0.0010446953 0.010067064 0.01967034 -0.0044823745 0.019015532
-0.0047161398 0.005684365 -0.017789816 -0.02635316 -0.008096263 0.011889657 -0.010961229 -0.0098980535
0.010193149 0.012464261 -0.00027981517 -0.0088793 0.015168113 -0.0065143206 0.013882488 -0.009716705
-0.0098959785 0.008502104 -0.007839813 -0.0035454833 0.0034766148 0.023730788 -0.009180231 0.011121934
-0.0042794216 0.023566898 -0.0038919696 -0.0036290488 0.006236603 0.016819188 0.037516687 0.012014652
-0.023002561 0.010001568 0.015555876 -0.011089572 0.002303101 -0.022767743 0.0199251 0.002856348
-0.01162145 0.01597905 -0.0025664333 -0.0045346725 -0.025287252 0.007710844 -0.00049780123 -0.009108345
-0.03135059 0.02549074 0.019817552 -0.0007616446 -0.008020154 0.01961684 -0.0046945 -0.011087204
-0.019043418 -0.009946416 -0.0035110426 -0.0009341064 0.004437895 -0.010836195 -0.0015763608 -0.011469927
-0.011532519 0.005725891 -0.016356051 -0.0033867094 -0.0018793116 0.012887649 -0.0017809361 -0.019332025
-0.0034974487 -0.0034010522 -0.009171991 -0.00446713 -0.00445062 0.0004160454 -0.009032509 0.0050141457
-0.018210059 0.026751643 0.010404894 -0.013916532 0.00022014845 -0.0002116982 0.02018908 0.0113052055
0.0011904546 -0.026571054 -0.0004360443 0.010655491 -0.00927372 -0.0115949195 -0.016485237 -0.0114922
0.033762705 0.008341764 0.0046780067 -0.006099013 0.006079345 -0.005392528 0.011921036 0.03135869
-0.014996298 -0.0039547975 0.034341753 0.0119470535 0.0011073116 -0.016299665 0.021580733 0.008162904
0.007833951 -0.009717585 -0.011077574 0.0032521402 -0.0024033166 0.01409656 0.0036195256 -0.018680897
-0.0018020783 0.023417523 -0.005535823 0.0018517595 0.0021823407 0.020122506 -0.00887219 -0.025718167
0.014624777 -0.021969233 0.0037917793 -0.009666111 0.0125396745 -0.0025183558 0.0010372885 -0.008569542
0.018125625 0.005124761 -0.013142967 -0.012261408 0.02468814 0.010645921 0.009629966 0.01475381
-0.026830662 0.004299824 -0.008378475 -0.0076740803 0.010587926 -0.0051832367 -0.00924804 -0.036668297
0.012228553 0.034092434 0.009561974 0.01013932 -0.0058287056 -0.019372435 -0.024269909 -0.0024256625
0.0019733 -0.0071662795 -0.0015296595 -0.016380113 -0.010821598 0.023088615 0.007120845 0.0005595266
0.0146669885 -0.02441254 0.0071962057 0.017911347 0.007634189 -0.013210154 -0.006837988 -0.0038313607
-0.0020714127 -0.0010882025 0.018142525 0.015942812 -0.0049492717 0.009569503 0.019767052 -0.004219206
-0.013492967 -0.0026309518 0.002019017 -0.01704205 0.011309625 0.029664844 0.02120726 0.001779083
0.0152830975 -0.010738211 -0.005982721 -0.0054114186 -0.032197613 0.011620028 -0.0037151885 0.0144948745
0.0088863 -0.0049842456 -4.347442e-05 -0.009652481 -0.00915525 -0.007446532 0.017728103 0.021516971
0.026754074 -0.0032911194 -0.013259103 0.008457287 0.014644957 0.00882614 -0.017381214 0.026218725
0.0020732987 0.019731803 -0.002616185 0.021703612 0.015786693 -0.00045009394 0.0016419819 0.014858325
-0.0026100224 -0.0025771 -0.0019647924 -0.023577001 -0.015453973 0.014528626 -0.0015256671 -0.010381922

base.mlp.fc_h.0.weight f4 [256, 256]
00000000: 3f5d 183d 2252 d8bd ccb2 acbd 8ec3 173e
00000010: eff2 92bd d4ab 03bd 3a7f dbba 22b3 f0bc
00000020: e591 72be 0ce0 1abd 746c 80bd bcdf 303e
00000030: 9cd9 90bd 77af 013d 8c66 133d a8d7 0abd
00000040: 2197 b1bd 3018 2ebb f2d0 a93c d6a3 cebc
00000050: 94d2 a7bd c674 80bd e892 c33c dac1 9b3d
00000060: 4c2e 243e 6162 0f3d b0ca 0abd c17a d6bc
00000070: d312 d6bd 5207 643d a7a8 33be fe2e be3c
00000080: ffe3 d73c ecb5 94bb 9f5b d2bd 1c0a fabd
00000090: f1d9 2cbd c403 493d 70be b7bd 4f3b b4bd
000000a0: ee1e 62bd 335e 05bd a630 8fbc 8760 29bb
000000b0: 77e4 313d 6cec 8b3d c8b4 70bd 6eb0 01be
000000c0: e686 64be af7b be3c b63d 453d 5268 44bd
000000d0: d1f6 843c 7408 033e 0962 95bd 97af a9bc
000000e0: 62c9 de3c c409 b7bd 1b31 2a3e f28f 8c3d
000000f0: fbc4 07bd 7bda 1ebd 91bb 4a3d 8ec7 eabd
00000100: 85be c1bd d666 0e3e bd58 aabd 250a 16bc
00000110: 6ef7 d3bd 9fa5 d639 633f 8dbc 97cd 85bc
00000120: f845 373d ca47 773c 9252 edbc b28f 06be
00000130: eac2 373d 5aa3 0a3c 91bf e8bc 7a2d 3cbc
00000140: ad44 0b3d b1a4 0cbe dc2c adbd 43e5 493c
00000150: e4ea 5fbd 3ae8 88bd c8d3 9bbb 0191 30bd
00000160: 6d5a 77bd 7358 2a3d 2ff8 52bc 3600 be3c
00000170: 81e0 be3c 1fe4 eabd a042 173e 818c 4a3c
00000180: 7a38 ff3c 07ef c03d 8ea8 053e 8f78 c03d
00000190: bc02 1f3e 558d 34bd e683 15be 4a25 0d3e
000001a0: 037a 5c3d 2c93 e2bc 00f2 5c3b 8b97 60bd
000001b0: ab60 ecbd 6f19 09be 3970 cebd 3f59 bdbc
000001c0: 776c a43d 6743 8a3d cd38 f8bd e09c 553d
000001d0: 39d8 313e 9314 44bd 731c 863d 50c6 8dbd
000001e0: 820d 093e 2d74 013d 384f 9f3d ae9c 0c3e
000001f0: 3921 8ebd 182e 883c 45f6 2c3d 1072 133d
00000200: fbbf debd a032 07be 431c d7bc 90b1 e13b
00000210: 1650 b53d 8187 08be 518f debd 083c 22bd
00000220: fd75 513d 938b 703d d88a 433d f641 39bc
00000230: 64c0 903d b00b c63c 85a1 92bd 43c4 d33c
00000240: ff28 debc e51a 813d 4aaa d43d 244a 643e
00000250: fadc bbbd c84a b33c b8e5 9fbd a178 2bbd
00000260: 93fd d63d e6e9 963e 64f5 823d 5289 6ebc
00000270: d2e3 a5bd 630c 673d 8c04 f53c a731 50bc
00000280: f704 a3bc f4c2 a9bb 776e 543d c34b 07be
00000290: 9a2a 343e 2417 973d 73c5 54bc 1e75 203e
000002a0: 9478 3bbd 671a 093e 7655 b73d a39e 6d3d
000002b0: bdc8 42be 5a4a 76bc 6b01 a93d d853 423d
000002c0: 5e97 65bc 146f 1cbd 393f 04be 6130 ecbd
000002d0: 8f4d 4a3d 1f1c d63d cdd1 773d b9a1 3a3d
000002e0: f181 a0bc 82f9 38be d418 38bd c0c8 8c3d
000002f0: 4daf 5e3b 6242 c1bc 6dc3 e3bd 3f5c f63d
00000300: e3d2 883d 214c 45be e361 bc3d bd69 56bd
00000310: 03f6 5c3d cd79 1a3e 111d a8bd d222 a13d
00000320: 562c 98bb 1c88 883d 77f9 38be d2c1 00be
00000330: 7e5f 44bd 9a1b 16bd c86d a7bd 753c db3d
00000340: 100d 583d 355a 2d3e b097 eb3c 79dd 30bc
00000350: 11f8 903c 7363 25bd 2899 993c 5014 11bd
00000360: d72d 1c3d f658 01be c0b2 5e3e a565 853d
00000370: 0e0d e9bd 5cb5 483c aaac 323d 2ee4 b03b
00000380: 712e 753d 3676 d2bb e3e4 a33d 7d90 a1bd
00000390: 445a ea3d 8465 27be e112 323e 1c11 e03c
000003a0: 71e9 923d 2f92 a4bc b289 e53d 9b49 8a3d
000003b0: a0f9 f1bc 41df 0dbe 40ae 04bb 864f 75bd
000003c0: ad0e 68bd 1ef9 c93d 461e 353d 0479 b2bd
000003d0: dde4 bf3d 8f63 fa3c 5443 98bd 6864 01be
000003e0: d5f8 113d f781 1d3d 6db9 853b 057d 1c3d
000003f0: cb84 683e 1f0a 813d 143e d03d ae6d f4bd
0.0371983 -0.105625406 -0.0843254 0.14820692 -0.07175242 -0.03214629 -0.001674629 -0.029382292
-0.23688467 -0.037811324 -0.06270686 0.17272848 -0.07072756 0.031661477 0.03598647 -0.033897072
-0.08671404 -0.002656471 0.020729516 -0.025224607 -0.081944615 -0.06272273 0.023873761 0.076053336
0.16033286 0.03500593 -0.033884704 -0.02618158 -0.10452809 0.055671044 -0.17544805 0.023215767
0.026353834 -0.0045382883 -0.102713816 -0.122089595 -0.042200033 0.049075857 -0.0897187 -0.08800375
-0.055205278 -0.03256054 -0.017479252 -0.0025844888 0.04343077 0.06832203 -0.058766156 -0.12664959
-0.22317085 0.023252336 0.048154555 -0.04795105 0.016230972 0.12796193 -0.07294089 -0.02071361
0.027195636 -0.089374095 0.16620295 0.06863393 -0.03314684 -0.038782578 0.049495284 -0.11463843
-0.09460167 0.13906416 -0.08317707 -0.009157692 -0.10349928 0.00040940658 -0.01724214 -0.016333384
0.04474446 0.015092799 -0.028970037 -0.13140753 0.04486362 0.008461798 -0.028411658 -0.011485452
0.03400104 -0.137347 -0.08455822 0.012322727 -0.05466737 -0.06684919 -0.004755471 -0.043107037
-0.06038897 0.041588258 -0.012876554 0.02319346 0.023300411 -0.11469292 0.14771509 0.0123626
0.03115486 0.09420591 0.1305258 0.09397995 0.15528387 -0.044080097 -0.14601097 0.13783756
0.053827297 -0.027658068 0.003371358 -0.054832023 -0.115418755 -0.13388608 -0.100799985 -0.023113845
0.080285005 0.06751137 -0.12120209 0.05215156 0.17367639 -0.047871184 0.06548395 -0.06922591
0.13384059 0.031604934 0.07778782 0.13731644 -0.069399305 0.016623542 0.04222705 0.03599745
-0.10876461 -0.13202906 -0.026258593 0.006887622 0.08853166 -0.1333294 -0.10867179 -0.03960803
0.051137913 0.05872686 0.047739834 -0.01130723 0.070679456 0.024175495 -0.07159714 0.02585042
-0.027119158 0.06303958 0.103840426 0.22293907 -0.09173007 0.021886244 -0.07807487 -0.041863088
0.10497584 0.29475325 0.06394461 -0.014559107 -0.08100094 0.056408297 0.029909395 -0.012707151
-0.019899828 -0.005180711 0.05186316 -0.13212495 0.17594376 0.073774606 -0.012986529 0.15669677
-0.04576929 0.13388978 0.08951847 0.058012616 -0.19021888 -0.015032375 0.082522236 0.04744324
-0.0140131395 -0.03819187 -0.12914743 -0.11532665 0.049390372 0.104545824 0.060502816 0.045564387
-0.01959321 -0.1806393 -0.044945553 0.068742275 0.0033979 -0.023591224 -0.11121259 0.12029313
0.066808484 -0.19267322 0.09198358 -0.052346934 0.053945553 0.15085526 -0.08208669 0.078679696
-0.004643957 0.06666586 -0.18063913 -0.12573937 -0.04794263 -0.036647417 -0.08175236 0.10704891
0.052746832 0.16928943 0.028758854 -0.010794991 0.017696412 -0.040378045 0.018749788 -0.035419762
0.038129654 -0.12631592 0.21747875 0.06513528 -0.11379443 0.012250271 0.043621697 0.005398295
0.059858743 -0.0064227832 0.08002641 -0.07888887 0.11442998 -0.16347319 0.17390014 0.027351908
0.07173432 -0.020089237 0.11207904 0.067523204 -0.029537976 -0.13854696 -0.0020245463 -0.059890293
-0.05665462 0.098619685 0.044218324 -0.08714488 0.09369824 0.030565051 -0.07434717 -0.12635958
0.035637695 0.038454022 0.0040809424 0.038205165 0.22706906 0.063007586 0.101680905 -0.11934982

base.mlp.fc_h.0.bias f4 [256]
00000000: 0000 0000 0000 0000 0000 0000 0000 0000
00000010: 0000 0000 0000 0000 0000 0000 0000 0000
00000020: 0000 0000 0000 0000 0000 0000 0000 0000
00000030: 0000 0000 0000 0000 0000 0000 0000 0000
00000040: 0000 0000 0000 0000 0000 0000 0000 0000
00000050: 0000 0000 0000 0000 0000 0000 0000 0000
00000060: 0000 0000 0000 0000 0000 0000 0000 0000
00000070: 0000 0000 0000 0000 0000 0000 0000 0000
00000080: 0000 0000 0000 0000 0000 0000 0000 0000
00000090: 0000 0000 0000 0000 0000 0000 0000 0000
000000a0: 0000 0000 0000 0000 0000 0000 0000 0000
000000b0: 0000 0000 0000 0000 0000 0000 0000 0000
000000c0: 0000 0000 0000 0000 0000 0000 0000 0000
000000d0: 0000 0000 0000 0000 0000 0000 0000 0000
000000e0: 0000 0000 0000 0000 0000 0000 0000 0000
000000f0: 0000 0000 0000 0000 0000 0000 0000 0000
00000100: 0000 0000 0000 0000 0000 0000 0000 0000
00000110: 0000 0000 0000 0000 0000 0000 0000 0000
00000120: 0000 0000 0000 0000 0000 0000 0000 0000
00000130: 0000 0000 0000 0000 0000 0000 0000 0000
00000140: 0000 0000 0000 0000 0000 0000 0000 0000
00000150: 0000 0000 0000 0000 0000 0000 0000 0000
00000160: 0000 0000 0000 0000 0000 0000 0000 0000
00000170: 0000 0000 0000 0000 0000 0000 0000 0000
00000180: 0000 0000 0000 0000 0000 0000 0000 0000
00000190: 0000 0000 0000 0000 0000 0000 0000 0000
000001a0: 0000 0000 0000 0000 0000 0000 0000 0000
000001b0: 0000 0000 0000 0000 0000 0000 0000 0000
000001c0: 0000 0000 0000 0000 0000 0000 0000 0000
000001d0: 0000 0000 0000 0000 0000 0000 0000 0000
000001e0: 0000 0000 0000 0000 0000 0000 0000 0000
000001f0: 0000 0000 0000 0000 0000 0000 0000 0000
00000200: 0000 0000 0000 0000 0000 0000 0000 0000
00000210: 0000 0000 0000 0000 0000 0000 0000 0000
00000220: 0000 0000 0000 0000 0000 0000 0000 0000
00000230: 0000 0000 0000 0000 0000 0000 0000 0000
00000240: 0000 0000 0000 0000 0000 0000 0000 0000
00000250: 0000 0000 0000 0000 0000 0000 0000 0000
00000260: 0000 0000 0000 0000 0000 0000 0000 0000
00000270: 0000 0000 0000 0000 0000 0000 0000 0000
00000280: 0000 0000 0000 0000 0000 0000 0000 0000
00000290: 0000 0000 0000 0000 0000 0000 0000 0000
000002a0: 0000 0000 0000 0000 0000 0000 0000 0000
000002b0: 0000 0000 0000 0000 0000 0000 0000 0000
000002c0: 0000 0000 0000 0000 0000 0000 0000 0000
000002d0: 0000 0000 0000 0000 0000 0000 0000 0000
000002e0: 0000 0000 0000 0000 0000 0000 0000 0000
000002f0: 0000 0000 0000 0000 0000 0000 0000 0000
00000300: 0000 0000 0000 0000 0000 0000 0000 0000
00000310: 0000 0000 0000 0000 0000 0000 0000 0000
00000320: 0000 0000 0000 0000 0000 0000 0000 0000
00000330: 0000 0000 0000 0000 0000 0000 0000 0000
00000340: 0000 0000 0000 0000 0000 0000 0000 0000
00000350: 0000 0000 0000 0000 0000 0000 0000 0000
00000360: 0000 0000 0000 0000 0000 0000 0000 0000
00000370: 0000 0000 0000 0000 0000 0000 0000 0000
00000380: 0000 0000 0000 0000 0000 0000 0000 0000
00000390: 0000 0000 0000 0000 0000 0000 0000 0000
000003a0: 0000 0000 0000 0000 0000 0000 0000 0000
000003b0: 0000 0000 0000 0000 0000 0000 0000 0000
000003c0: 0000 0000 0000 0000 0000 0000 0000 0000
000003d0: 0000 0000 0000 0000 0000 0000 0000 0000
000003e0: 0000 0000 0000 0000 0000 0000 0000 0000
000003f0: 0000 0000 0000 0000 0000 0000 0000 0000
0.0 0.0 0.0 0.0 0.0 0.0 0.0 0.0
0.0 0.0 0.0 0.0 0.0 0.0 0.0 0.0
0.0 0.0 0.0 0.0 0.0 0.0 0.0 0.0
0.0 0.0 0.0 0.0 0.0 0.0 0.0 0.0
0.0 0.0 0.0 0.0 0.0 0.0 0.0 0.0
0.0 0.0 0.0 0.0 0.0 0.0 0.0 0.0
0.0 0.0 0.0 0.0 0.0 0.0 0.0 0.0
0.0 0.0 0.0 0.0 0.0 0.0 0.0 0.0
0.0 0.0 0.0 0.0 0.0 0.0 0.0 0.0
0.0 0.0 0.0 0.0 0.0 0.0 0.0 0.0
0.0 0.0 0.0 0.0 0.0 0.0 0.0 0.0
0.0 0.0 0.0 0.0 0.0 0.0 0.0 0.0
0.0 0.0 0.0 0.0 0.0 0.0 0.0 0.0
0.0 0.0 0.0 0.0 0.0 0.0 0.0 0.0
0.0 0.0 0.0 0.0 0.0 0.0 0.0 0.0
0.0 0.0 0.0 0.0 0.0 0.0 0.0 0.0
0.0 0.0 0.0 0.0 0.0 0.0 0.0 0.0
0.0 0.0 0.0 0.0 0.0 0.0 0.0 0.0
0.0 0.0 0.0 0.0 0.0 0.0 0.0 0.0
0.0 0.0 0.0 0.0 0.0 0.0 0.0 0.0
0.0 0.0 0.0 0.0 0.0 0.0 0.0 0.0
0.0 0.0 0.0 0.0 0.0 0.0 0.0 0.0
0.0 0.0 0.0 0.0 0.0 0.0 0.0 0.0
0.0 0.0 0.0 0.0 0.0 0.0 0.0 0.0
0.0 0.0 0.0 0.0 0.0 0.0 0.0 0.0
0.0 0.0 0.0 0.0 0.0 0.0 0.0 0.0
0.0 0.0 0.0 0.0 0.0 0.0 0.0 0.0
0.0 0.0 0.0 0.0 0.0 0.0 0.0 0.0
0.0 0.0 0.0 0.0 0.0 0.0 0.0 0.0
0.0 0.0 0.0 0.0 0.0 0.0 0.0 0.0
0.0 0.0 0.0 0.0 0.0 0.0 0.0 0.0
0.0 0.0 0.0 0.0 0.0 0.0 0.0 0.0

base.mlp.fc_h.2.weight f4 [256]
00000000: 0000 803f 0000 803f 0000 803f 0000 803f
00000010: 0000 803f 0000 803f 0000 803f 0000 803f
00000020: 0000 803f 0000 803f 0000 803f 0000 803f
00000030: 0000 803f 0000 803f 0000 803f 0000 803f
00000040: 0000 803f 0000 803f 0000 803f 0000 803f
00000050: 0000 803f 0000 803f 0000 803f 0000 803f
00000060: 0000 803f 0000 803f 0000 803f 0000 803f
00000070: 0000 803f 0000 803f 0000 803f 0000 803f
00000080: 0000 803f 0000 803f 0000 803f 0000 803f
00000090: 0000 803f 0000 803f 0000 803f 0000 803f
000000a0: 0000 803f 0000 803f 0000 803f 0000 803f
000000b0: 0000 803f 0000 803f 0000 803f 0000 803f
000000c0: 0000 803f 0000 803f 0000 803f 0000 803f
000000d0: 0000 803f 0000 803f 0000 803f 0000 803f
000000e0: 0000 803f 0000 803f 0000 803f 0000 803f
000000f0: 0000 803f 0000 803f 0000 803f 0000 803f
00000100: 0000 803f 0000 803f 0000 803f 0000 803f
00000110: 0000 803f 0000 803f 0000 803f 0000 803f
00000120: 0000 803f 0000 803f 0000 803f 0000 803f
00000130: 0000 803f 0000 803f 0000 803f 0000 803f
00000140: 0000 803f 0000 803f 0000 803f 0000 803f
00000150: 0000 803f 0000 803f 0000 803f 0000 803f
00000160: 0000 803f 0000 803f 0000 803f 0000 803f
00000170: 0000 803f 0000 803f 0000 803f 0000 803f
00000180: 0000 803f 0000 803f 0000 803f 0000 803f
00000190: 0000 803f 0000 803f 0000 803f 0000 803f
000001a0: 0000 803f 0000 803f 0000 803f 0000 803f
000001b0: 0000 803f 0000 803f 0000 803f 0000 803f
000001c0: 0000 803f 0000 803f 0000 803f 0000 803f
000001d0: 0000 803f 0000 803f 0000 803f 0000 803f
000001e0: 0000 803f 0000 803f 0000 803f 0000 803f
000001f0: 0000 803f 0000 803f 0000 803f 0000 803f
00000200: 0000 803f 0000 803f 0000 803f 0000 803f
00000210: 0000 803f 0000 803f 0000 803f 0000 803f
00000220: 0000 803f 0000 803f 0000 803f 0000 803f
00000230: 0000 803f 0000 803f 0000 803f 0000 803f
00000240: 0000 803f 0000 803f 0000 803f 0000 803f
00000250: 0000 803f 0000 803f 0000 803f 0000 803f
00000260: 0000 803f 0000 803f 0000 803f 0000 803f
00000270: 0000 803f 0000 803f 0000 803f 0000 803f
00000280: 0000 803f 0000 803f 0000 803f 0000 803f
00000290: 0000 803f 0000 803f 0000 803f 0000 803f
000002a0: 0000 803f 0000 803f 0000 803f 0000 803f
000002b0: 0000 803f 0000 803f 0000 803f 0000 803f
000002c0: 0000 803f 0000 803f 0000 803f 0000 803f
000002d0: 0000 803f 0000 803f 0000 803f 0000 803f
000002e0: 0000 803f 0000 803f 0000 803f 0000 803f
000002f0: 0000 803f 0000 803f 0000 803f 0000 803f
00000300: 0000 803f 0000 803f 0000 803f 0000 803f
00000310: 0000 803f 0000 803f 0000 803f 0000 803f
00000320: 0000 803f 0000 803f 0000 803f 0000 803f
00000330: 0000 803f 0000 803f 0000 803f 0000 803f
00000340: 0000 803f 0000 803f 0000 803f 0000 803f
00000350: 0000 803f 0000 803f 0000 803f 0000 803f
00000360: 0000 803f 0000 803f 0000 803f 0000 803f
00000370: 0000 803f 0000 803f 0000 803f 0000 803f
00000380: 0000 803f 0000 803f 0000 803f 0000 803f
00000390: 0000 803f 0000 803f 0000 803f 0000 803f
000003a0: 0000 803f 0000 803f 0000 803f 0000 803f
000003b0: 0000 803f 0000 803f 0000 803f 0000 803f
000003c0: 0000 803f 0000 803f 0000 803f 0000 803f
000003d0: 0000 803f 0000 803f 0000 803f 0000 803f
000003e0: 0000 803f 0000 803f 0000 803f 0000 803f
000003f0: 0000 803f 0000 803f 0000 803f 0000 803f
1.0 1.0 1.0 1.0 1.0 1.0 1.0 1.0
1.0 1.0 1.0 1.0 1.0 1.0 1.0 1.0
1.0 1.0 1.0 1.0 1.0 1.0 1.0 1.0
1.0 1.0 1.0 1.0 1.0 1.0 1.0 1.0
1.0 1.0 1.0 1.0 1.0 1.0 1.0 1.0
1.0 1.0 1.0 1.0 1.0 1.0 1.0 1.0
1.0 1.0 1.0 1.0 1.0 1.0 1.0 1.0
1.0 1.0 1.0 1.0 1.0 1.0 1.0 1.0
1.0 1.0 1.0 1.0 1.0 1.0 1.0 1.0
1.0 1.0 1.0 1.0 1.0 1.0 1.0 1.0
1.0 1.0 1.0 1.0 1.0 1.0 1.0 1.0
1.0 1.0 1.0 1.0 1.0 1.0 1.0 1.0
1.0 1.0 1.0 1.0 1.0 1.0 1.0 1.0
1.0 1.0 1.0 1.0 1.0 1.0 1.0 1.0
1.0 1.0 1.0 1.0 1.0 1.0 1.0 1.0
1.0 1.0 1.0 1.0 1.0 1.0 1.0 1.0
1.0 1.0 1.0 1.0 1.0 1.0 1.0 1.0
1.0 1.0 1.0 1.0 1.0 1.0 1.0 1.0
1.0 1.0 1.0 1.0 1.0 1.0 1.0 1.0
1.0 1.0 1.0 1.0 1.0 1.0 1.0 1.0
1.0 1.0 1.0 1.0 1.0 1.0 1.0 1.0
1.0 1.0 1.0 1.0 1.0 1.0 1.0 1.0
1.0 1.0 1.0 1.0 1.0 1.0 1.0 1.0
1.0 1.0 1.0 1.0 1.0 1.0 1.0 1.0
1.0 1.0 1.0 1.0 1.0 1.0 1.0 1.0
1.0 1.0 1.0 1.0 1.0 1.0 1.0 1.0
1.0 1.0 1.0 1.0 1.0 1.0 1.0 1.0
1.0 1.0 1.0 1.0 1.0 1.0 1.0 1.0
1.0 1.0 1.0 1.0 1.0 1.0 1.0 1.0
1.0 1.0 1.0 1.0 1.0 1.0 1.0 1.0
1.0 1.0 1.0 1.0 1.0 1.0 1.0 1.0
1.0 1.0 1.0 1.0 1.0 1.0 1.0 1.0

base.mlp.fc_h.2.bias f4 [256]
00000000: 0000 0000 0000 0000 0000 0000 0000 0000
00000010: 0000 0000 0000 0000 0000 0000 0000 0000
00000020: 0000 0000 0000 0000 0000 0000 0000 0000
00000030: 0000 0000 0000 0000 0000 0000 0000 0000
00000040: 0000 0000 0000 0000 0000 0000 0000 0000
00000050: 0000 0000 0000 0000 0000 0000 0000 0000
00000060: 0000 0000 0000 0000 0000 0000 0000 0000
00000070: 0000 0000 0000 0000 0000 0000 0000 0000
00000080: 0000 0000 0000 0000 0000 0000 0000 0000
00000090: 0000 0000 0000 0000 0000 0000 0000 0000
000000a0: 0000 0000 0000 0000 0000 0000 0000 0000
000000b0: 0000 0000 0000 0000 0000 0000 0000 0000
000000c0: 0000 0000 0000 0000 0000 0000 0000 0000
000000d0: 0000 0000 0000 0000 0000 0000 0000 0000
000000e0: 0000 0000 0000 0000 0000 0000 0000 0000
000000f0: 0000 0000 0000 0000 0000 0000 0000 0000
00000100: 0000 0000 0000 0000 0000 0000 0000 0000
00000110: 0000 0000 0000 0000 0000 0000 0000 0000
00000120: 0000 0000 0000 0000 0000 0000 0000 0000
00000130: 0000 0000 0000 0000 0000 0000 0000 0000
00000140: 0000 0000 0000 0000 0000 0000 0000 0000
00000150: 0000 0000 0000 0000 0000 0000 0000 0000
00000160: 0000 0000 0000 0000 0000 0000 0000 0000
00000170: 0000 0000 0000 0000 0000 0000 0000 0000
00000180: 0000 0000 0000 0000 0000 0000 0000 0000
00000190: 0000 0000 0000 0000 0000 0000 0000 0000
000001a0: 0000 0000 0000 0000 0000 0000 0000 0000
000001b0: 0000 0000 0000 0000 0000 0000 0000 0000
000001c0: 0000 0000 0000 0000 0000 0000 0000 0000
000001d0: 0000 0000 0000 0000 0000 0000 0000 0000
000001e0: 0000 0000 0000 0000 0000 0000 0000 0000
000001f0: 0000 0000 0000 0000 0000 0000 0000 0000
00000200: 0000 0000 0000 0000 0000 0000 0000 0000
00000210: 0000 0000 0000 0000 0000 0000 0000 0000
00000220: 0000 0000 0000 0000 0000 0000 0000 0000
00000230: 0000 0000 0000 0000 0000 0000 0000 0000
00000240: 0000 0000 0000 0000 0000 0000 0000 0000
00000250: 0000 0000 0000 0000 0000 0000 0000 0000
00000260: 0000 0000 0000 0000 0000 0000 0000 0000
00000270: 0000 0000 0000 0000 0000 0000 0000 0000
00000280: 0000 0000 0000 0000 0000 0000 0000 0000
00000290: 0000 0000 0000 0000 0000 0000 0000 0000
000002a0: 0000 0000 0000 0000 0000 0000 0000 0000
000002b0: 0000 0000 0000 0000 0000 0000 0000 0000
000002c0: 0000 0000 0000 0000 0000 0000 0000 0000
000002d0: 0000 0000 0000 0000 0000 0000 0000 0000
000002e0: 0000 0000 0000 0000 0000 0000 0000 0000
000002f0: 0000 0000 0000 0000 0000 0000 0000 0000
00000300: 0000 0000 0000 0000 0000 0000 0000 0000
00000310: 0000 0000 0000 0000 0000 0000 0000 0000
00000320: 0000 0000 0000 0000 0000 0000 0000 0000
00000330: 0000 0000 0000 0000 0000 0000 0000 0000
00000340: 0000 0000 0000 0000 0000 0000 0000 0000
00000350: 0000 0000 0000 0000 0000 0000 0000 0000
00000360: 0000 0000 0000 0000 0000 0000 0000 0000
00000370: 0000 0000 0000 0000 0000 0000 0000 0000
00000380: 0000 0000 0000 0000 0000 0000 0000 0000
00000390: 0000 0000 0000 0000 0000 0000 0000 0000
000003a0: 0000 0000 0000 0000 0000 0000 0000 0000
000003b0: 0000 0000 0000 0000 0000 0000 0000 0000
000003c0: 0000 0000 0000 0000 0000 0000 0000 0000
000003d0: 0000 0000 0000 0000 0000 0000 0000 0000
000003e0: 0000 0000 0000 0000 0000 0000 0000 0000
000003f0: 0000 0000 0000 0000 0000 0000 0000 0000
0.0 0.0 0.0 0.0 0.0 0.0 0.0 0.0
0.0 0.0 0.0 0.0 0.0 0.0 0.0 0.0
0.0 0.0 0.0 0.0 0.0 0.0 0.0 0.0
0.0 0.0 0.0 0.0 0.0 0.0 0.0 0.0
0.0 0.0 0.0 0.0 0.0 0.0 0.0 0.0
0.0 0.0 0.0 0.0 0.0 0.0 0.0 0.0
0.0 0.0 0.0 0.0 0.0 0.0 0.0 0.0
0.0 0.0 0.0 0.0 0.0 0.0 0.0 0.0
0.0 0.0 0.0 0.0 0.0 0.0 0.0 0.0
0.0 0.0 0.0 0.0 0.0 0.0 0.0 0.0
0.0 0.0 0.0 0.0 0.0 0.0 0.0 0.0
0.0 0.0 0.0 0.0 0.0 0.0 0.0 0.0
0.0 0.0 0.0 0.0 0.0 0.0 0.0 0.0
0.0 0.0 0.0 0.0 0.0 0.0 0.0 0.0
0.0 0.0 0.0 0.0 0.0 0.0 0.0 0.0
0.0 0.0 0.0 0.0 0.0 0.0 0.0 0.0
0.0 0.0 0.0 0.0 0.0 0.0 0.0 0.0
0.0 0.0 0.0 0.0 0.0 0.0 0.0 0.0
0.0 0.0 0.0 0.0 0.0 0.0 0.0 0.0
0.0 0.0 0.0 0.0 0.0 0.0 0.0 0.0
0.0 0.0 0.0 0.0 0.0 0.0 0.0 0.0
0.0 0.0 0.0 0.0 0.0 0.0 0.0 0.0
0.0 0.0 0.0 0.0 0.0 0.0 0.0 0.0
0.0 0.0 0.0 0.0 0.0 0.0 0.0 0.0
0.0 0.0 0.0 0.0 0.0 0.0 0.0 0.0
0.0 0.0 0.0 0.0 0.0 0.0 0.0 0.0
0.0 0.0 0.0 0.0 0.0 0.0 0.0 0.0
0.0 0.0 0.0 0.0 0.0 0.0 0.0 0.0
0.0 0.0 0.0 0.0 0.0 0.0 0.0 0.0
0.0 0.0 0.0 0.0 0.0 0.0 0.0 0.0
0.0 0.0 0.0 0.0 0.0 0.0 0.0 0.0
0.0 0.0 0.0 0.0 0.0 0.0 0.0 0.0
