Training_Parameter_Storage/0517/hd003formthres_5v1_vel0108_collide_001/actor_prey.pt (torch, 830635 bytes, 21 tensors)

base.feature_norm.weight f4 [22]
00000000: 5e5e 853f a192 8a3f 7748 7f3f 30af 7c3f
00000010: 3109 7b3f bc81 793f f1b5 783f 3eeb 793f
00000020: 3ab1 7a3f b08a 803f caed 793f 06c1 773f
00000030: 33fd 823f 1526 823f 32e6 863f 4046 843f
00000040: b59e 823f 28b0 813f ea6e 853f f37d 843f
00000050: 508f 863f 048f 833f
1.0419424 1.0825998 0.9971995 0.98704815 0.980609 0.97463584 0.9715262 0.97624576
0.97926676 1.0042324 0.9762846 0.96778905 1.023352 1.0167872 1.0539 1.0333939
1.0204684 1.0131884 1.0424473 1.0350937 1.0512486 1.027802

base.feature_norm.bias f4 [22]
00000000: 5611 083b 46f2 853c 3fc5 a5bc 5f0f 3abc
00000010: ab2d f63b 516d 6fbb 7712 5fbb 1c78 7dbb
00000020: 1952 09bc 3b54 93bc da45 803c 9e23 07bc
00000030: 02ea 853c aba3 25bc 9240 613a f23c 0f3c
00000040: 98b7 bdbb 78b5 bd3b 6911 19ba 16d5 123d
00000050: 3b7e e13b d2ad b83b
0.0020762286 0.016350877 -0.020235656 -0.011356204 0.0075127683 -0.0036533664 -0.0034038106 -0.0038676327
-0.00838139 -0.0179845 0.015658308 -0.008248238 0.016346935 -0.010109822 0.00085926906 0.008742558
-0.0057897083 0.005789455 -0.0005839081 0.035847746 0.006881503 0.0056359554

base.mlp.fc1.0.weight f4 [256, 22]
00000000: 4517 d0bd 53ef e0bd 13a6 413d 7b13 c63d
00000010: c936 a5bc 274a 0c3d 6dc0 ac3c eeb0 0d3d
00000020: b62a 293d afbf 1dbe 6d52 c5bd bf32 81bc
00000030: a753 f5bd 762d 033d ad8c 57bd aa4d e53c
00000040: fdeb 343d ff6d 92bc 7b91 e93d 91f6 2d3d
00000050: 8901 633d 680e 723d 3507 f43b a522 2ebe
00000060: 2e89 2ebd 7942 43bc a31a 293e 2df5 6bbc
00000070: 9dc3 103e 085f ffbd 758c c13d a167 5e3d
00000080: b248 493d f2e5 073d 495c 5b3d 771f 273d
00000090: 9036 aa3d 4359 993d 6f24 d4bd 29f6 62bc
000000a0: 2581 1fbd 960c 8abc 14ae 3cbd 45dd b73d
000000b0: f66d ca3d 29c3 0d3e 4720 64bb cc87 293d
000000c0: b82a ac3d 802a 0cbe 88cc dc3d ad5a c23d
000000d0: 1678 a93d 52bb a8bd cf26 253d e0a2 87bd
000000e0: d1fd 473d 12db a23c ea15 c53d 7ede bfbd
000000f0: 861e 80bd e560 d83c 5821 123e 0503 c43d
00000100: b96a 05bd 1dba 2cbe 6d6f 79be e286 a83d
00000110: 8218 eb3d 47d4 613d daee fcbc 0f70 0cbd
00000120: 415d b83d b638 b9bd a23f 103d 2c8d b7bd
00000130: abd4 97bd 8ce6 a83d 2571 82bd 87bd f53c
00000140: 71fd 973d 0611 d53c 61e5 f53c 924f 503d
00000150: 1349 5d3d 6578 9b3d 7b3a 163e e6a6 193d
00000160: 1845 f33d 3986 aabc 0145 80bd b26c 0a3e
00000170: d6a9 93bd f973 203d 6fd6 dbbd 275e b43c
00000180: 01b5 803c 75cc c63c 636d a8bb 89ee 66be
00000190: 5524 083e 43ff 4b3a b074 88bd 3e63 723c
000001a0: 535a f7bd 9c49 21bd 9d29 4fbd ae7e e4bd
000001b0: 1135 913d 942f 8a3c 8e3b 4a3c 92e4 a73d
000001c0: 798a 1e3d 2778 71bd 1b67 c0bc 4faf 77bd
000001d0: 495f 59be e4b4 12be 0487 1dbd 0ee8 723d
000001e0: fd1a 863c 591b 5abc a7aa 333d e409 a0bc
000001f0: 8e8b 053e 3ba5 bdbd d3f2 b9bd 60a2 13be
00000200: d92c 89bd c212 0cbe 889b bfbb 4af8 9a3d
00000210: cafd 65bd ae91 a5bd cdb5 f2bd 92e5 a13d
00000220: 335b c03d 05fd dbbd 932f ab3d bc55 18be
00000230: b8f4 1d3e f60f e2bd a74c a4bd 1524 273d
00000240: 30bf a5bc bb2a b7bd 87ce dcbb 5917 0b3d
00000250: afc3 ce3d bc40 fd3d fbfa e9bd f733 cf3b
00000260: 2f41 28bd fe06 3d3e 06fa d7bc 22ce 91bd
00000270: 89b5 08be e2a4 81bb ee50 553e a031 dcbc
00000280: 36e3 3c3b 06a4 a0b8 66ba 07be ba33 093c
00000290: 7b16 903d 569b abbd bd7b 533d 4450 063d
000002a0: 7d65 1b3e 06ce 123d 799c 863c a817 18be
000002b0: 5fd7 9f3c 5924 34bc a4af 1abd 9fe5 2cbd
000002c0: d0a5 673c 5936 15bd 20b9 09be 1775 bdbd
000002d0: 4e59 c63b 7d9c b63c 83c9 15bd ab67 f2bd
000002e0: 37fe ee3d bc75 c1bd 76eb 803c f756 943c
000002f0: 9e35 d93b 35e8 f7bd 2e5d 56bd 03ac 4fbd
00000300: d092 bfbd 425f 25bd 5744 0b3e 6342 cdbd
00000310: 852f 06bc 86d9 02be b0b5 d03c ab67 2d3d
00000320: 721c d73c 267f 91bd 97d4 89bd bc04 90bc
00000330: 5e7e 413e a1d6 a53d d9d5 0b3d 4bcd fcbd
00000340: 9c3a 06be c8d7 463d 5826 9bbd f02f 18be
00000350: b96c 18be bc0c dd3d 6e22 cbbd c266 98bd
00000360: a92a 98bd 6784 50bd fe24 9d3d 37bf 7e3d
00000370: ed05 68be 9371 6e3c 686c 50bc 3a23 683d
00000380: 60f7 90bc 4afd 9bbd 9a76 8f3d 51b4 95bc
00000390: 572f e23c dc40 ef3d 1afb b93d 2998 c2bc
000003a0: 8081 903e 70c2 a63c 911f 3fbe b228 a7bd
000003b0: bb78 383d 4f96 ae3d 6005 d8bd 5d05 083d
000003c0: b55f 293d 049a eb3c 6567 fe3d ff9e cabc
000003d0: 48c3 2f3e ce16 533d 9f8d 0cbd 830f 933d
000003e0: aa31 cabd ff58 153c a65c 96bb 89cb 103e
000003f0: 3040 61bd 8686 063c 61c1 2abd 007a 6b3b
-0.10160688 -0.109831475 0.04727752 0.09671684 -0.020167725 0.034250405 0.02108785 0.03459256
0.041300498 -0.15405153 -0.09634862 -0.015771268 -0.11978846 0.032025777 -0.052624393 0.027991135
0.04417037 -0.017874716 0.11404701 0.042471472 0.055421386 0.05909577 0.007447148 -0.17005403
-0.042611293 -0.011917704 0.16514067 -0.014401716 0.1413712 -0.12469298 0.09450618 0.054298047
0.049141593 0.033178277 0.053554807 0.04080149 0.08311188 0.074877284 -0.10358512 -0.0138526345
-0.03894152 -0.016851705 -0.04606445 0.08977751 0.09884255 0.13843979 -0.0034809278 0.04138927
0.084065855 -0.13688087 0.10781199 0.09489951 0.08274858 -0.082388535 0.040320214 -0.06622863
0.048826043 0.019879851 0.096233204 -0.09368609 -0.06255822 0.02641339 0.14270532 0.095708884
-0.03257248 -0.16867872 -0.24358912 0.08228852 0.11479284 0.055134084 -0.030875612 -0.034286555
0.09002162 -0.0904402 0.035216935 -0.08962473 -0.0741361 0.08247098 -0.06369237 0.0299976
0.07421387 0.026009094 0.030016603 0.050857134 0.054024767 0.07591323 0.14670746 0.037512682
0.11878413 -0.020815955 -0.062631615 0.13518026 -0.07210128 0.0391731 -0.10734259 0.022017552
0.01571131 0.024267415 -0.005139993 -0.22551931 0.1329511 0.00077818724 -0.066628814 0.014794169
-0.12077775 -0.03937684 -0.050576795 -0.11156975 0.070902 0.01686839 0.0123433005 0.08197893
0.038706277 -0.058952477 -0.023486665 -0.06046992 -0.21227755 -0.14326817 -0.03845884 0.059303336
0.01637029 -0.013312184 0.04386392 -0.019535966 0.13041517 -0.09260031 -0.09079518 -0.1441741
-0.06698007 -0.1367903 -0.005847398 0.07566889 -0.056150235 -0.08084427 -0.11851082 0.07905115
0.09392395 -0.10741619 0.083586834 -0.14876455 0.15425384 -0.110382006 -0.08022433 0.040805895
-0.020232767 -0.08943697 -0.006738487 0.033957813 0.100959174 0.12365863 -0.11424824 0.0063233334
-0.04107779 0.18459699 -0.026364338 -0.07119395 -0.133505 -0.003956423 0.20831653 -0.026879132
0.0028821952 -7.659946e-05 -0.13254699 0.008374149 0.07035538 -0.08379237 0.051631678 0.03279139
0.15175433 0.03584101 0.016432034 -0.14852774 0.019511877 -0.010994994 -0.03776516 -0.04221117
0.014138654 -0.036428783 -0.13449526 -0.09250849 0.0060531264 0.022291416 -0.03656913 -0.11836179
0.116695814 -0.09446284 0.015737277 0.018107874 0.006628706 -0.12104837 -0.052334957 -0.050701153
-0.09354174 -0.040374048 0.13600288 -0.10022428 -0.0081900405 -0.12778291 0.02547726 0.042335194
0.026258681 -0.0710433 -0.067300014 -0.017580383 0.18895862 0.08097578 0.034139488 -0.12343844
-0.13108295 0.04854563 -0.07575673 -0.14862037 -0.14885224 0.107934445 -0.09918676 -0.074414745
-0.07430012 -0.05090752 0.07673071 0.062194075 -0.2265851 0.014553445 -0.012721159 0.05667422
-0.017696083 -0.076166704 0.07005043 -0.018274458 0.027610464 0.11682293 0.09081097 -0.023754196
0.282238 0.020356387 -0.18664385 -0.08162059 0.045037013 0.08524763 -0.105479 0.03320824
0.04135104 0.028759964 0.12422065 -0.024734018 0.17164338 0.05153542 -0.034314748 0.07180693
-0.09872754 0.009115457 -0.0045886813 0.14140143 -0.054992855 0.008210784 -0.041688327 0.0035930872

base.mlp.fc1.0.bias f4 [256]
00000000: 7d20 8fba 874b ccba 5f64 a9bb 2645 35bc
00000010: d8da dabc 0778 8fbc 2125 87bc 81af 933b
00000020: d5d6 07bc e2f5 97bc d084 3bbb ada5 a5bc
00000030: b62f 15bc 4ad4 e83c 5a88 493c c5a6 833b
00000040: f262 343c b6a1 e9bb 2e6f 8fbc 4d39 c33c
00000050: cd64 413c d882 343a 13dd efbb 710b 563c
00000060: b29b 5d3c 1e45 1a3c 3aa6 5dbc eb56 9dbb
00000070: 23d8 b7bc b1ac 213b 94ca 63bb 5fc1 d4bc
00000080: c4a7 9c3c a521 8dbc 783d 93b9 1d9b 993b
00000090: 5eab c93c 299c 61bb e5f6 2dbc c972 833a
000000a0: 37ac 3cbb 2fad 043b ead3 8f3c ea32 2239
000000b0: b08d 7e3b 8bc7 1abc 00b4 e4ba c40f 2fbc
000000c0: ff12 9cbc e125 0d3c e17a 113b e6d7 eab9
000000d0: 1ce9 fd3b 2eca 0fbb 2540 673c f390 84bc
000000e0: 6bdc f9bc 3ecb 5f3b 55ed 143c d96b e7bc
000000f0: 2240 27bb 8e23 febc 936b 67bc 9201 893a
00000100: 96e2 cebc 72f8 30bb 6b54 82bb bc27 52bc
00000110: ac58 bbbb 0101 7c3c a1f6 1abc e9ad 653c
00000120: d22c c7bc 2e87 813b 9e44 95bb 0aeb 733b
00000130: f6fe 113b fb47 f23b 74a6 71bc 139c 853b
00000140: 4f91 d6bb d685 c53b ea60 6a3a 004a e3bb
00000150: 82c4 0bbd da69 cdbb 12a7 8c3a 4615 a0bb
00000160: 6e56 b03b c53b 273c 0291 13bd 1815 03bc
00000170: cd7d ecbb 84ee 013c c87a 38bc 4462 6ebc
00000180: 2fe9 af3b 302a 363c 3524 2ebc e740 813b
00000190: f30e d13c 24ea 1cbc 0ae4 25bc ce68 0ab9
000001a0: 194a a13b ca65 bb3b 27df 953c ac02 3abc
000001b0: 591a fa3b c9e9 d0bb 916a 6a3b f897 2dbb
000001c0: 07fa 6b3b 15c8 1fbc 3467 883c 8bbf 803b
000001d0: 5bb4 e73a 4564 57bc 3e40 10bc 6270 0b3c
000001e0: 33dd 7f3c 3a6e 0bbc c49a 14bc 9933 243c
000001f0: afb9 8b3b 1fcf d4bb 00f8 69bc 835f 783c
00000200: ec14 8cbc 0a0b 673b da5e 143c fbf3 1dbc
00000210: 4a9d 083b df29 8abb 82bc 953b c78f 8a3c
00000220: 7a95 0ebc f361 5dbb 199e 713c 8cc0 0b3c
00000230: 4570 ddbb fdec 513b 5b6f 81bb 74ef 3ebc
00000240: 0d49 62bb 77f0 433c 1cf1 8d3b 8181 0dbc
00000250: 3e1a 543c 0c5e 0ebc fdbc 76bc 78d6 e9bc
00000260: c2b5 87bc 5854 a2bc 5d30 9b3b badd 96b9
00000270: bac9 ec3b fe92 8f3b c3ee 3cbb b566 6fbb
00000280: bd0c 923b 1236 85bc 2821 4cbc ed6b c8b9
00000290: 76be 4e3a 779a 773b 367e 2bbb 190a b3bc
000002a0: 8eb4 9ebc 7e09 9339 fdc1 70bc 67b6 0038
000002b0: 35db f0bb b23a 05bc 0828 8b3b a9b9 bcbc
000002c0: 4569 9e3a de24 b53c ec12 59bc e834 7f3c
000002d0: fb0d 703b 6ac5 d83b 2c45 05bd 3e25 a13b
000002e0: dc15 d1bc f6f7 1abc a6e3 22bc a5d8 96bc
000002f0: 8053 193c 8d39 0d3c 4f2c 33bc a808 f1bb
00000300: 8092 2e3c e610 47bb e438 943c 0198 b73b
00000310: a8d0 1fbc 925c 01bd 4887 16bc 4027 04bc
00000320: 30a1 0dbb 3031 5c3b e4d1 843a 2075 263c
00000330: 63a1 ff3b 9f01 6c3c e679 0c3c 8ccb 37bc
00000340: 4ee2 8abc 2573 e4bb 6005 ecbb 679d 983a
00000350: 52ac 01bc eb39 ff3b d9dd 8c3b 15b9 6fbc
00000360: 485d 74bb cd29 2a3c a263 3bbc a23f c53c
00000370: 28b6 acbb 0ba9 2abb 41a6 c9bc 1048 f9bb
00000380: a810 42bc b958 733c ec19 b3b9 a927 86bb
00000390: be33 ad3c 045e 12bc f151 eebb 7184 cf3c
000003a0: 1f03 b73b b07b 90bc 2fc2 afbb b4d2 09ba
000003b0: 7d0d 8a3b 7075 31bc fcf9 a8ba ef48 5b3c
000003c0: 33f1 113b 92cd ff3b 2600 a83c d056 453a
000003d0: da6a e6ba 3e8c 28bc f8c8 273c e5e8 22bc
000003e0: b021 b23b c9a5 063b 30b2 1cbc ed34 80bc
000003f0: 7cbd 95bc 012f e7ba c047 a2bc cfb2 54bc
-0.0010919716 -0.0015586474 -0.005169436 -0.01106385 -0.026715681 -0.017513288 -0.016497197 0.0045070057
-0.008290966 -0.018549863 -0.0028613098 -0.020220602 -0.009105613 0.02842154 0.012300575 0.004017683
0.0110099185 -0.007129873 -0.01750907 0.023831034 0.011803818 0.00068859523 -0.0073200553 0.013064251
0.01352589 0.009415893 -0.013528401 -0.004801621 -0.02244193 0.0024669582 -0.0034758197 -0.025971113
0.019122966 -0.017227957 -0.00028083823 0.0046876804 0.024617847 -0.0034425354 -0.010617946 0.0010028715
-0.0028789171 0.0020244827 0.017557103 0.00015468491 0.0038841777 -0.009446989 -0.0017448664 -0.010684911
-0.019052027 0.008614988 0.0022198486 -0.00044792815 0.007748736 -0.0021940577 0.014114414 -0.016182398
-0.030500611 0.0034148241 0.0090897875 -0.028249668 -0.0025520404 -0.031022813 -0.014124769 0.0010452738
-0.025254529 -0.0027003554 -0.0039773486 -0.012826856 -0.0057173576 0.015381099 -0.009458215 0.014018514
-0.024313364 0.0039528823 -0.004555299 0.0037218952 0.0022277213 0.0073938346 -0.014749158 0.0040774434
-0.006548084 0.0060279174 0.0008940833 -0.0069363117 -0.03412295 -0.006268722 0.0010730943 -0.0048853485
0.005381397 0.010207121 -0.036026962 -0.008000635 -0.007217145 0.007930402 -0.011259742 -0.014549796
0.005368374 0.011118457 -0.01062875 0.0039445045 0.025519824 -0.009577308 -0.0101251695 -0.00013199748
0.004922163 0.0057189213 0.018294884 -0.011353176 0.0076325354 -0.0063755256 0.0035769085 -0.0026488286
0.0036007182 -0.009752293 0.016650774 0.0039290837 0.0017677651 -0.013146465 -0.008804379 0.008510681
0.015616703 -0.008510167 -0.009070102 0.010022067 0.0042640786 -0.0064944173 -0.014280319 0.0151594905
-0.01709982 0.0035254383 0.0090558175 -0.009640689 0.0020845705 -0.004216417 0.004569591 0.016914262
-0.00870263 -0.0033780306 0.014747166 0.0085297935 -0.0067577683 0.0032032125 -0.003950042 -0.01165377
-0.0034528405 0.011959187 0.004331721 -0.008636833 0.01294571 -0.008689415 -0.015059707 -0.02854465
-0.016566161 -0.019815609 0.00473599 -0.0002877543 0.007226196 0.0043815365 -0.0028828837 -0.0036529724
0.004457085 -0.016261134 -0.012459077 -0.00038227384 0.0007886657 0.0037781277 -0.0026167757 -0.0218554
-0.019373205 0.00028045097 -0.014694688 3.0687454e-05 -0.0073503503 -0.00813167 0.0042467155 -0.023037748
0.0012085816 0.022112306 -0.01324914 0.015576579 0.0036629427 0.0066153305 -0.03253667 0.0049177697
-0.025523119 -0.009458533 -0.009941971 -0.018413851 0.009358287 0.008619678 -0.010935857 -0.0073557682
0.0106550455 -0.0030375062 0.018093534 0.005602837 -0.009754337 -0.031582423 -0.009187527 -0.008065999
-0.0021610968 0.0033598654 0.0010133353 0.010159761 0.007801221 0.014404683 0.008573985 -0.011217963
-0.016953614 -0.006971734 -0.007202789 0.0011643589 -0.0079146195 0.007788887 0.0042989072 -0.014631529
-0.0037287045 0.010385943 -0.0114373285 0.024078194 -0.005270738 -0.00260407 -0.024615409 -0.0076074675
-0.0118447915 0.014852696 -0.00034160854 -0.0040940833 0.021142837 -0.008933548 -0.007272952 0.025331708
0.005585089 -0.017637104 -0.0053637247 -0.00052575325 0.0042130337 -0.010831222 -0.0012891884 0.013384088
0.002226901 0.0078064883 0.020507883 0.00075278897 -0.0017579452 -0.010287343 0.010240786 -0.009943222
0.005436145 0.0020545593 -0.009563968 -0.015650237 -0.01827883 -0.001763791 -0.019809604 -0.012982084

base.mlp.fc1.2.weight f4 [256]
00000000: e509 7d3f b673 7d3f 7328 813f ac27 7d3f
00000010: 5b3a 7c3f c0b0 7a3f cdd3 7e3f 0488 7c3f
00000020: 03d7 813f 4174 7f3f a7d2 813f 646e 803f
00000030: 3d77 813f c89e 813f 9702 813f 3449 7d3f
00000040: c764 7b3f ffb1 803f c1de 7f3f 129c 803f
00000050: 5e85 7d3f 27aa 7c3f 16c3 7c3f 0ffd 803f
00000060: 3fc9 7e3f 078d 803f f94f 803f cf19 7f3f
00000070: c2d0 7a3f 28ec 823f 4510 813f da21 7d3f
00000080: dd88 803f 05a8 7c3f b89e 803f a2b3 813f
00000090: 4d15 7d3f b898 813f 4818 7d3f 8576 803f
000000a0: 3a45 7f3f c478 803f 36fe 7c3f cb07 823f
000000b0: ff5d 803f 19a0 7d3f 7a18 833f 3883 7e3f
000000c0: 2f2a 7c3f 1563 803f ae71 813f 0f05 823f
000000d0: 46ae 803f 40f4 7e3f bdfb 803f 7bc3 7c3f
000000e0: 052b 7b3f 3f41 823f 4baf 7f3f 09a5 7c3f
000000f0: bc22 813f 3787 7d3f 8d34 7a3f 67b2 7d3f
00000100: ee63 7f3f ab9f 7e3f 10da 7a3f febd 803f
00000110: 7b49 813f 03f9 793f 2bec 803f 7946 7e3f
00000120: def7 813f 24b5 7f3f 3bf8 7e3f b005 813f
00000130: 7675 823f c8de 7d3f 818a 803f 2d86 823f
00000140: d5a7 813f 1182 833f f21a 813f 86bd 7d3f
00000150: d6e0 7f3f 62c9 803f 3419 813f 8078 823f
00000160: c82f 823f ba23 7e3f 90b7 783f 0734 803f
00000170: 017f 7d3f b1a4 813f 3739 803f df84 7d3f
00000180: 5eee 813f bd49 823f f883 7c3f 4205 813f
00000190: 1de4 7f3f cb78 813f 93a8 7c3f b4c5 813f
000001a0: 8f72 813f 24cc 793f 56fd 813f 902c 7e3f
000001b0: 9bc0 7e3f 35d6 803f 3811 833f 2601 803f
000001c0: dd7a 813f 28b7 803f ffda 813f 2597 7a3f
000001d0: b873 813f 0b7a 7a3f ec6d 803f 104f 823f
000001e0: ee80 813f 1ac3 7c3f 0908 773f 5a89 823f
000001f0: 80e8 813f c4ff 803f 3baf 7a3f 1a2a 813f
00000200: 50a0 803f 9d30 7e3f 42a1 7b3f 90c1 7c3f
00000210: 91ea 813f 9778 813f b3cf 7c3f e032 813f
00000220: 314c 7c3f b743 7f3f 99c1 7f3f 4c4f 803f
00000230: 9de4 813f a1cc 7a3f 5c46 803f 7231 843f
00000240: 66ca 813f d435 803f f51a 823f 5b2f 7b3f
00000250: c816 7c3f 52d6 7b3f 69e3 7b3f 9674 7c3f
00000260: 2e76 7e3f ef62 803f e223 813f 69c3 803f
00000270: 68b5 7d3f 3c00 7f3f 80fa 803f ae05 803f
00000280: 5611 803f 2a32 7f3f 7e38 813f e680 803f
00000290: 33ef 793f 2084 803f 4ba5 7f3f fcd4 7f3f
000002a0: 5d72 803f 028e 823f 320e 823f ba4e 823f
000002b0: 8d8c 7f3f ae14 803f d6b7 823f b384 833f
000002c0: 7671 833f 754f 7f3f b61e 7d3f c694 7d3f
000002d0: 1517 7f3f 2c7e 813f 0973 7e3f c7ed 7c3f
000002e0: 884d 7a3f 2785 7f3f bc70 7b3f 512b 803f
000002f0: 4c16 823f e315 7b3f 846f 7a3f bf24 813f
00000300: 25e1 7d3f a5de 823f ce61 803f d363 803f
00000310: 48e4 7e3f 8fe3 7a3f 55dc 803f 9e0c 813f
00000320: 4abd 803f d66f 803f 9443 823f a362 7f3f
00000330: f54e 7d3f 3717 803f ee3f 803f dda1 803f
00000340: 61e8 813f 3d5d 813f 5ae6 7d3f fda5 813f
00000350: f72c 7c3f caa9 803f f7e8 7f3f fbba 7e3f
00000360: fd99 7c3f 58d4 813f 89f6 823f 047e 843f
00000370: 5ace 7f3f ffed 803f fab8 803f 3e58 813f
00000380: 3180 7f3f b185 833f 8a94 7c3f b4be 813f
00000390: 2732 823f c745 793f 1fbc 803f a7f2 813f
000003a0: bd6a 7f3f b720 7f3f 5607 813f 01c2 803f
000003b0: b668 7f3f 89d1 7f3f 9826 813f f69a 7e3f
000003c0: 61fd 7f3f b62c 813f b246 803f c58e 7d3f
000003d0: 517d 7b3f ff67 7f3f 1d7f 803f 22a3 7a3f
000003e0: 272e 813f 38c0 813f f188 7f3f c36f 7b3f
000003f0: c55c 7c3f cd7a 7e3f 8f00 803f 4b0f 7f3f
0.9884322 0.99004686 1.0090469 0.9888866 0.98526543 0.9792595 0.9954193 0.98645043
1.0143741 0.99786764 1.0142411 1.0033689 1.0114514 1.0126581 1.0078915 0.98939824
0.9820065 1.005432 0.9994927 1.0047629 0.9903163 0.9869713 0.9873518 1.0077227
0.9952583 1.0043038 1.0024406 0.99648756 0.9797479 1.0228319 1.008309 0.9887978
1.0041767 0.9869388 1.0048437 1.0132945 0.9886063 1.0124731 0.98865175 1.0036169
0.99715006 1.0036855 0.98825395 1.0158628 1.0028685 0.99072415 1.0241845 0.99418974
0.9850187 1.0030237 1.0112817 1.0157794 1.0053184 0.99591446 1.0076824 0.9873578
0.9811252 1.0176162 0.9987685 0.98689324 1.0088725 0.99034446 0.97736436 0.99100345
0.99761856 0.99462384 0.97988987 1.0057981 1.010055 0.97645587 1.0072073 0.9932628
1.0153768 0.99885774 0.9959752 1.0079861 1.0192096 0.9916806 1.0042268 1.0197197
1.0129343 1.0274068 1.0086348 0.99117315 0.9995245 1.0061457 1.0085816 1.0193024
1.0170832 0.99273264 0.97155094 1.0015877 0.9902192 1.0128385 1.001746 0.9903087
1.0150869 1.0178753 0.9863887 1.007973 0.9995745 1.0114988 0.98694724 1.0138459
1.0113086 0.9757712 1.0155437 0.99286747 0.9951264 1.0065371 1.023963 1.000035
1.011562 1.0055895 1.0144957 0.9788688 1.011344 0.9784247 1.0033545 1.0180378
1.0117471 0.987352 0.96496636 1.0198166 1.0149078 1.0078053 0.9792363 1.0090973
1.0048923 0.9929293 0.98292935 0.9873285 1.0149709 1.0114926 0.98754424 1.0093651
0.9855376 0.997127 0.9990478 1.00242 1.0147892 0.9796849 1.0021472 1.032759
1.0139892 1.0016427 1.0164477 0.98119134 0.9847226 0.983739 0.98393875 0.98615396
0.9939908 1.0030192 1.0089076 1.0059634 0.9910493 0.9960973 1.0076447 1.0001733
1.000529 0.9968592 1.0095365 1.0039337 0.97630614 1.0040321 0.9986159 0.99934363
1.0034901 1.0199587 1.0160582 1.0180275 0.9982384 1.0006311 1.0212352 1.0274872
1.0269 0.99730617 0.98874986 0.99055135 0.99644595 1.011663 0.9939428 0.9880032
0.97774553 0.9981255 0.98218894 1.0013219 1.0163054 0.9808027 0.9782641 1.0089339
0.9917167 1.0224196 1.0029848 1.0030464 0.9956708 0.98003477 1.006724 1.0081975
1.0057766 1.003413 1.0176873 0.9975988 0.98948604 1.0007085 1.001951 1.0049397
1.0149041 1.0106579 0.99179614 1.0128781 0.9850611 1.0051816 0.9996485 0.9950406
0.9867247 1.0142927 1.0231487 1.0350957 0.9992424 1.0072631 1.005645 1.0105054
0.9980498 1.0275174 0.9866415 1.0136323 1.0171555 0.97372097 1.005741 1.0152177
0.99772245 0.99659294 1.0080364 1.0059205 0.9976915 0.999291 1.0089903 0.994552
0.99996 1.009177 1.0021574 0.99045974 0.9823809 0.9976806 1.0038792 0.9790517
1.009221 1.0136786 0.9981833 0.9821741 0.98579055 0.9940613 1.000017 0.9963271

base.mlp.fc1.2.bias f4 [256]
00000000: f528 b33b 6351 0d3c 75a5 d6bb 2d09 54bc
00000010: acdd 0ebc 95c5 263c ef4b 1cbc e9eb 543c
00000020: 6890 8abb e035 f0bb 9425 6cbc 5d81 70bb
00000030: 3447 39bc d6f0 be3c cf94 a53b d984 853c
00000040: b5a6 9c3c 2bbd d23a 9ca5 58bc db97 843c
00000050: 6162 293c 8a9c 643c c2a1 75bb cf84 b83b
00000060: c12d c13b 2fc9 cc3b e629 02bc b19c 92ba
00000070: bcf2 1ebc 07f1 523b 05c8 25bc a751 43bc
00000080: 4660 353c fd97 69b9 da62 823b 45a8 4dbc
00000090: d741 ad3b 8e78 05bc 9f87 0d3c bbe4 93bb
000000a0: e658 11bc 5137 043b 3082 cc3b bcf3 bebb
000000b0: 4db5 24bb f015 193c 640e 4cbc 7bfb 99bb
000000c0: 0edc 9ebb 04d1 a13c d72d 00bb c04e eabb
000000d0: fc89 7d39 79d7 84bb 4ae5 033d 7147 6e3b
000000e0: a572 7dbc a7f3 093c 158b 543c e2f2 1bbc
000000f0: 9b09 203c a2a3 d8bc bb9e 4e3c 7527 bc3b
00000100: 6c79 05bc c03c 633c a847 23bc a769 6f3c
00000110: 2211 35bc b16a 603c 4597 8d3b 297e 3ebb
00000120: 34be 95bc 52ed c13b bd80 273c 8ead aa3b
00000130: 557c 8339 16a9 4c3c 975f 4c39 2b5a 3dbc
00000140: beba 96bc 6030 8dba 6fff d33a f9f6 183c
00000150: 8a74 13bc 58d1 14bc 0574 ac3a f003 f8bb
00000160: 8a8b 10bc 9206 0b3c 43b0 8dbb 95e1 093c
00000170: 0480 9bbb 3d72 403c e52a be3a bd40 bcbb
00000180: 8352 d43a e07b 6f3b 11a5 17ba d097 c5bb
00000190: acbd d53b 7107 cbbb 8407 09bc 8536 0e3c
000001a0: 20e3 ce3b 8fbc a63c dbe1 913c 5ac1 13bc
000001b0: 6c9f 123c 6ab2 9f3b c1e0 143c 4c56 3f3c
000001c0: 3d5c 1d3b 2b9a bebc 82b3 b2bb 797a 5d3c
000001d0: 15e0 b3bb 3dde b83a e1e7 323b b85a 5cbb
000001e0: b937 403c d6b0 9e3c 3b9c 823b 0e3a 893a
000001f0: e543 113b 6566 153b ee7e c93b 3d77 cd3c
00000200: 023b 81bc e048 b93a 9471 ab3c 5675 8f3c
00000210: c859 b93a 77b3 11bc 9005 c83c 8ca4 483c
00000220: 47b2 513b b5b2 efbb 00ab f239 0ee5 9b3b
00000230: 8b63 81bb 8189 0e3c 6899 afba e001 6cbc
00000240: fa56 ddbb 3844 c53c 99ac 573b 5d78 87bb
00000250: b3ae 3d3c e57e da3a 1f52 46bb 4bbd 9ebc
00000260: 1ccd bf3b 11f1 d7bc 7a1a ea3b 6a6f fcbb
00000270: a857 873b 0183 daba 2491 02bc dea4 24bb
00000280: 4456 443c 209f 8cbb 7aa9 7cbc 0374 50bb
00000290: 4f67 c93c b2af 253c 3433 9b3b 2fa2 00bc
000002a0: 72ad c2bc 6965 943b ba16 5fbc f970 de3a
000002b0: 3e8a 9f3b 963a cbbb 8409 efbb 891d b0bc
000002c0: 3daf 59bb 6f2b bd3c acc6 06bb ab87 003c
000002d0: c906 19bb 461d 8e3b c6b1 e5bc a479 8a3a
000002e0: 8965 73bb 8b0c 34bc 6274 b5ba 04f0 1cbc
000002f0: d144 3ebb 6c40 d13c a4b1 183c 012d 6b3b
00000300: 4f1a f13a aca5 64bc 3044 8e3c f053 193c
00000310: 3433 9f3a f419 5bbc ccbb b7ba b7f3 063c
00000320: 537e ad3a 3a80 893b 15e3 8c3b a46f 013c
00000330: a0b0 813b b5eb 203c 4bdc 163c ef1e babb
00000340: 363a a2bc 636a c4bb 10c2 973b b49e 2c3b
00000350: 61d3 7f3c 17b5 233c c463 093c ed19 b1bb
00000360: 4c95 613c aff1 9a3b d69d 29bc 93a7 6e39
00000370: 6234 11bd 6190 673a 9187 d8bc 5cdb b8ba
00000380: 60ab 4bba 0a8a 08bb aa69 cd3b 3aaa 1fbc
00000390: 4d22 b6bb 7af3 873b 75eb a43a 1004 4a3c
000003a0: d240 073d 987f 3239 9778 28bb 5836 f13b
000003b0: 9f98 2b3c b66c 2f3c 88f3 10bc 59e8 9b3c
000003c0: 73af f739 c1ae 1c3c fbda fa3b bb00 8e3b
000003d0: b0a1 6b3c a16e d9bb 5dca 533b 07e1 3b3c
000003e0: bdcf b53b b987 90ba 368a 24bc 60e3 40bc
000003f0: 9a70 3eba c41f 1b3c c607 9fbc bed7 12bc
0.005467529 0.008625361 -0.0065504857 -0.012941641 -0.008719843 0.010178943 -0.009539588 0.0129956985
-0.0042286403 -0.007330641 -0.014413256 -0.00366982 -0.01130848 0.023308199 0.0050531398 0.016298698
0.01912246 0.0016078105 -0.013223078 0.016185692 0.010338397 0.013953337 -0.0037480448 0.0056310664
0.005895347 0.006249569 -0.00794456 -0.0011185614 -0.009701427 0.003218712 -0.010118489 -0.011921323
0.011070317 -0.00022277232 0.003979069 -0.012552326 0.0052873897 -0.008146418 0.008638292 -0.004513351
-0.008871293 0.0020174573 0.0062411055 -0.0058273952 -0.0025132478 0.009343609 -0.012454603 -0.0046991683
-0.00484801 0.019752987 -0.0019558573 -0.007150501 0.00024179363 -0.0040540067 0.03220109 0.00363585
-0.015469228 0.008419908 0.012972613 -0.009518357 0.009767915 -0.026445214 0.0126110865 0.0057420083
-0.008146625 0.013869464 -0.009965815 0.014612592 -0.011051448 0.013697312 0.0043210112 -0.0029066897
-0.018279172 0.0059181834 0.010223565 0.0052086776 0.00025078902 0.012491485 0.00019490566 -0.011557142
-0.018399592 -0.0010771863 0.0016174148 0.009336227 -0.008999953 -0.009083115 0.0013157135 -0.0075688288
-0.008822331 0.008485453 -0.0043239905 0.008415599 -0.0047454853 0.0117459865 0.0014508633 -0.005745022
0.0016198907 0.003654234 -0.00057847897 -0.0060300604 0.006522855 -0.0061959554 -0.008363608 0.008679991
0.0063136965 0.020353584 0.017807892 -0.009018267 0.008949142 0.0048735635 0.009086789 0.01167829
0.0024011277 -0.023266872 -0.005453528 0.013517969 -0.005489359 0.0014104318 0.0027298855 -0.0033623409
0.011732035 0.019371431 0.0039859093 0.0010469572 0.0022165712 0.0022796628 0.0061491644 0.025081271
-0.015775207 0.0014136098 0.020928182 0.017512005 0.0014141137 -0.008892885 0.024416715 0.012246262
0.003199713 -0.0073150047 0.00046285242 0.00475753 -0.003948634 0.008699776 -0.0013397159 -0.014404744
-0.006754753 0.02408038 0.0032909273 -0.0041342215 0.011577296 0.0016669898 -0.003026135 -0.019377371
0.0058533084 -0.026360067 0.0071442695 -0.0077037113 0.0041303225 -0.0016671122 -0.0079691745 -0.0025122683
0.011983458 -0.00429143 -0.015421266 -0.003180743 0.024585394 0.01011269 0.0047363285 -0.007851168
-0.023764346 0.0045286906 -0.013616258 0.0016970924 0.0048687747 -0.0062020523 -0.0072948355 -0.021498458
-0.0033216022 0.023092 -0.0020565195 0.007844846 -0.0023349992 0.0043369858 -0.02803887 0.0010564816
-0.0037139377 -0.010989319 -0.0013843889 -0.009578709 -0.0029032717 0.025543414 0.009319697 0.0035884979
0.0018394681 -0.013955515 0.017366499 0.009358391 0.0012145997 -0.013372887 -0.001401776 0.008236817
0.00132365 0.004196194 0.004299531 0.007900152 0.003957823 0.009821822 0.009207795 -0.005679957
-0.019803148 -0.0059941276 0.0046312883 0.0026339712 0.0156143615 0.009991906 0.008385602 -0.005404702
0.013768505 0.004728518 -0.010352572 0.00022759875 -0.035450347 0.0008833465 -0.02643183 -0.001410346
-0.00077693723 -0.002083423 0.0062686997 -0.009745175 -0.005558288 0.0041488977 0.0012582379 0.01233007
0.0330208 0.00017022935 -0.0025706643 0.0073612146 0.010473399 0.010707071 -0.008847125 0.01903169
0.0004724223 0.009563149 0.007655499 0.004333583 0.014381811 -0.0066355024 0.0032316663 0.011467225
0.005548446 -0.0011026777 -0.010042718 -0.01177296 -0.0007264704 0.009468023 -0.019412886 -0.00896257

base.mlp.fc_h.0.weight f4 [256, 256]
00000000: 3f5d 183d 2252 d8bd ccb2 acbd 8ec3 173e
00000010: eff2 92bd d4ab 03bd 3a7f dbba 22b3 f0bc
00000020: e591 72be 0ce0 1abd 746c 80bd bcdf 303e
00000030: 9cd9 90bd 77af 013d 8c66 133d a8d7 0abd
00000040: 2197 b1bd 3018 2ebb f2d0 a93c d6a3 cebc
00000050: 94d2 a7bd c674 80bd e892 c33c dac1 9b3d
00000060: 4c2e 243e 6162 0f3d b0ca 0abd c17a d6bc
00000070: d312 d6bd 5207 643d a7a8 33be fe2e be3c
00000080: ffe3 d73c ecb5 94bb 9f5b d2bd 1c0a fabd
00000090: f1d9 2cbd c403 493d 70be b7bd 4f3b b4bd
000000a0: ee1e 62bd 335e 05bd a630 8fbc 8760 29bb
000000b0: 77e4 313d 6cec 8b3d c8b4 70bd 6eb0 01be
000000c0: e686 64be af7b be3c b63d 453d 5268 44bd
000000d0: d1f6 843c 7408 033e 0962 95bd 97af a9bc
000000e0: 62c9 de3c c409 b7bd 1b31 2a3e f28f 8c3d
000000f0: fbc4 07bd 7bda 1ebd 91bb 4a3d 8ec7 eabd
00000100: 85be c1bd d666 0e3e bd58 aabd 250a 16bc
00000110: 6ef7 d3bd 9fa5 d639 633f 8dbc 97cd 85bc
00000120: f845 373d ca47 773c 9252 edbc b28f 06be
00000130: eac2 373d 5aa3 0a3c 91bf e8bc 7a2d 3cbc
00000140: ad44 0b3d b1a4 0cbe dc2c adbd 43e5 493c
00000150: e4ea 5fbd 3ae8 88bd c8d3 9bbb 0191 30bd
00000160: 6d5a 77bd 7358 2a3d 2ff8 52bc 3600 be3c
00000170: 81e0 be3c 1fe4 eabd a042 173e 818c 4a3c
00000180: 7a38 ff3c 07ef c03d 8ea8 053e 8f78 c03d
00000190: bc02 1f3e 558d 34bd e683 15be 4a25 0d3e
000001a0: 037a 5c3d 2c93 e2bc 00f2 5c3b 8b97 60bd
000001b0: ab60 ecbd 6f19 09be 3970 cebd 3f59 bdbc
000001c0: 776c a43d 6743 8a3d cd38 f8bd e09c 553d
000001d0: 39d8 313e 9314 44bd 731c 863d 50c6 8dbd
000001e0: 820d 093e 2d74 013d 384f 9f3d ae9c 0c3e
000001f0: 3921 8ebd 182e 883c 45f6 2c3d 1072 133d
00000200: fbbf debd a032 07be 431c d7bc 90b1 e13b
00000210: 1650 b53d 8187 08be 518f debd 083c 22bd
00000220: fd75 513d 938b 703d d88a 433d f641 39bc
00000230: 64c0 903d b00b c63c 85a1 92bd 43c4 d33c
00000240: ff28 debc e51a 813d 4aaa d43d 244a 643e
00000250: fadc bbbd c84a b33c b8e5 9fbd a178 2bbd
00000260: 93fd d63d e6e9 963e 64f5 823d 5289 6ebc
00000270: d2e3 a5bd 630c 673d 8c04 f53c a731 50bc
00000280: f704 a3bc f4c2 a9bb 776e 543d c34b 07be
00000290: 9a2a 343e 2417 973d 73c5 54bc 1e75 203e
000002a0: 9478 3bbd 671a 093e 7655 b73d a39e 6d3d
000002b0: bdc8 42be 5a4a 76bc 6b01 a93d d853 423d
000002c0: 5e97 65bc 146f 1cbd 393f 04be 6130 ecbd
000002d0: 8f4d 4a3d 1f1c d63d cdd1 773d b9a1 3a3d
000002e0: f181 a0bc 82f9 38be d418 38bd c0c8 8c3d
000002f0: 4daf 5e3b 6242 c1bc 6dc3 e3bd 3f5c f63d
00000300: e3d2 883d 214c 45be e361 bc3d bd69 56bd
00000310: 03f6 5c3d cd79 1a3e 111d a8bd d222 a13d
00000320: 562c 98bb 1c88 883d 77f9 38be d2c1 00be
00000330: 7e5f 44bd 9a1b 16bd c86d a7bd 753c db3d
00000340: 100d 583d 355a 2d3e b097 eb3c 79dd 30bc
00000350: 11f8 903c 7363 25bd 2899 993c 5014 11bd
00000360: d72d 1c3d f658 01be c0b2 5e3e a565 853d
00000370: 0e0d e9bd 5cb5 483c aaac 323d 2ee4 b03b
00000380: 712e 753d 3676 d2bb e3e4 a33d 7d90 a1bd
00000390: 445a ea3d 8465 27be e112 323e 1c11 e03c
000003a0: 71e9 923d 2f92 a4bc b289 e53d 9b49 8a3d
000003b0: a0f9 f1bc 41df 0dbe 40ae 04bb 864f 75bd
000003c0: ad0e 68bd 1ef9 c93d 461e 353d 0479 b2bd
000003d0: dde4 bf3d 8f63 fa3c 5443 98bd 6864 01be
000003e0: d5f8 113d f781 1d3d 6db9 853b 057d 1c3d
000003f0: cb84 683e 1f0a 813d 143e d03d ae6d f4bd
0.0371983 -0.105625406 -0.0843254 0.14820692 -0.07175242 -0.03214629 -0.001674629 -0.029382292
-0.23688467 -0.037811324 -0.06270686 0.17272848 -0.07072756 0.031661477 0.03598647 -0.033897072
-0.08671404 -0.002656471 0.020729516 -0.025224607 -0.081944615 -0.06272273 0.023873761 0.076053336
0.16033286 0.03500593 -0.033884704 -0.02618158 -0.10452809 0.055671044 -0.17544805 0.023215767
0.026353834 -0.0045382883 -0.102713816 -0.122089595 -0.042200033 0.049075857 -0.0897187 -0.08800375
-0.055205278 -0.03256054 -0.017479252 -0.0025844888 0.04343077 0.06832203 -0.058766156 -0.12664959
-0.22317085 0.023252336 0.048154555 -0.04795105 0.016230972 0.12796193 -0.07294089 -0.02071361
0.027195636 -0.089374095 0.16620295 0.06863393 -0.03314684 -0.038782578 0.049495284 -0.11463843
-0.09460167 0.13906416 -0.08317707 -0.009157692 -0.10349928 0.00040940658 -0.01724214 -0.016333384
0.04474446 0.015092799 -0.028970037 -0.13140753 0.04486362 0.008461798 -0.028411658 -0.011485452
0.03400104 -0.137347 -0.08455822 0.012322727 -0.05466737 -0.06684919 -0.004755471 -0.043107037
-0.06038897 0.041588258 -0.012876554 0.02319346 0.023300411 -0.11469292 0.14771509 0.0123626
0.03115486 0.09420591 0.1305258 0.09397995 0.15528387 -0.044080097 -0.14601097 0.13783756
0.053827297 -0.027658068 0.003371358 -0.054832023 -0.115418755 -0.13388608 -0.100799985 -0.023113845
0.080285005 0.06751137 -0.12120209 0.05215156 0.17367639 -0.047871184 0.06548395 -0.06922591
0.13384059 0.031604934 0.07778782 0.13731644 -0.069399305 0.016623542 0.04222705 0.03599745
-0.10876461 -0.13202906 -0.026258593 0.006887622 0.08853166 -0.1333294 -0.10867179 -0.03960803
0.051137913 0.05872686 0.047739834 -0.01130723 0.070679456 0.024175495 -0.07159714 0.02585042
-0.027119158 0.06303958 0.103840426 0.22293907 -0.09173007 0.021886244 -0.07807487 -0.041863088
0.10497584 0.29475325 0.06394461 -0.014559107 -0.08100094 0.056408297 0.029909395 -0.012707151
-0.019899828 -0.005180711 0.05186316 -0.13212495 0.17594376 0.073774606 -0.012986529 0.15669677
-0.04576929 0.13388978 0.08951847 0.058012616 -0.19021888 -0.015032375 0.082522236 0.04744324
-0.0140131395 -0.03819187 -0.12914743 -0.11532665 0.049390372 0.104545824 0.060502816 0.045564387
-0.01959321 -0.1806393 -0.044945553 0.068742275 0.0033979 -0.023591224 -0.11121259 0.12029313
0.066808484 -0.19267322 0.09198358 -0.052346934 0.053945553 0.15085526 -0.08208669 0.078679696
-0.004643957 0.06666586 -0.18063913 -0.12573937 -0.04794263 -0.036647417 -0.08175236 0.10704891
0.052746832 0.16928943 0.028758854 -0.010794991 0.017696412 -0.040378045 0.018749788 -0.035419762
0.038129654 -0.12631592 0.21747875 0.06513528 -0.11379443 0.012250271 0.043621697 0.005398295
0.059858743 -0.0064227832 0.08002641 -0.07888887 0.11442998 -0.16347319 0.17390014 0.027351908
0.07173432 -0.020089237 0.11207904 0.067523204 -0.029537976 -0.13854696 -0.0020245463 -0.059890293
-0.05665462 0.098619685 0.044218324 -0.08714488 0.09369824 0.030565051 -0.07434717 -0.12635958
0.035637695 0.038454022 0.0040809424 0.038205165 0.22706906 0.063007586 0.101680905 -0.11934982

base.mlp.fc_h.0.bias f4 [256]
00000000: 0000 0000 0000 0000 0000 0000 0000 0000
00000010: 0000 0000 0000 0000 0000 0000 0000 0000
00000020: 0000 0000 0000 0000 0000 0000 0000 0000
00000030: 0000 0000 0000 0000 0000 0000 0000 0000
00000040: 0000 0000 0000 0000 0000 0000 0000 0000
00000050: 0000 0000 0000 0000 0000 0000 0000 0000
00000060: 0000 0000 0000 0000 0000 0000 0000 0000
00000070: 0000 0000 0000 0000 0000 0000 0000 0000
00000080: 0000 0000 0000 0000 0000 0000 0000 0000
00000090: 0000 0000 0000 0000 0000 0000 0000 0000
000000a0: 0000 0000 0000 0000 0000 0000 0000 0000
000000b0: 0000 0000 0000 0000 0000 0000 0000 0000
000000c0: 0000 0000 0000 0000 0000 0000 0000 0000
000000d0: 0000 0000 0000 0000 0000 0000 0000 0000
000000e0: 0000 0000 0000 0000 0000 0000 0000 0000
000000f0: 0000 0000 0000 0000 0000 0000 0000 0000
00000100: 0000 0000 0000 0000 0000 0000 0000 0000
00000110: 0000 0000 0000 0000 0000 0000 0000 0000
00000120: 0000 0000 0000 0000 0000 0000 0000 0000
00000130: 0000 0000 0000 0000 0000 0000 0000 0000
00000140: 0000 0000 0000 0000 0000 0000 0000 0000
00000150: 0000 0000 0000 0000 0000 0000 0000 0000
00000160: 0000 0000 0000 0000 0000 0000 0000 0000
00000170: 0000 0000 0000 0000 0000 0000 0000 0000
00000180: 0000 0000 0000 0000 0000 0000 0000 0000
00000190: 0000 0000 0000 0000 0000 0000 0000 0000
000001a0: 0000 0000 0000 0000 0000 0000 0000 0000
000001b0: 0000 0000 0000 0000 0000 0000 0000 0000
000001c0: 0000 0000 0000 0000 0000 0000 0000 0000
000001d0: 0000 0000 0000 0000 0000 0000 0000 0000
000001e0: 0000 0000 0000 0000 0000 0000 0000 0000
000001f0: 0000 0000 0000 0000 0000 0000 0000 0000
00000200: 0000 0000 0000 0000 0000 0000 0000 0000
00000210: 0000 0000 0000 0000 0000 0000 0000 0000
00000220: 0000 0000 0000 0000 0000 0000 0000 0000
00000230: 0000 0000 0000 0000 0000 0000 0000 0000
00000240: 0000 0000 0000 0000 0000 0000 0000 0000
00000250: 0000 0000 0000 0000 0000 0000 0000 0000
00000260: 0000 0000 0000 0000 0000 0000 0000 0000
00000270: 0000 0000 0000 0000 0000 0000 0000 0000
00000280: 0000 0000 0000 0000 0000 0000 0000 0000
00000290: 0000 0000 0000 0000 0000 0000 0000 0000
000002a0: 0000 0000 0000 0000 0000 0000 0000 0000
000002b0: 0000 0000 0000 0000 0000 0000 0000 0000
000002c0: 0000 0000 0000 0000 0000 0000 0000 0000
000002d0: 0000 0000 0000 0000 0000 0000 0000 0000
000002e0: 0000 0000 0000 0000 0000 0000 0000 0000
000002f0: 0000 0000 0000 0000 0000 0000 0000 0000
00000300: 0000 0000 0000 0000 0000 0000 0000 0000
00000310: 0000 0000 0000 0000 0000 0000 0000 0000
00000320: 0000 0000 0000 0000 0000 0000 0000 0000
00000330: 0000 0000 0000 0000 0000 0000 0000 0000
00000340: 0000 0000 0000 0000 0000 0000 0000 0000
00000350: 0000 0000 0000 0000 0000 0000 0000 0000
00000360: 0000 0000 0000 0000 0000 0000 0000 0000
00000370: 0000 0000 0000 0000 0000 0000 0000 0000
00000380: 0000 0000 0000 0000 0000 0000 0000 0000
00000390: 0000 0000 0000 0000 0000 0000 0000 0000
000003a0: 0000 0000 0000 0000 0000 0000 0000 0000
000003b0: 0000 0000 0000 0000 0000 0000 0000 0000
000003c0: 0000 0000 0000 0000 0000 0000 0000 0000
000003d0: 0000 0000 0000 0000 0000 0000 0000 0000
000003e0: 0000 0000 0000 0000 0000 0000 0000 0000
000003f0: 0000 0000 0000 0000 0000 0000 0000 0000
0.0 0.0 0.0 0.0 0.0 0.0 0.0 0.0
0.0 0.0 0.0 0.0 0.0 0.0 0.0 0.0
0.0 0.0 0.0 0.0 0.0 0.0 0.0 0.0
0.0 0.0 0.0 0.0 0.0 0.0 0.0 0.0
0.0 0.0 0.0 0.0 0.0 0.0 0.0 0.0
0.0 0.0 0.0 0.0 0.0 0.0 0.0 0.0
0.0 0.0 0.0 0.0 0.0 0.0 0.0 0.0
0.0 0.0 0.0 0.0 0.0 0.0 0.0 0.0
0.0 0.0 0.0 0.0 0.0 0.0 0.0 0.0
0.0 0.0 0.0 0.0 0.0 0.0 0.0 0.0
0.0 0.0 0.0 0.0 0.0 0.0 0.0 0.0
0.0 0.0 0.0 0.0 0.0 0.0 0.0 0.0
0.0 0.0 0.0 0.0 0.0 0.0 0.0 0.0
0.0 0.0 0.0 0.0 0.0 0.0 0.0 0.0
0.0 0.0 0.0 0.0 0.0 0.0 0.0 0.0
0.0 0.0 0.0 0.0 0.0 0.0 0.0 0.0
0.0 0.0 0.0 0.0 0.0 0.0 0.0 0.0
0.0 0.0 0.0 0.0 0.0 0.0 0.0 0.0
0.0 0.0 0.0 0.0 0.0 0.0 0.0 0.0
0.0 0.0 0.0 0.0 0.0 0.0 0.0 0.0
0.0 0.0 0.0 0.0 0.0 0.0 0.0 0.0
0.0 0.0 0.0 0.0 0.0 0.0 0.0 0.0
0.0 0.0 0.0 0.0 0.0 0.0 0.0 0.0
0.0 0.0 0.0 0.0 0.0 0.0 0.0 0.0
0.0 0.0 0.0 0.0 0.0 0.0 0.0 0.0
0.0 0.0 0.0 0.0 0.0 0.0 0.0 0.0
0.0 0.0 0.0 0.0 0.0 0.0 0.0 0.0
0.0 0.0 0.0 0.0 0.0 0.0 0.0 0.0
0.0 0.0 0.0 0.0 0.0 0.0 0.0 0.0
0.0 0.0 0.0 0.0 0.0 0.0 0.0 0.0
0.0 0.0 0.0 0.0 0.0 0.0 0.0 0.0
0.0 0.0 0.0 0.0 0.0 0.0 0.0 0.0

base.mlp.fc_h.2.weight f4 [256]
00000000: 0000 803f 0000 803f 0000 803f 0000 803f
00000010: 0000 803f 0000 803f 0000 803f 0000 803f
00000020: 0000 803f 0000 803f 0000 803f 0000 803f
00000030: 0000 803f 0000 803f 0000 803f 0000 803f
00000040: 0000 803f 0000 803f 0000 803f 0000 803f
00000050: 0000 803f 0000 803f 0000 803f 0000 803f
00000060: 0000 803f 0000 803f 0000 803f 0000 803f
00000070: 0000 803f 0000 803f 0000 803f 0000 803f
00000080: 0000 803f 0000 803f 0000 803f 0000 803f
00000090: 0000 803f 0000 803f 0000 803f 0000 803f
000000a0: 0000 803f 0000 803f 0000 803f 0000 803f
000000b0: 0000 803f 0000 803f 0000 803f 0000 803f
000000c0: 0000 803f 0000 803f 0000 803f 0000 803f
000000d0: 0000 803f 0000 803f 0000 803f 0000 803f
000000e0: 0000 803f 0000 803f 0000 803f 0000 803f
000000f0: 0000 803f 0000 803f 0000 803f 0000 803f
00000100: 0000 803f 0000 803f 0000 803f 0000 803f
00000110: 0000 803f 0000 803f 0000 803f 0000 803f
00000120: 0000 803f 0000 803f 0000 803f 0000 803f
00000130: 0000 803f 0000 803f 0000 803f 0000 803f
00000140: 0000 803f 0000 803f 0000 803f 0000 803f
00000150: 0000 803f 0000 803f 0000 803f 0000 803f
00000160: 0000 803f 0000 803f 0000 803f 0000 803f
00000170: 0000 803f 0000 803f 0000 803f 0000 803f
00000180: 0000 803f 0000 803f 0000 803f 0000 803f
00000190: 0000 803f 0000 803f 0000 803f 0000 803f
000001a0: 0000 803f 0000 803f 0000 803f 0000 803f
000001b0: 0000 803f 0000 803f 0000 803f 0000 803f
000001c0: 0000 803f 0000 803f 0000 803f 0000 803f
000001d0: 0000 803f 0000 803f 0000 803f 0000 803f
000001e0: 0000 803f 0000 803f 0000 803f 0000 803f
000001f0: 0000 803f 0000 803f 0000 803f 0000 803f
00000200: 0000 803f 0000 803f 0000 803f 0000 803f
00000210: 0000 803f 0000 803f 0000 803f 0000 803f
00000220: 0000 803f 0000 803f 0000 803f 0000 803f
00000230: 0000 803f 0000 803f 0000 803f 0000 803f
00000240: 0000 803f 0000 803f 0000 803f 0000 803f
00000250: 0000 803f 0000 803f 0000 803f 0000 803f
00000260: 0000 803f 0000 803f 0000 803f 0000 803f
00000270: 0000 803f 0000 803f 0000 803f 0000 803f
00000280: 0000 803f 0000 803f 0000 803f 0000 803f
00000290: 0000 803f 0000 803f 0000 803f 0000 803f
000002a0: 0000 803f 0000 803f 0000 803f 0000 803f
000002b0: 0000 803f 0000 803f 0000 803f 0000 803f
000002c0: 0000 803f 0000 803f 0000 803f 0000 803f
000002d0: 0000 803f 0000 803f 0000 803f 0000 803f
000002e0: 0000 803f 0000 803f 0000 803f 0000 803f
000002f0: 0000 803f 0000 803f 0000 803f 0000 803f
00000300: 0000 803f 0000 803f 0000 803f 0000 803f
00000310: 0000 803f 0000 803f 0000 803f 0000 803f
00000320: 0000 803f 0000 803f 0000 803f 0000 803f
00000330: 0000 803f 0000 803f 0000 803f 0000 803f
00000340: 0000 803f 0000 803f 0000 803f 0000 803f
00000350: 0000 803f 0000 803f 0000 803f 0000 803f
00000360: 0000 803f 0000 803f 0000 803f 0000 803f
00000370: 0000 803f 0000 803f 0000 803f 0000 803f
00000380: 0000 803f 0000 803f 0000 803f 0000 803f
00000390: 0000 803f 0000 803f 0000 803f 0000 803f
000003a0: 0000 803f 0000 803f 0000 803f 0000 803f
000003b0: 0000 803f 0000 803f 0000 803f 0000 803f
000003c0: 0000 803f 0000 803f 0000 803f 0000 803f
000003d0: 0000 803f 0000 803f 0000 803f 0000 803f
000003e0: 0000 803f 0000 803f 0000 803f 0000 803f
000003f0: 0000 803f 0000 803f 0000 803f 0000 803f
1.0 1.0 1.0 1.0 1.0 1.0 1.0 1.0
1.0 1.0 1.0 1.0 1.0 1.0 1.0 1.0
1.0 1.0 1.0 1.0 1.0 1.0 1.0 1.0
1.0 1.0 1.0 1.0 1.0 1.0 1.0 1.0
1.0 1.0 1.0 1.0 1.0 1.0 1.0 1.0
1.0 1.0 1.0 1.0 1.0 1.0 1.0 1.0
1.0 1.0 1.0 1.0 1.0 1.0 1.0 1.0
1.0 1.0 1.0 1.0 1.0 1.0 1.0 1.0
1.0 1.0 1.0 1.0 1.0 1.0 1.0 1.0
1.0 1.0 1.0 1.0 1.0 1.0 1.0 1.0
1.0 1.0 1.0 1.0 1.0 1.0 1.0 1.0
1.0 1.0 1.0 1.0 1.0 1.0 1.0 1.0
1.0 1.0 1.0 1.0 1.0 1.0 1.0 1.0
1.0 1.0 1.0 1.0 1.0 1.0 1.0 1.0
1.0 1.0 1.0 1.0 1.0 1.0 1.0 1.0
1.0 1.0 1.0 1.0 1.0 1.0 1.0 1.0
1.0 1.0 1.0 1.0 1.0 1.0 1.0 1.0
1.0 1.0 1.0 1.0 1.0 1.0 1.0 1.0
1.0 1.0 1.0 1.0 1.0 1.0 1.0 1.0
1.0 1.0 1.0 1.0 1.0 1.0 1.0 1.0
1.0 1.0 1.0 1.0 1.0 1.0 1.0 1.0
1.0 1.0 1.0 1.0 1.0 1.0 1.0 1.0
1.0 1.0 1.0 1.0 1.0 1.0 1.0 1.0
1.0 1.0 1.0 1.0 1.0 1.0 1.0 1.0
1.0 1.0 1.0 1.0 1.0 1.0 1.0 1.0
1.0 1.0 1.0 1.0 1.0 1.0 1.0 1.0
1.0 1.0 1.0 1.0 1.0 1.0 1.0 1.0
1.0 1.0 1.0 1.0 1.0 1.0 1.0 1.0
1.0 1.0 1.0 1.0 1.0 1.0 1.0 1.0
1.0 1.0 1.0 1.0 1.0 1.0 1.0 1.0
1.0 1.0 1.0 1.0 1.0 1.0 1.0 1.0
1.0 1.0 1.0 1.0 1.0 1.0 1.0 1.0

base.mlp.fc_h.2.bias f4 [256]
00000000: 0000 0000 0000 0000 0000 0000 0000 0000
00000010: 0000 0000 0000 0000 0000 0000 0000 0000
00000020: 0000 0000 0000 0000 0000 0000 0000 0000
00000030: 0000 0000 0000 0000 0000 0000 0000 0000
00000040: 0000 0000 0000 0000 0000 0000 0000 0000
00000050: 0000 0000 0000 0000 0000 0000 0000 0000
00000060: 0000 0000 0000 0000 0000 0000 0000 0000
00000070: 0000 0000 0000 0000 0000 0000 0000 0000
00000080: 0000 0000 0000 0000 0000 0000 0000 0000
00000090: 0000 0000 0000 0000 0000 0000 0000 0000
000000a0: 0000 0000 0000 0000 0000 0000 0000 0000
000000b0: 0000 0000 0000 0000 0000 0000 0000 0000
000000c0: 0000 0000 0000 0000 0000 0000 0000 0000
000000d0: 0000 0000 0000 0000 0000 0000 0000 0000
000000e0: 0000 0000 0000 0000 0000 0000 0000 0000
000000f0: 0000 0000 0000 0000 0000 0000 0000 0000
00000100: 0000 0000 0000 0000 0000 0000 0000 0000
00000110: 0000 0000 0000 0000 0000 0000 0000 0000
00000120: 0000 0000 0000 0000 0000 0000 0000 0000
00000130: 0000 0000 0000 0000 0000 0000 0000 0000
00000140: 0000 0000 0000 0000 0000 0000 0000 0000
00000150: 0000 0000 0000 0000 0000 0000 0000 0000
00000160: 0000 0000 0000 0000 0000 0000 0000 0000
00000170: 0000 0000 0000 0000 0000 0000 0000 0000
00000180: 0000 0000 0000 0000 0000 0000 0000 0000
00000190: 0000 0000 0000 0000 0000 0000 0000 0000
000001a0: 0000 0000 0000 0000 0000 0000 0000 0000
000001b0: 0000 0000 0000 0000 0000 0000 0000 0000
000001c0: 0000 0000 0000 0000 0000 0000 0000 0000
000001d0: 0000 0000 0000 0000 0000 0000 0000 0000
000001e0: 0000 0000 0000 0000 0000 0000 0000 0000
000001f0: 0000 0000 0000 0000 0000 0000 0000 0000
00000200: 0000 0000 0000 0000 0000 0000 0000 0000
00000210: 0000 0000 0000 0000 0000 0000 0000 0000
00000220: 0000 0000 0000 0000 0000 0000 0000 0000
00000230: 0000 0000 0000 0000 0000 0000 0000 0000
00000240: 0000 0000 0000 0000 0000 0000 0000 0000
00000250: 0000 0000 0000 0000 0000 0000 0000 0000
00000260: 0000 0000 0000 0000 0000 0000 0000 0000
00000270: 0000 0000 0000 0000 0000 0000 0000 0000
00000280: 0000 0000 0000 0000 0000 0000 0000 0000
00000290: 0000 0000 0000 0000 0000 0000 0000 0000
000002a0: 0000 0000 0000 0000 0000 0000 0000 0000
000002b0: 0000 0000 0000 0000 0000 0000 0000 0000
000002c0: 0000 0000 0000 0000 0000 0000 0000 0000
000002d0: 0000 0000 0000 0000 0000 0000 0000 0000
000002e0: 0000 0000 0000 0000 0000 0000 0000 0000
000002f0: 0000 0000 0000 0000 0000 0000 0000 0000
00000300: 0000 0000 0000 0000 0000 0000 0000 0000
00000310: 0000 0000 0000 0000 0000 0000 0000 0000
00000320: 0000 0000 0000 0000 0000 0000 0000 0000
00000330: 0000 0000 0000 0000 0000 0000 0000 0000
00000340: 0000 0000 0000 0000 0000 0000 0000 0000
00000350: 0000 0000 0000 0000 0000 0000 0000 0000
00000360: 0000 0000 0000 0000 0000 0000 0000 0000
00000370: 0000 0000 0000 0000 0000 0000 0000 0000
00000380: 0000 0000 0000 0000 0000 0000 0000 0000
00000390: 0000 0000 0000 0000 0000 0000 0000 0000
000003a0: 0000 0000 0000 0000 0000 0000 0000 0000
000003b0: 0000 0000 0000 0000 0000 0000 0000 0000
000003c0: 0000 0000 0000 0000 0000 0000 0000 0000
000003d0: 0000 0000 0000 0000 0000 0000 0000 0000
000003e0: 0000 0000 0000 0000 0000 0000 0000 0000
000003f0: 0000 0000 0000 0000 0000 0000 0000 0000
0.0 0.0 0.0 0.0 0.0 0.0 0.0 0.0
0.0 0.0 0.0 0.0 0.0 0.0 0.0 0.0
0.0 0.0 0.0 0.0 0.0 0.0 0.0 0.0
0.0 0.0 0.0 0.0 0.0 0.0 0.0 0.0
0.0 0.0 0.0 0.0 0.0 0.0 0.0 0.0
0.0 0.0 0.0 0.0 0.0 0.0 0.0 0.0
0.0 0.0 0.0 0.0 0.0 0.0 0.0 0.0
0.0 0.0 0.0 0.0 0.0 0.0 0.0 0.0
0.0 0.0 0.0 0.0 0.0 0.0 0.0 0.0
0.0 0.0 0.0 0.0 0.0 0.0 0.0 0.0
0.0 0.0 0.0 0.0 0.0 0.0 0.0 0.0
0.0 0.0 0.0 0.0 0.0 0.0 0.0 0.0
0.0 0.0 0.0 0.0 0.0 0.0 0.0 0.0
0.0 0.0 0.0 0.0 0.0 0.0 0.0 0.0
0.0 0.0 0.0 0.0 0.0 0.0 0.0 0.0
0.0 0.0 0.0 0.0 0.0 0.0 0.0 0.0
0.0 0.0 0.0 0.0 0.0 0.0 0.0 0.0
0.0 0.0 0.0 0.0 0.0 0.0 0.0 0.0
0.0 0.0 0.0 0.0 0.0 0.0 0.0 0.0
0.0 0.0 0.0 0.0 0.0 0.0 0.0 0.0
0.0 0.0 0.0 0.0 0.0 0.0 0.0 0.0
0.0 0.0 0.0 0.0 0.0 0.0 0.0 0.0
0.0 0.0 0.0 0.0 0.0 0.0 0.0 0.0
0.0 0.0 0.0 0.0 0.0 0.0 0.0 0.0
0.0 0.0 0.0 0.0 0.0 0.0 0.0 0.0
0.0 0.0 0.0 0.0 0.0 0.0 0.0 0.0
0.0 0.0 0.0 0.0 0.0 0.0 0.0 0.0
0.0 0.0 0.0 0.0 0.0 0.0 0.0 0.0
0.0 0.0 0.0 0.0 0.0 0.0 0.0 0.0
0.0 0.0 0.0 0.0 0.0 0.0 0.0 0.0
0.0 0.0 0.0 0.0 0.0 0.0 0.0 0.0
0.0 0.0 0.0 0.0 0.0 0.0 0.0 0.0
