Training_Parameter_Storage/0517/hd003formthres_5v1_vel0108_collide_001/critic_prey.pt (torch, 829249 bytes, 19 tensors)

base.feature_norm.weight f4 [22]
1.0037806 0.98013526 0.99805284 0.99478763 0.98126817 0.96782976 0.9871398 0.9929768
1.024514 0.99902993 0.96117383 0.9923591 1.0773463 1.0611547 0.98173875 0.9944647
0.97976047 0.9742995 0.98759246 0.98150545 0.9766215 0.9728612
00000000: e27b 803f 25ea 7a3f 6480 7f3f 67aa 7e3f
00000010: 6434 7b3f b1c3 773f 32b5 7c3f ba33 7e3f
00000020: 4623 833f 6dc0 7f3f 7d0f 763f 3f0b 7e3f
00000030: 7ce6 893f ebd3 873f 3b53 7b3f 3d95 7e3f
00000040: 95d1 7a3f b16b 793f dcd2 7c3f f143 7b3f
00000050: de03 7a3f 6e0d 793f

base.feature_norm.bias f4 [22]
0.0070611485 -0.0016440044 0.000703276 0.02551093 0.02535981 -0.013613852 0.020419905 -0.007285737
0.017937284 0.028736103 0.028660163 0.002597738 -0.004715915 -0.040148493 0.0031583786 0.0027414467
0.009728676 -0.0009377607 -0.020487817 0.009156758 0.015298901 -0.011059119
00000000: 3561 e73b a27b d7ba 0e5c 383a 4cfc d03c
00000010: 60bf cf3c a20c 5fbc a547 a73c 31bd eebb
00000020: 36f1 923c fa67 eb3c b8c8 ea3c d03e 2a3b
00000030: f687 9abb bf72 24bd cdfc 4e3b d8a9 333b
00000040: 0665 1f3c 0ed4 75ba 11d6 a7bc 3a06 163c
00000050: 3ea8 7a3c 4f31 35bc

base.mlp.fc1.0.weight f4 [256, 22]
-0.120567776 -0.04403699 0.05241643 -0.09780173 0.022213921 0.056414302 -0.05398569 0.008593701
-0.05748018 -0.109580584 0.013140322 0.0011419134 0.014316419 -0.056290008 -0.042703032 0.0542292
0.015970182 -0.112778865 0.053350553 -0.055077072 0.05290257 0.060819007 0.12465374 -0.004151563
0.023504632 0.13598222 0.04521224 0.108064026 -0.08209119 -0.082031384 -0.036760252 0.03236423
0.01877423 0.10578793 0.04569273 0.0023750858 -0.025214626 -0.10170883 -0.096152134 -0.03879951
0.0036228227 0.15760675 -0.14384632 0.08416887 0.05433778 0.012370169 -0.06554496 0.0394754
0.13299826 -0.21890172 0.03433288 -0.0070599467 -0.01792643 -0.11528542 0.0397621 -0.035276487
-0.12638982 -0.056178074 0.043219414 -0.011342245 0.030949155 -0.01943195 0.029033896 0.17774981
0.012353138 0.05141011 0.014767972 0.04915253 -0.14997353 0.058105595 0.033196453 0.028567383
-0.033414945 -0.14986998 -0.033462018 -0.07080458 0.061162237 0.016139658 0.067286424 -0.06899179
0.11284383 -0.015339884 0.052588724 0.113189064 -0.08994148 0.041139286 -0.0056842607 0.049519245
-0.014970782 0.069037296 0.08023985 0.07723306 -0.13344392 0.11850137 0.031289782 -0.041546028
-0.012665079 -0.1625445 0.056890182 -0.094830535 0.093127675 -0.088806786 0.022713806 0.08861647
0.106180996 0.06498812 0.06918553 -0.014054116 -0.0071538617 0.030210145 -0.13988957 0.08175139
-0.0037483133 -0.0038766246 0.0006870562 0.073597975 -0.16004463 0.06421689 -0.11523342 0.024979642
-0.018629974 0.055043127 -0.05710525 -0.090425864 -0.0037998487 -0.10394294 0.06227789 0.072314516
-0.06661532 -0.049413383 0.0014667052 0.016452655 -0.10927316 -0.09137462 -0.0017703457 0.04006918
0.0061945645 0.07321315 0.11087028 0.039187513 0.0951814 -0.02921552 0.0051929737 -0.018704921
-0.062309146 0.07080668 -0.1256009 0.02836696 -0.140744 -0.18313454 0.036772445 0.078468524
-0.014806163 0.057140213 -0.06584615 0.014444484 -0.012043286 -0.033479605 0.0028409525 -0.072919756
-0.038860273 0.0063884966 -0.14497298 -0.00106219 -0.022375267 -0.08592823 0.10520236 -0.047631104
0.118806414 -0.14627694 0.024402034 -0.22394621 -0.06790766 0.072207965 0.07328761 0.076813586
-0.056372017 -0.033844054 0.028301504 0.052505746 -0.033627857 0.046472285 -0.105809845 0.024726653
-0.08671372 0.0820252 -0.14011736 -0.055043556 0.09525941 0.023483131 0.0038304352 -0.100517884
-0.033317685 -0.06209575 -0.09104441 -0.08925513 -0.11008517 -0.22784959 0.13224031 -0.01730129
0.060217876 -0.06019538 -0.0379777 -0.025549445 -0.008667207 -0.04880562 -0.1795083 -0.106544666
0.020881847 0.030351598 0.053547647 0.12755218 0.110012256 -0.049064696 0.0211376 0.18371099
-0.009360743 -0.056432188 -0.03671008 0.037653714 0.026675072 -0.08046757 -0.057978902 0.123864196
-0.015379795 0.02473581 0.01683785 -0.027359916 -0.08878798 -0.075774044 0.059216186 0.032415275
0.03041809 -0.16411835 0.09336482 -0.0633915 0.038436767 -0.09882178 0.10055102 0.15655723
-0.026848303 0.07851244 0.017498506 -0.12784994 -0.14948153 0.11304455 0.18360844 -0.01027762
-0.031163972 0.09103105 -0.18695277 -0.14175537 0.026891133 -0.060491364 -0.08706295 0.03997908
00000000: 3dec f6bd 2160 34bd 9cb2 563d 464c c8bd
00000010: f8f9 b53c af12 673d 1920 5dbd 98cc 0c3c
00000020: 5670 6bbd c96b e0bd 814a 573c 41ac 953a
00000030: 6a8f 6a3c 5a90 66bd 60e9 2ebd 701f 5e3d
00000040: e6d3 823c 9bf8 e6bd 1c86 5a3d 7f98 61bd
00000050: 5eb0 583d 5a1d 793d 764a ff3d d609 88bb
00000060: c98c c03c ec3e 0b3e 7830 393d ac50 dd3d
00000070: 6d1f a8bd 1200 a8bd eb91 16bd 5b90 043d
00000080: 6acc 993c 58a7 d83d 4d28 3b3d 54a7 1b3b
00000090: e78e cebc b84c d0bd 69eb c4bd 3cec 1ebd
000000a0: e16c 6d3b aa63 213e 734c 13be ba60 ac3d
000000b0: 4b91 5e3d 40ac 4a3c 703c 86bd f5b0 213d
000000c0: b230 083e c627 60be a2a0 0c3d 2057 e7bb
000000d0: 73da 92bc c31a ecbd 95dd 223d 147e 10bd
000000e0: 556c 01be fb1a 66bd d706 313d d3d4 39bc
000000f0: 1589 fd3c c12f 9fbc 7ed8 ed3c 0c04 363e
00000100: d164 4a3c 6893 523d 5df5 713c 2a54 493d
00000110: a992 19be 2200 6e3d 01f9 073d 2506 ea3c
00000120: 1cde 08bd 8477 19be 780f 09bd fe01 91bd
00000130: 4185 7a3d 5137 843c 77cd 893d 914b 8dbd
00000140: aa1a e73d 2354 7bbc 4667 573d abcf e73d
00000150: 3d33 b8bd ab81 283d 0943 babb b1d4 4a3d
00000160: 0348 75bc 6d63 8d3d ca54 a43d 5e2c 9e3d
00000170: 86a5 08be d9b0 f23d b729 003d 2b2c 2abd
00000180: 3181 4fbc 1172 26be ae05 693d 8336 c2bd
00000190: b9b9 be3d 55e0 b5bd 4e12 ba3c 8d7c b53d
000001a0: 6c75 d93d 7e18 853d 25b1 8d3d 3c43 66bc
000001b0: f16a eabb 447b f73c 363f 0fbe 466d a73d
000001c0: 43a6 75bb f80e 7ebb 901b 343a 89ba 963d
000001d0: bde2 23be 2584 833d 80ff ebbd 1ba2 cc3c
000001e0: e39d 98bc e774 613d 32e7 69bd 3231 b9bd
000001f0: e206 79bb 09e0 d4bd 1a17 7f3d a219 943d
00000200: 9d6d 88bd b065 4abd 763e c03a b8c7 863c
00000210: 9bca dfbd 9e22 bbbd f20a e8ba 951f 243d
00000220: c6fb ca3b c7f0 953d f50f e33d 1683 203d
00000230: 77ee c23d 6355 efbc d229 aa3b 103b 99bc
00000240: e037 7fbd 1803 913d 869d 00be d461 e83c
00000250: 321f 10be 9f87 3bbe b49e 163d 1bb4 a03d
00000260: 8c95 72bc db0b 6a3d 59da 86bd 8fa8 6c3c
00000270: 3451 45bc e921 09bd 462f 3a3b f456 95bd
00000280: f32b 1fbd 9856 d13b cc73 14be 2f39 8bba
00000290: 564c b7bc 24fb afbd 5674 d73d d518 43bd
000002a0: c750 f33d 9fc9 15be c6e6 c73c 2852 65be
000002b0: 2c13 8bbd c5e1 933d d117 963d 7150 9d3d
000002c0: 58e6 66bd 10a0 0abd 8ed8 e73c 4410 573d
000002d0: 5dbd 09bd b959 3e3d d5b2 d8bd 8d8f ca3c
000002e0: f696 b1bd d4fc a73d ed7a 0fbe 5a75 61bd
000002f0: 5e17 c33d b25f c03c 0a08 7b3b 52dc cdbd
00000300: 2078 08bd 1d58 7ebd 7e75 babd 65cb b6bd
00000310: 5574 e1bd 6751 69be 016a 073e 6fbb 8dbc
00000320: 05a7 763d 6e8f 76bd 818e 1bbd 124d d1bc
00000330: e700 0ebc 67e8 47bd 06d1 37be 1734 dabd
00000340: 6810 ab3c eaa3 f83c c754 5b3d 0a9d 023e
00000350: 1b4e e13d 10f8 48bd c328 ad3c bc1e 3c3e
00000360: cd5d 19bc 7025 67bd 4f5d 16bd c83a 1a3d
00000370: ae85 da3c 2ecc a4bd 497b 6dbd 83ac fd3d
00000380: 89fb 7bbc c1a2 ca3c 88ef 893c e721 e0bc
00000390: 79d6 b5bd 6c2f 9bbd ac8c 723d e1c5 043d
000003a0: 5c2f f93c a40e 28be 0e36 bf3d 67d3 81bd
000003b0: df6f 1d3d 1363 cabd b1ed cd3d 8a50 203e
000003c0: f9f0 dbbc 21cb a03d 0759 8f3c 18eb 02be
000003d0: b011 19be e783 e73d da03 3c3e 7663 28bc
000003e0: 964b ffbc 7d6e ba3d 8c70 3fbe 5228 11be
000003f0: cb4a dc3c cbc5 77bd 0f4e b2bd 1bc1 233d

base.mlp.fc1.0.bias f4 [256]
-0.018951572 -0.008144449 0.019464526 0.005253249 -0.0046208734 0.0077670147 -0.0009255043 0.0023836235
0.008178265 -0.0061946986 0.024081629 -0.0009940694 -0.010933536 0.007813859 0.0066739665 0.023277715
-0.00076402095 -0.02155017 0.006151539 -0.0043220427 -0.008016467 -0.020591766 -0.015035164 0.01506557
-0.004794159 -0.0074096858 0.019768713 0.0104116555 0.014617285 0.012711114 -0.006997836 -0.005322664
0.006538385 -0.007845933 -0.0007654677 -0.009704515 0.021211438 -0.0011870149 -0.0012535861 -0.014637384
0.014158077 0.0072512003 0.01876403 -0.017357107 -0.009499607 -0.0066432836 0.0057758223 0.0030870915
-0.00990669 0.008998413 0.013808424 0.025643919 0.003760308 0.02817478 0.024080046 -0.002070626
0.024194144 -0.0041879844 0.006111766 0.00039595974 0.026001269 -0.0077693695 0.0030734173 -0.0017343132
-0.024488209 -0.022897778 0.02337454 0.0035351908 0.01358055 -0.0072415126 -0.024794018 4.4019842e-05
0.014628356 -0.004954998 0.0017832558 0.02622446 -0.0051636277 -0.0054058596 0.017362313 -0.008638724
-0.0016638885 -0.005982111 0.024115378 0.003202345 0.0064510927 0.0058719157 -0.0049953726 0.0024910334
0.0049790367 0.0062037166 -0.00018686958 -0.019093845 -0.007972804 -0.01921351 0.0056070667 -0.00583912
-0.005239088 0.015241831 0.016045278 -0.0018775826 0.01230256 0.029555291 -0.012934834 0.0041670473
0.007289337 -0.013665951 -0.0032189419 -0.008240317 0.004322056 0.0036030326 0.004827042 -0.014155361
-0.012822854 -0.015962116 0.017259888 0.019154014 -0.005156063 -0.02234694 0.023627266 -0.010918301
0.014765161 0.002646158 -0.01093067 0.021922002 0.011483218 0.0023225753 -0.0028947436 0.0086080665
0.004693582 0.0038819835 0.016582789 0.0035698824 0.009272548 0.016930742 -0.008981024 -0.0008281552
0.0123624345 0.01591692 0.0103601245 -0.0065712794 0.0055678803 0.009737057 0.025538646 0.013235208
-0.015891606 0.006253375 -0.0027935526 -0.011103946 -0.001982171 0.006114268 -0.0065419483 -0.0032228217
-0.009677457 0.017500315 -0.014306259 0.005948347 -0.0028489488 0.023979431 -0.00066922 0.0032309033
0.001536325 -0.0019219491 0.010439797 0.014755937 0.0003846102 0.024456132 0.00914853 -0.0100393435
0.014338166 -0.008150444 0.018551609 -0.001263662 0.001680595 0.007064995 0.018126093 -0.011054747
0.00820865 -0.017231956 -0.00568969 -0.013262684 0.011318916 0.006570178 -0.007985743 -0.01337816
0.0113659855 0.026885541 0.003560148 -0.021771196 0.037947968 0.020140713 -0.0060334653 -0.006579388
0.005678354 0.0052387337 0.015840625 -0.00015146748 0.0045912387 -0.00028697876 0.011754215 0.005272354
0.030975608 0.0236343 -0.0031614392 0.0037642156 -0.0031024676 0.006324555 0.013446995 0.007241146
-0.0062402757 0.024458721 0.02444231 -0.006391596 0.014036782 0.019215193 -0.015838545 -0.0010995592
-0.013427705 0.037938938 0.02889745 0.02888197 -0.012068337 0.012485524 0.0070495694 0.010800265
-0.007255065 0.00825448 0.00676136 0.01050919 0.0092012845 0.00036187007 0.014318442 0.03762468
0.006061321 0.009173583 -0.005003863 -0.017797956 9.930443e-05 -0.00791566 -0.0060131266 -0.014124405
-0.029521963 -0.0056796093 0.007385343 -0.018097952 -0.019762708 0.016499972 -0.00072435907 -0.005984471
-0.0057473755 -0.007705298 0.005207425 0.0028322542 0.011841475 -0.01939708 -0.001268323 0.015105922
00000000: 5440 9bbc 4c70 05bc 1274 9f3c 7223 ac3b
00000010: b26a 97bb 7182 fe3b 8b9d 72ba 9136 1c3b
00000020: 21fe 053c e6fc cabb d646 c53c 6f4b 82ba
00000030: 9322 33bc b305 003c 4ab1 da3b e8b0 be3c
00000040: 9448 48ba fb89 b0bc d992 c93b ec9f 8dbb
00000050: 8057 03bc 10b0 a8bc 0c56 76bc 95d5 763c
00000060: 5218 9dbb f3cc f2bb fff1 a13c a695 2a3c
00000070: 567d 6f3c 4742 503c 1a4e e5bb be69 aebb
00000080: f33f d63b 3a8c 00bc aba9 48ba b0ff 1ebc
00000090: 9cc3 ad3c 9c95 9bba 5f4f a4ba a3d1 6fbc
000000a0: 47f7 673c 7a9b ed3b 06b7 993c 7e30 8ebc
000000b0: 3da4 1bbc e7af d9bb 1c43 bd3b cd50 4a3b
000000c0: ab4f 22bc 146e 133c ba3c 623c 3213 d23c
000000d0: 806f 763b ccce e63c 8443 c53c 57b3 07bb
000000e0: cc32 c63c 5c3b 89bb 3645 c83b d198 cf39
000000f0: 9d00 d53c 3296 febb 636b 493b e551 e3ba
00000100: 7f9b c8bc 1f94 bbbc f77b bf3c a9ae 673b
00000110: f580 5e3c 364a edbb d31c cbbc f2a1 3838
00000120: c6ab 6f3c 895d a2bb 23bc e93a aed4 d63c
00000130: a633 a9bb a323 b1bb 693b 8e3c 6f89 0dbc
00000140: d516 daba 9605 c4bb 9d8d c53c 6fde 513b
00000150: b063 d33b 3369 c03b 39b0 a3bb 9b40 233b
00000160: 3027 a33b 8c48 cb3b 6cf2 43b9 b26a 9cbc
00000170: 5da0 02bc a765 9dbc 7cbb b73b 1756 bfbb
00000180: a8ac abbb dfb8 793c 6371 833c 3819 f6ba
00000190: ad90 493c f01d f23c a0ec 53bc ba8b 883b
000001a0: 64db ee3b 27e7 5fbc e2f4 52bb 6502 07bc
000001b0: 09a0 8d3b db20 6c3b 2a2c 9e3b e3eb 67bc
000001c0: f316 52bc fcc2 82bc 9c64 8d3c e1e8 9c3c
000001d0: 31f4 a8bb ee10 b7bc f88d c13c ace2 32bc
000001e0: 93e9 713c 2a6b 2d3b 8e16 33bc c595 b33c
000001f0: 1b24 3c3c 5936 183b bdb5 3dbb d908 0d3c
00000200: 9fcc 993b e068 7e3b a1d8 873c b0f4 693b
00000210: e3eb 173c 57b2 8a3c 2525 13bc 8e18 59ba
00000220: cf8b 4a3c 3364 823c 83bd 293c e353 d7bb
00000230: c472 b63b 2d88 1f3c 6c36 d13c 7cd8 583c
00000240: 1d2f 82bc 1de9 cc3b 0914 37bb 53ed 35bc
00000250: 50e7 01bb 335a c83b d75d d6bb fa35 53bb
00000260: 328e 1ebc d25c 8f3c cd64 6abc 5aea c23b
00000270: 6eb5 3abb 8370 c43c 986e 2fba 90bd 533b
00000280: 835e c93a e9e9 fbba af0b 2b3c e3c2 713c
00000290: 82a5 c939 3a58 c83c b7e3 153c 0f7c 24bc
000002a0: a1ea 6a3c 7189 05bc 8bf9 973c 76a1 a5ba
000002b0: 6947 dc3a 7981 e73b 2c7d 943c f81e 35bc
000002c0: 937d 063c 082a 8dbc 9470 babb bb4b 59bc
000002d0: fa72 393c a64a d73b a2d6 02bc 1230 5bbc
000002e0: 6638 3a3c 113f dc3c 5f51 693b 8259 b2bc
000002f0: 546f 1b3d 23fe a43c 60b4 c5bb e897 d7bb
00000300: 7c11 ba3b afa9 ab3b 33c4 813c 3ed3 1eb9
00000310: 1a72 963b a375 96b9 c094 403c b6c3 ac3b
00000320: 8fc0 fd3c b89c c13c 2630 4fbb 0fb1 763b
00000330: c552 4bbb 363e cf3b c950 5c3c 2347 ed3b
00000340: 3a7b ccbb a85d c83c 3d3b c83c 9870 d1bb
00000350: 88fa 653c 2e69 9d3c d6bf 81bc 161f 90ba
00000360: e0ff 5bbc dc65 1b3d 58ba ec3c e299 ec3c
00000370: 46ba 45bc 1590 4c3c 1300 e73b 98f3 303c
00000380: e5bb edbb cc3d 073c 668e dd3b bd2e 2c3c
00000390: fcc0 163c 61b9 bd39 e697 6a3c 561c 1a3d
000003a0: 0c9e c63b cc4c 163c 72f7 a3bb 05cd 91bc
000003b0: a941 d038 afb0 01bc c309 c5bb 0c6a 67bc
000003c0: 0bd8 f1bc 041c babb bf00 f23b 2842 94bc
000003d0: 67e5 a1bc f32a 873c eae2 3dba 6219 c4bb
000003e0: 7b54 bcbb b97c fcbb 0ca3 aa3b 579d 393b
000003f0: bf02 423c a0e6 9ebc dc3d a6ba d47e 773c

base.mlp.fc1.2.weight f4 [256]
1.0165848 0.9725944 1.0118045 1.0047345 0.9931707 0.9848026 1.0177598 0.99084634
1.0230502 1.0097275 1.0017806 0.9856718 0.9866746 1.0074567 1.0116577 1.0076447
0.99668705 1.0041989 0.9968711 0.9959226 1.0080209 0.987605 1.0009718 1.0153314
0.99716085 1.0059128 0.9929814 0.98354733 0.9876818 1.0002027 0.9873899 0.9811121
0.99602765 1.0120319 0.997603 0.99369675 1.0101689 1.0023777 1.0122294 0.99000484
0.99912024 1.0029331 1.0173047 0.9987459 0.99687415 1.0076325 1.0026778 0.9921429
0.9934955 0.98816395 0.9978413 1.0031767 0.99626803 1.0133915 0.9969746 0.99444455
0.99479854 1.0011383 1.0026077 0.99801856 1.0128523 0.9939613 1.0031927 1.0032369
1.0105608 1.0003871 1.00861 0.9930421 1.0080042 1.0160193 1.0055069 1.0067654
1.0123136 0.99924564 0.99220073 1.0091423 0.9872506 0.9914714 1.0118178 0.9979427
0.99970895 0.9992238 1.02537 0.99282885 0.9934183 1.0067946 1.026714 1.0129948
0.98526007 0.99480027 1.006025 1.0115923 0.9920115 1.0077721 0.99295706 1.0005592
1.0028225 0.9968781 0.9985446 1.0055691 1.0125252 1.0119815 1.0054824 0.99542725
1.00065 0.9914665 0.99686813 0.9994644 1.0028414 0.98378855 1.0022068 1.0109744
0.98037225 1.0215862 1.0280192 1.0005984 0.9952237 1.0022292 1.0025359 0.9914292
0.9930945 0.9923442 0.9853219 1.0284032 1.0092306 0.9887527 0.9966016 1.0012461
1.0076945 0.9924445 1.015998 1.0033153 1.0018938 1.0051388 1.0006535 0.9957873
0.99267036 0.9811111 0.9966696 0.99098665 1.0050006 0.97701865 1.0107707 1.0172954
0.9931724 0.99446094 1.0019046 0.9830498 1.0127217 0.99305445 0.99436647 1.0024464
0.9973516 1.0034117 0.9940674 1.0055375 1.000469 1.0060282 0.99957216 1.0048243
0.9981721 1.0063312 0.99038935 1.00253 0.98961365 1.0063101 1.0028894 0.9938936
1.0018225 0.99902314 1.0122898 0.9981558 0.9933282 0.98995686 0.9964655 0.98972446
1.0065511 0.99703974 0.9853043 1.004646 0.99623454 0.99301636 0.99149626 0.9900962
1.0178177 1.0012542 0.9994541 0.9884412 1.0157927 1.0168049 0.9996178 1.0059294
0.9969293 1.0182694 0.9994214 0.9891787 0.99739736 0.99534124 0.99646926 1.0025194
1.0158553 1.0071443 0.99254924 0.9880844 0.982924 1.004161 1.0037917 1.0041028
1.0053777 0.9984231 1.0070394 1.0122104 0.99880904 1.0137715 0.99794275 0.9929667
0.9893949 1.0032893 0.98510873 1.0215234 1.0041327 0.9984036 1.0031183 0.99708366
1.0095507 1.0040437 1.007632 0.99883324 1.0095243 0.9964493 1.001335 1.013728
0.9923001 1.0036857 1.0014786 0.9806209 0.99058807 0.99598616 0.98961604 0.9993637
0.99129725 1.0053234 0.9940452 0.9948957 0.9843395 0.9945279 0.9953399 1.0026932
0.9994283 0.9900292 0.99598354 0.98746735 1.022793 0.98753774 0.9933195 0.9985818
00000000: 731f 823f f2fb 783f cf82 813f 249b 803f
00000010: 6f40 7e3f 061c 7c3f f445 823f 1ba8 7d3f
00000020: 4ff3 823f c03e 813f 593a 803f fd54 7c3f
00000030: b596 7c3f 57f4 803f 007e 813f 80fa 803f
00000040: e226 7f3f 9789 803f f232 7f3f c9f4 7e3f
00000050: d406 813f aed3 7c3f d81f 803f 61f6 813f
00000060: ef45 7f3f c0c1 803f 0734 7e3f c2c9 7b3f
00000070: b7d8 7c3f a406 803f 96c5 7c3f 2a2a 7b3f
00000080: abfb 7e3f 438a 813f e962 7f3f e962 7e3f
00000090: 374d 813f ea4d 803f bc90 813f f570 7d3f
000000a0: 58c6 7f3f 1d60 803f 0a37 823f d0ad 7f3f
000000b0: 2533 7f3f 1afa 803f bf57 803f 14fd 7d3f
000000c0: b955 7e3f 50f8 7c3f 8772 7f3f 1868 803f
000000d0: 6c0b 7f3f d0b6 813f ba39 7f3f eb93 7e3f
000000e0: 1eab 7e3f 4d25 803f 7355 803f 257e 7f3f
000000f0: 25a5 813f 3f74 7e3f 9e68 803f 116a 803f
00000100: 0e5a 813f af0c 803f 221a 813f 0238 7e3f
00000110: 4806 813f ec0c 823f 73b4 803f b0dd 803f
00000120: 7e93 813f 90ce 7f3f de00 7e3f 932b 813f
00000130: 75bc 7c3f 12d1 7d3f 3f83 813f 2c79 7f3f
00000140: edec 7f3f 22cd 7f3f 533f 833f 082a 7e3f
00000150: a950 7e3f a5de 803f 5d6b 833f d0a9 813f
00000160: 013a 7c3f 3bab 7e3f 6dc5 803f db7b 813f
00000170: 77f4 7d3f adfe 803f 6f32 7e3f 5312 803f
00000180: 7d5c 803f 6733 7f3f 9ea0 7f3f 7db6 803f
00000190: 6d9a 813f 9c88 813f a6b3 803f 52d4 7e3f
000001a0: 4d15 803f c0d0 7d3f c032 7f3f e6dc 7f3f
000001b0: 1b5d 803f 91d9 7b3f 5048 803f 9c67 813f
000001c0: adf9 7a3f 56c3 823f 2296 833f 9c13 803f
000001d0: fbc6 7e3f 0c49 803f 1953 803f 4ece 7d3f
000001e0: 713b 7e3f 450a 7e3f 0e3e 7c3f b7a2 833f
000001f0: 782e 813f e61e 7d3f 4821 7f3f d528 803f
00000200: 22fc 803f d810 7e3f 390c 823f a36c 803f
00000210: 0e3e 803f 63a8 803f 6a15 803f ebeb 7e3f
00000220: a51f 7e3f 192a 7b3f bd25 7f3f 4db1 7d3f
00000230: dca3 803f e51d 7a3f ef60 813f bc36 823f
00000240: 8c40 7e3f fe94 7e3f 693e 803f 27a9 7b3f
00000250: dda0 813f d138 7e3f cd8e 7e3f 2a50 803f
00000260: 6f52 7f3f cb6f 803f 337b 7e3f 74b5 803f
00000270: 5e0f 803f 88c5 803f f6e3 7f3f 159e 803f
00000280: 3588 7f3f 76cf 803f 288a 7d3f e752 803f
00000290: 5257 7d3f c5ce 803f ae5e 803f d06f 7e3f
000002a0: b83b 803f fbbf 7f3f b692 813f 2387 7f3f
000002b0: c24a 7e3f d06d 7d3f 5d18 7f3f 955e 7d3f
000002c0: abd6 803f ff3d 7f3f e73c 7c3f 3d98 803f
000002d0: 3a09 7f3f 5236 7e3f b3d2 7d3f f276 7d3f
000002e0: da47 823f 1929 803f 39dc 7f3f 7c0a 7d3f
000002f0: 7f05 823f aa26 823f f4e6 7f3f 4bc2 803f
00000300: c236 7f3f a756 823f 15da 7f3f d13a 7d3f
00000310: 6f55 7f3f afce 7e3f 9c18 7f3f 8e52 803f
00000320: 8c07 823f 1bea 803f b517 7e3f 19f3 7c3f
00000330: e8a0 7b3f 5988 803f 3f7c 803f 7186 803f
00000340: 37b0 803f a898 7f3f abe6 803f 1c90 813f
00000350: f3b1 7f3f 44c3 813f 2d79 7f3f 1133 7e3f
00000360: fc48 7d3f c96b 803f 1630 7c3f 47c1 823f
00000370: 6c87 803f 6197 7f3f 2e66 803f e040 7f3f
00000380: f538 813f 8184 803f 16fa 803f 89b3 7f3f
00000390: 1838 813f 4d17 7f3f bf2b 803f d7c1 813f
000003a0: 6107 7e3f c678 803f 7330 803f f909 7b3f
000003b0: 2e97 7d3f f3f8 7e3f 7a57 7d3f 4dd6 7f3f
000003c0: a8c5 7d3f 70ae 803f bf79 7e3f 7cb1 7e3f
000003d0: acfd 7b3f 6199 7e3f 98ce 7e3f 4058 803f
000003e0: 88da 7f3f 8e72 7d3f c7f8 7e3f a9ca 7c3f
000003f0: e2ea 823f 46cf 7c3f 304a 7e3f 0fa3 7f3f

base.mlp.fc1.2.bias f4 [256]
-0.030386565 -0.0032365206 0.0015139015 -0.0012326792 -0.0035140472 0.013954504 -0.011910757 0.0023155748
-0.0055590705 -0.022061978 0.012291016 0.005815047 -0.009389176 0.0007080182 -0.0028920178 0.020018416
-0.006443856 -0.018962258 0.018401705 -0.012600947 -0.0147303175 -0.01377963 -0.018054578 0.003726071
-0.0066491906 -0.007940089 0.02087327 0.014184525 0.012978116 0.022273855 -0.0062503316 -0.0025304295
-0.008941726 -0.011535352 -0.0047987816 -0.013432791 0.0143873505 -0.007674365 -0.015544548 -0.007027639
0.007684058 0.0015075501 0.014822813 -0.01912962 -0.008372284 -0.0112675475 0.0010109766 0.0054084905
-0.010025406 0.0041216235 0.0128248 0.017285857 5.5256103e-05 0.015586336 0.033782683 -0.0067902817
0.024155825 -0.013094141 -0.005789578 -0.00079054566 0.0105552105 -0.015839119 0.0018355655 -0.004517812
-0.025104789 -0.025283942 0.012859559 0.009637276 0.0027518854 -0.018458486 -0.022186907 -0.011242126
-0.007580143 -0.008338505 -0.005652542 0.013151295 -0.0017911597 -0.0041530305 0.0071247877 -0.012741046
-0.001241175 -0.007992378 0.014741129 0.0042324695 0.0025202758 -0.0010929022 -0.015896453 -0.013922056
0.013987096 -0.00030079708 -0.0013744172 -0.025586769 -0.014991362 -0.017533282 -0.0021295564 -0.007923969
-0.0111750355 0.017749928 0.013126793 -0.016975164 0.0039983685 0.027911117 -0.026596347 0.0011099486
0.0028121718 -0.019640803 -0.0016533396 -0.007822003 -0.0005717156 0.0013672835 -0.0017001962 -0.0137261925
-0.0070140893 -0.022711461 0.0050710854 0.016632192 -0.007735623 -0.032773957 0.02007831 -0.0103349695
0.010733284 0.0023960655 -0.0019409613 0.0051070284 0.004372935 -0.008212954 -0.0011663259 0.0037536062
-0.0051972326 0.00046995844 0.0028874553 0.0008660808 0.0078044194 0.022642577 -0.015123551 -0.01369664
0.010892532 0.01978357 0.01502267 -0.0054427087 -0.009417746 0.021105481 0.018917058 0.007928001
-0.017948886 0.0019720586 -0.011306518 -0.009391585 -0.008731861 0.006367083 -0.008840307 -0.008886585
-0.01396522 0.018079866 -0.005884059 -0.008891927 -0.008056236 0.014578934 -0.004638139 -0.005013806
-0.0020711496 0.0015929164 0.008251647 0.006953148 0.0037491575 0.017540986 0.004313598 -0.0073947925
0.015924053 -0.014119006 -0.0026340578 -0.00647838 -0.006776959 0.005835057 0.0059239673 -0.009930033
0.009671239 -0.022273537 -0.007518184 -0.015270639 0.009941698 0.008119288 -0.00720526 -0.0024579468
-0.0077027157 0.02086589 -0.0029899098 -0.022051059 0.028461156 0.01798327 -0.0065920763 -0.009747057
-0.00050084724 -0.0038730348 0.01580809 -0.005387348 -0.0027086355 0.006658925 0.018945076 0.00013933232
0.015000569 0.018153775 -0.0044043893 -0.0005754254 -0.0006291347 0.00649864 0.008480095 -0.0017848014
-0.0108612785 0.021744817 0.016021885 -0.008733518 0.012085555 0.0077650878 -0.02485973 -0.0071484135
-0.007957466 0.026101977 0.030663695 0.015538635 -0.01463959 0.009854747 -0.0027901186 0.00970325
-0.014568157 0.008542397 0.006305091 0.007062655 0.0039039974 -0.005661104 0.0120338965 0.02198921
0.0078559 0.008923822 -0.008242702 -0.0129917525 -0.004278202 -0.0027320809 -0.00471795 -0.010343521
-0.026197357 -0.013077731 0.0025595534 -0.012271313 -0.011739453 0.0067403833 -0.0024529656 -0.009668618
-0.0056073307 -0.005810543 -0.00053264044 0.0018853305 -0.0033948885 -0.024406256 -0.0036028048 0.011122947
00000000: 3fed f8bc ce1b 54bb 1b6e c63a da91 a1ba
00000010: ee4b 66bb 6fa1 643c 5625 43bc e6c0 173b
00000020: dd28 b6bb 52bb b4bc 4260 493c 268c be3b
00000030: 0fd5 19bc 4c9a 393a 0288 3dbb a9fd a33c
00000040: fb26 d3bb bd56 9bbc 2cbf 963c 3474 4ebc
00000050: 6e57 71bc f5c3 61bc 32e7 93bc 1931 743b
00000060: 74e1 d9bb 2617 02bc 6cfe aa3c 3666 683c
00000070: 2aa2 543c a977 b63c 95cf ccbb 90d5 25bb
00000080: 5180 12bc c6fe 3cbc 193f 9dbb 3615 5cbc
00000090: ecb8 6b3c 3d79 fbbb 8fae 7ebc 1c48 e6bb
000000a0: 8dca fb3b fd98 c53a 62db 723c b9b5 9cbc
000000b0: e72b 09bc 859b 38bc bf82 843a b539 b13b
000000c0: 9a41 24bc af0e 873b 1c1f 523c 129b 8d3c
000000d0: cac2 6738 d55d 7f3c b65f 0a3d 0381 debb
000000e0: 70e2 c53c cf88 56bc 80b6 bdbb 9f3c 4fba
000000f0: c3ef 2c3c 0ac1 81bc 5c97 f03a 270a 94bb
00000100: 8fa8 cdbc 4520 cfbc e6b0 523c aae5 1d3c
00000110: fa58 343b 4036 97bc 51c1 b5bc e530 38bc
00000120: d962 f8bb 3a9e 08bc f638 b9bb 8778 573c
00000130: 59c5 eaba 2516 88bb 0d77 e93b d2bf 50bc
00000140: ecae a2ba 77f2 02bc c784 713c 87b0 8a3b
00000150: 362b 253b b63f 8fba 4739 82bc 5619 64bc
00000160: 222a 653c 4db4 9db9 ca25 b4ba 589b d1bc
00000170: 549e 75bc f5a1 8fbc 0790 0bbb 89d3 01bc
00000180: 7f17 37bc 4c68 913c c311 573c 800f 8bbc
00000190: bf04 833b dba5 e43c 95e0 d9bc b27b 913a
000001a0: 6a4c 383b c0e5 a0bc dfb4 d8ba dc27 00bc
000001b0: 2fdf 15ba 6c36 b33a 1ed9 deba d3e3 60bc
000001c0: 72d6 e5bb 630d babc 592b a63b 3c40 883c
000001d0: 1c7b fdbb fc3d 06bd 457b a43c 0154 29bc
000001e0: a8da 2f3c 4f07 1d3b db67 feba dc58 a73b
000001f0: d64a 8f3b a08f 06bc 67df 98ba 10ff 753b
00000200: 8c4d aabb c164 f639 763b 3d3b b309 633a
00000210: 37bc ff3b ed7c b93c c5c8 77bc df67 60bc
00000220: 9776 323c 2711 a23c a521 763c c058 b2bb
00000230: e44c 1abc 67e5 ac3c f2f7 9a3c 72e4 013c
00000240: 8b09 93bc a73d 013b f93e 39bc 2adf 19bc
00000250: 1410 0fbc f7a2 d03b efd6 10bc 0a99 11bc
00000260: 61ce 64bc 3a1c 943c 10cf c0bb 72af 11bc
00000270: 4efe 03bc 7bdc 6e3c 88fb 97bb da4a a4bb
00000280: 20bc 07bb 68c9 d03a eb31 073c 3cd7 e33b
00000290: 6db4 753b 1db2 8f3c 1559 8d3b 0450 f2bb
000002a0: 2973 823c 6753 67bc 28a0 2cbb 9748 d4bb
000002b0: 4111 debb 0134 bf3b d71d c23b 94b1 22bc
000002c0: 1e74 1e3c fe76 b6bc 195b f6bb b431 7abc
000002d0: 81e2 223c c306 053c 1a1a ecbb 8115 21bb
000002e0: 1067 fcbb f1ee aa3c 5df2 43bb 6ca4 b4bc
000002f0: 5f27 e93c a751 933c 5802 d8bb 1fb2 1fbc
00000300: 4a4b 03ba bed2 7dbb f87f 813c 5a88 b0bb
00000310: 5d83 31bb 1d33 da3b b432 9b3c bc19 1239
00000320: f2c4 753c 3ab7 943c b252 90bb 25d8 16ba
00000330: 84ec 24ba 8bf2 d43b 19f0 0a3c ffef e9ba
00000340: 81f3 31bc 3022 b23c 5440 833c 0817 0fbc
00000350: 7e02 463c 4772 fe3b a2a6 cbbc 3d3d eabb
00000360: 0860 02bc d0d3 d53c 6e32 fb3c c295 7e3c
00000370: e4da 6fbc ce75 213c 6cda 36bb 61fa 1e3c
00000380: 47af 6ebc 69f5 0b3c f09a ce3b d86d e73b
00000390: 35da 7f3b c880 b9bb d229 453c b722 b43c
000003a0: 08b6 003c 3935 123c 660c 07bc 5cdb 54bc
000003b0: 2930 8cbb b60c 33bb 0899 9abb df77 29bc
000003c0: d79b d6bc fb43 56bc 2ebe 273b 9e0d 49bc
000003d0: d656 40bc 6fde dc3b efc1 20bb 2069 1ebc
000003e0: b3bd b7bb 5e66 bebb e5a0 0bba 321d f73a
000003f0: c77c 5ebb a1ef c7bc 091d 6cbb 053d 363c

base.mlp.fc_h.0.weight f4 [256, 256]
-0.087551646 -0.010467715 0.06935266 0.11359232 -0.08479113 -0.060850292 0.08115836 0.15103
0.14361991 -0.13862091 0.06533422 0.018104006 -0.003431645 -0.17414603 -0.12509535 -0.012616128
0.102427796 -0.015421187 -0.01728227 -0.010242304 0.14727533 0.21597005 -0.12653457 0.042964987
0.05006603 0.026115872 0.1363496 0.002607915 -0.011507245 -0.06248687 0.006972493 -0.108408794
0.14195968 -0.022913145 0.18659101 -0.014877732 -0.0002350398 -0.031509925 -0.04802124 0.05415286
-0.07567008 0.0062101353 -0.07023565 0.002534785 -0.058025938 0.06842387 0.050862372 -0.021396592
0.18833795 -0.009026039 0.06943867 -0.059032086 -0.13745952 0.029121514 -0.053431623 0.1320398
-0.05287426 -0.027059013 0.040782098 0.031898867 0.0628456 0.10781474 -0.092984 -0.049736485
0.0062150005 -0.18730654 -0.038046878 -0.12574586 -0.08491167 0.060795847 0.19703877 0.099894606
-0.15952723 0.101434715 -0.0037800795 -0.08100619 0.006984655 -0.17205873 0.0010490218 -0.09697426
-0.105230816 0.15912685 -0.10933654 -0.06257796 0.020445397 -0.027956152 0.014539093 -0.046345696
-0.045087885 0.060716864 0.1562921 0.05137283 0.054981273 -0.031789113 -0.045325067 0.06574692
-0.10999993 -0.026538705 -0.19036679 -0.008786518 0.036268786 -0.058874283 0.05814364 -0.05873445
-0.14975537 -0.078149766 0.24792352 0.06231608 0.00092429674 0.0986134 -0.15294287 -0.02103859
-0.09240006 -0.09115545 -0.013144205 -0.0018847373 0.028821899 0.02094791 -0.074454665 -0.009111449
-0.13319154 -0.069283314 0.053240426 -0.12673762 0.027581265 0.0523717 -0.15180306 -0.13495857
0.06151032 -0.06929707 -0.05156993 0.03959266 0.09727796 0.007836133 0.021631712 -0.05105389
-0.14208764 0.011091839 -0.11657249 0.13288142 -0.22205612 -0.12227108 0.12974766 0.013276876
-0.06048231 0.058041688 0.16224527 -0.038793344 0.034825075 -0.008752615 0.013761286 -0.016131783
-0.12125342 0.08222743 0.07534007 0.06052694 -0.07279198 -0.036421034 0.08948263 -0.031777553
0.14888898 -0.02879364 0.01128151 -0.09553283 -0.032212146 0.008955038 0.019470306 0.14379163
-0.15995283 0.035459235 -0.028611796 0.014026448 -0.07353469 0.048196692 0.14627329 -0.16356361
0.1828152 0.0068047824 -0.034742747 0.011743239 -0.105075434 0.05923767 0.011240169 -0.044070397
0.080694646 -0.119138874 0.1509103 -0.04256285 2.5257816e-05 0.101925306 -0.10290195 0.10730973
-0.04360681 0.11880107 -0.028382361 0.09484896 -0.0027719138 0.016468676 0.02488601 -0.078272305
0.04917205 -0.08632088 0.05955286 -0.08061491 -0.07280408 -0.06738621 -0.06534336 0.13675801
-0.033368774 0.1287536 0.023969265 -0.070807956 0.07390601 0.20457861 -0.022330359 0.10259049
-0.12178321 0.030397305 0.0136703905 -0.060119525 -0.11955188 -0.1061258 0.04387305 -0.030019624
-0.09995989 -0.12815231 -0.014231231 0.10237114 -0.07656265 -0.019364797 0.059623864 0.09885723
-0.06720353 0.062223595 0.057949092 0.040743224 -0.0023798111 0.03703135 0.05843138 0.071522914
-0.022959683 -0.028746177 0.109756336 0.1536976 -0.028427556 0.025808955 0.05800882 -0.040807188
0.020697853 -0.007897258 0.1323271 -0.123391695 -0.025897473 0.06531624 -0.17789157 -0.016778318
00000000: 474e b3bd c780 2bbc c408 8e3d 17a3 e83d
00000010: f9a6 adbd 283e 79bd 5b36 a63d 9ca7 1a3e
00000020: 1911 133e a4f2 0dbe f3cd 853d da4e 943c
00000030: 73e5 60bb 5653 32be ff18 00be e0b3 4ebc
00000040: aac5 d13d 25a9 7cbc 8c93 8dbc 56cf 27bc
00000050: 58cf 163e 4127 5d3e 4792 01be 0efc 2f3d
00000060: 0a12 4d3d f4f0 d53c 3b9f 0b3e 8ee9 2a3b
00000070: e288 3cbc 3bf2 7fbd 8379 e43b 6e05 debd
00000080: e15d 113e 59b4 bbbc b711 3f3e bbc1 73bc
00000090: 0475 76b9 8d10 01bd ebb1 44bd 64cf 5d3d
000000a0: eaf8 9abd 647e cb3b b5d7 8fbd a31e 263b
000000b0: 9bac 6dbd d021 8c3d 1055 503d e847 afbc
000000c0: aadb 403e f4e1 13bc dd35 8e3d a1cb 71bd
000000d0: 30c2 0cbe 3e90 ee3c 1edb 5abd 7135 073e
000000e0: ae92 58bd ddaa ddbc 210b 273d 63a8 023d
000000f0: 32b5 803d f9cd dc3d 656e bebd 7cb8 4bbd
00000100: 34a7 cb3b 49cd 3fbe 0bd7 1bbd 86c3 00be
00000110: 2be6 adbd 1105 793d 88c4 493e 8b95 cc3d
00000120: 1b5b 23be 01bd cf3d 36bb 77bb 93e6 a5bd
00000130: 88df e43b 2a30 30be 557f 893a 719a c6bd
00000140: 4183 d7bd 26f2 223e d6eb dfbd e028 80bd
00000150: 1b7d a73c 4d04 e5bc 6035 6e3c fcd4 3dbd
00000160: 13ae 38bd 3fb2 783d 090b 203e 516c 523d
00000170: 0b34 613d 4d35 02bd c7a6 39bd 52a6 863d
00000180: a547 e1bd b367 d9bc 83ef 42be 54f5 0fbc
00000190: 948e 143d 2926 71bd 0728 6e3d 8993 70bd
000001a0: 7959 19be fc0c a0bd aadf 7d3e 253f 7f3d
000001b0: 814c 723a d2f5 c93d 0e9d 1cbe 1f59 acbc
000001c0: 3e3c bdbd b5af babd cb5a 57bc 4a09 f7ba
000001d0: e71b ec3c f49a ab3c b07b 98bd 3048 15bc
000001e0: 5d63 08be 69e4 8dbd a212 5a3d 82c7 01be
000001f0: 1bf2 e13c b583 563d 4372 1bbe 9432 0abe
00000200: 3ff2 7b3d 9feb 8dbd fe3a 53bd ea2b 223d
00000210: ab39 c73d 2063 003c fd34 b13c e21d 51bd
00000220: 6c7f 11be 8bba 353c 8fbd eebd 1112 083e
00000230: ae62 63be 4369 fabd 92dc 043e 4187 593c
00000240: 4cbc 77bd 1fbd 6d3d a023 263e c5e5 1ebd
00000250: bda4 0e3d 2167 0fbc 0477 613c cd26 84bc
00000260: b753 f8bd db66 a83d e54b 9a3d 19eb 773d
00000270: f613 95bd 392e 15bd ab42 b73d 2e29 02bd
00000280: 5a76 183e a4e0 ebbc 15d6 383c b7a6 c3bd
00000290: e2f0 03bd 27b8 123c 3180 9f3c 1d3e 133e
000002a0: adca 23be b43d 113d 4963 eabc 30cf 653c
000002b0: 5b99 96bd e569 453d aac8 153e 387d 27be
000002c0: e833 3b3e a7fa de3b 694e 0ebd b766 403c
000002d0: ca31 d7bd 33a3 723d b028 383c 2983 34bd
000002e0: 3c43 a53d 15ff f3bd 3b88 1a3e 6256 2ebd
000002f0: bfe0 d337 37be d03d 42be d2bd 34c5 db3d
00000300: 0e9d 32bd fa4d f33d 2082 e8bc 2c40 c23d
00000310: ffa8 35bb 51e9 863c bfdd cb3c 3b4d a0bd
00000320: a268 493d 00c9 b0bd b3ed 733d 6e19 a5bd
00000330: 4e1a 95bd c801 8abd bdd2 85bd 4b0a 0c3e
00000340: b2ad 08bd fcd7 033e 315b c43c c303 91bd
00000350: 095c 973d 0e7d 513e 28ee b6bc f61a d23d
00000360: 7a69 f9bd c503 f93c c6f9 5f3c e43f 76bd
00000370: 9ed7 f4bd 7c58 d9bd 3ab4 333d b7eb f5bc
00000380: c5b7 ccbd 5c3a 03be 1c2a 69bc f6a7 d13d
00000390: e1cc 9cbd eca2 9ebc 2738 743d a975 ca3d
000003a0: 01a2 89bd 2bde 7e3d 075c 6d3d 5ee2 263d
000003b0: 9bf6 1bbb 2fae 173d be55 6f3d 9b7a 923d
000003c0: f215 bcbc 1a7d ebbc eec7 e03d e762 1d3e
000003d0: e8e0 e8bc 4d6d d33c a89a 6d3d 7025 27bd
000003e0: 8b8e a93c 8063 01bc c180 073e c9b4 fcbd
000003f0: f026 d4bc 85c4 853d 3529 36be af72 89bc

base.mlp.fc_h.0.bias f4 [256]
0.0 0.0 0.0 0.0 0.0 0.0 0.0 0.0
0.0 0.0 0.0 0.0 0.0 0.0 0.0 0.0
0.0 0.0 0.0 0.0 0.0 0.0 0.0 0.0
0.0 0.0 0.0 0.0 0.0 0.0 0.0 0.0
0.0 0.0 0.0 0.0 0.0 0.0 0.0 0.0
0.0 0.0 0.0 0.0 0.0 0.0 0.0 0.0
0.0 0.0 0.0 0.0 0.0 0.0 0.0 0.0
0.0 0.0 0.0 0.0 0.0 0.0 0.0 0.0
0.0 0.0 0.0 0.0 0.0 0.0 0.0 0.0
0.0 0.0 0.0 0.0 0.0 0.0 0.0 0.0
0.0 0.0 0.0 0.0 0.0 0.0 0.0 0.0
0.0 0.0 0.0 0.0 0.0 0.0 0.0 0.0
0.0 0.0 0.0 0.0 0.0 0.0 0.0 0.0
0.0 0.0 0.0 0.0 0.0 0.0 0.0 0.0
0.0 0.0 0.0 0.0 0.0 0.0 0.0 0.0
0.0 0.0 0.0 0.0 0.0 0.0 0.0 0.0
0.0 0.0 0.0 0.0 0.0 0.0 0.0 0.0
0.0 0.0 0.0 0.0 0.0 0.0 0.0 0.0
0.0 0.0 0.0 0.0 0.0 0.0 0.0 0.0
0.0 0.0 0.0 0.0 0.0 0.0 0.0 0.0
0.0 0.0 0.0 0.0 0.0 0.0 0.0 0.0
0.0 0.0 0.0 0.0 0.0 0.0 0.0 0.0
0.0 0.0 0.0 0.0 0.0 0.0 0.0 0.0
0.0 0.0 0.0 0.0 0.0 0.0 0.0 0.0
0.0 0.0 0.0 0.0 0.0 0.0 0.0 0.0
0.0 0.0 0.0 0.0 0.0 0.0 0.0 0.0
0.0 0.0 0.0 0.0 0.0 0.0 0.0 0.0
0.0 0.0 0.0 0.0 0.0 0.0 0.0 0.0
0.0 0.0 0.0 0.0 0.0 0.0 0.0 0.0
0.0 0.0 0.0 0.0 0.0 0.0 0.0 0.0
0.0 0.0 0.0 0.0 0.0 0.0 0.0 0.0
0.0 0.0 0.0 0.0 0.0 0.0 0.0 0.0
00000000: 0000 0000 0000 0000 0000 0000 0000 0000
00000010: 0000 0000 0000 0000 0000 0000 0000 0000
00000020: 0000 0000 0000 0000 0000 0000 0000 0000
00000030: 0000 0000 0000 0000 0000 0000 0000 0000
00000040: 0000 0000 0000 0000 0000 0000 0000 0000
00000050: 0000 0000 0000 0000 0000 0000 0000 0000
00000060: 0000 0000 0000 0000 0000 0000 0000 0000
00000070: 0000 0000 0000 0000 0000 0000 0000 0000
00000080: 0000 0000 0000 0000 0000 0000 0000 0000
00000090: 0000 0000 0000 0000 0000 0000 0000 0000
000000a0: 0000 0000 0000 0000 0000 0000 0000 0000
000000b0: 0000 0000 0000 0000 0000 0000 0000 0000
000000c0: 0000 0000 0000 0000 0000 0000 0000 0000
000000d0: 0000 0000 0000 0000 0000 0000 0000 0000
000000e0: 0000 0000 0000 0000 0000 0000 0000 0000
000000f0: 0000 0000 0000 0000 0000 0000 0000 0000
00000100: 0000 0000 0000 0000 0000 0000 0000 0000
00000110: 0000 0000 0000 0000 0000 0000 0000 0000
00000120: 0000 0000 0000 0000 0000 0000 0000 0000
00000130: 0000 0000 0000 0000 0000 0000 0000 0000
00000140: 0000 0000 0000 0000 0000 0000 0000 0000
00000150: 0000 0000 0000 0000 0000 0000 0000 0000
00000160: 0000 0000 0000 0000 0000 0000 0000 0000
00000170: 0000 0000 0000 0000 0000 0000 0000 0000
00000180: 0000 0000 0000 0000 0000 0000 0000 0000
00000190: 0000 0000 0000 0000 0000 0000 0000 0000
000001a0: 0000 0000 0000 0000 0000 0000 0000 0000
000001b0: 0000 0000 0000 0000 0000 0000 0000 0000
000001c0: 0000 0000 0000 0000 0000 0000 0000 0000
000001d0: 0000 0000 0000 0000 0000 0000 0000 0000
000001e0: 0000 0000 0000 0000 0000 0000 0000 0000
000001f0: 0000 0000 0000 0000 0000 0000 0000 0000
00000200: 0000 0000 0000 0000 0000 0000 0000 0000
00000210: 0000 0000 0000 0000 0000 0000 0000 0000
00000220: 0000 0000 0000 0000 0000 0000 0000 0000
00000230: 0000 0000 0000 0000 0000 0000 0000 0000
00000240: 0000 0000 0000 0000 0000 0000 0000 0000
00000250: 0000 0000 0000 0000 0000 0000 0000 0000
00000260: 0000 0000 0000 0000 0000 0000 0000 0000
00000270: 0000 0000 0000 0000 0000 0000 0000 0000
00000280: 0000 0000 0000 0000 0000 0000 0000 0000
00000290: 0000 0000 0000 0000 0000 0000 0000 0000
000002a0: 0000 0000 0000 0000 0000 0000 0000 0000
000002b0: 0000 0000 0000 0000 0000 0000 0000 0000
000002c0: 0000 0000 0000 0000 0000 0000 0000 0000
000002d0: 0000 0000 0000 0000 0000 0000 0000 0000
000002e0: 0000 0000 0000 0000 0000 0000 0000 0000
000002f0: 0000 0000 0000 0000 0000 0000 0000 0000
00000300: 0000 0000 0000 0000 0000 0000 0000 0000
00000310: 0000 0000 0000 0000 0000 0000 0000 0000
00000320: 0000 0000 0000 0000 0000 0000 0000 0000
00000330: 0000 0000 0000 0000 0000 0000 0000 0000
00000340: 0000 0000 0000 0000 0000 0000 0000 0000
00000350: 0000 0000 0000 0000 0000 0000 0000 0000
00000360: 0000 0000 0000 0000 0000 0000 0000 0000
00000370: 0000 0000 0000 0000 0000 0000 0000 0000
00000380: 0000 0000 0000 0000 0000 0000 0000 0000
00000390: 0000 0000 0000 0000 0000 0000 0000 0000
000003a0: 0000 0000 0000 0000 0000 0000 0000 0000
000003b0: 0000 0000 0000 0000 0000 0000 0000 0000
000003c0: 0000 0000 0000 0000 0000 0000 0000 0000
000003d0: 0000 0000 0000 0000 0000 0000 0000 0000
000003e0: 0000 0000 0000 0000 0000 0000 0000 0000
000003f0: 0000 0000 0000 0000 0000 0000 0000 0000

base.mlp.fc_h.2.weight f4 [256]
1.0 1.0 1.0 1.0 1.0 1.0 1.0 1.0
1.0 1.0 1.0 1.0 1.0 1.0 1.0 1.0
1.0 1.0 1.0 1.0 1.0 1.0 1.0 1.0
1.0 1.0 1.0 1.0 1.0 1.0 1.0 1.0
1.0 1.0 1.0 1.0 1.0 1.0 1.0 1.0
1.0 1.0 1.0 1.0 1.0 1.0 1.0 1.0
1.0 1.0 1.0 1.0 1.0 1.0 1.0 1.0
1.0 1.0 1.0 1.0 1.0 1.0 1.0 1.0
1.0 1.0 1.0 1.0 1.0 1.0 1.0 1.0
1.0 1.0 1.0 1.0 1.0 1.0 1.0 1.0
1.0 1.0 1.0 1.0 1.0 1.0 1.0 1.0
1.0 1.0 1.0 1.0 1.0 1.0 1.0 1.0
1.0 1.0 1.0 1.0 1.0 1.0 1.0 1.0
1.0 1.0 1.0 1.0 1.0 1.0 1.0 1.0
1.0 1.0 1.0 1.0 1.0 1.0 1.0 1.0
1.0 1.0 1.0 1.0 1.0 1.0 1.0 1.0
1.0 1.0 1.0 1.0 1.0 1.0 1.0 1.0
1.0 1.0 1.0 1.0 1.0 1.0 1.0 1.0
1.0 1.0 1.0 1.0 1.0 1.0 1.0 1.0
1.0 1.0 1.0 1.0 1.0 1.0 1.0 1.0
1.0 1.0 1.0 1.0 1.0 1.0 1.0 1.0
1.0 1.0 1.0 1.0 1.0 1.0 1.0 1.0
1.0 1.0 1.0 1.0 1.0 1.0 1.0 1.0
1.0 1.0 1.0 1.0 1.0 1.0 1.0 1.0
1.0 1.0 1.0 1.0 1.0 1.0 1.0 1.0
1.0 1.0 1.0 1.0 1.0 1.0 1.0 1.0
1.0 1.0 1.0 1.0 1.0 1.0 1.0 1.0
1.0 1.0 1.0 1.0 1.0 1.0 1.0 1.0
1.0 1.0 1.0 1.0 1.0 1.0 1.0 1.0
1.0 1.0 1.0 1.0 1.0 1.0 1.0 1.0
1.0 1.0 1.0 1.0 1.0 1.0 1.0 1.0
1.0 1.0 1.0 1.0 1.0 1.0 1.0 1.0
00000000: 0000 803f 0000 803f 0000 803f 0000 803f
00000010: 0000 803f 0000 803f 0000 803f 0000 803f
00000020: 0000 803f 0000 803f 0000 803f 0000 803f
00000030: 0000 803f 0000 803f 0000 803f 0000 803f
00000040: 0000 803f 0000 803f 0000 803f 0000 803f
00000050: 0000 803f 0000 803f 0000 803f 0000 803f
00000060: 0000 803f 0000 803f 0000 803f 0000 803f
00000070: 0000 803f 0000 803f 0000 803f 0000 803f
00000080: 0000 803f 0000 803f 0000 803f 0000 803f
00000090: 0000 803f 0000 803f 0000 803f 0000 803f
000000a0: 0000 803f 0000 803f 0000 803f 0000 803f
000000b0: 0000 803f 0000 803f 0000 803f 0000 803f
000000c0: 0000 803f 0000 803f 0000 803f 0000 803f
000000d0: 0000 803f 0000 803f 0000 803f 0000 803f
000000e0: 0000 803f 0000 803f 0000 803f 0000 803f
000000f0: 0000 803f 0000 803f 0000 803f 0000 803f
00000100: 0000 803f 0000 803f 0000 803f 0000 803f
00000110: 0000 803f 0000 803f 0000 803f 0000 803f
00000120: 0000 803f 0000 803f 0000 803f 0000 803f
00000130: 0000 803f 0000 803f 0000 803f 0000 803f
00000140: 0000 803f 0000 803f 0000 803f 0000 803f
00000150: 0000 803f 0000 803f 0000 803f 0000 803f
00000160: 0000 803f 0000 803f 0000 803f 0000 803f
00000170: 0000 803f 0000 803f 0000 803f 0000 803f
00000180: 0000 803f 0000 803f 0000 803f 0000 803f
00000190: 0000 803f 0000 803f 0000 803f 0000 803f
000001a0: 0000 803f 0000 803f 0000 803f 0000 803f
000001b0: 0000 803f 0000 803f 0000 803f 0000 803f
000001c0: 0000 803f 0000 803f 0000 803f 0000 803f
000001d0: 0000 803f 0000 803f 0000 803f 0000 803f
000001e0: 0000 803f 0000 803f 0000 803f 0000 803f
000001f0: 0000 803f 0000 803f 0000 803f 0000 803f
00000200: 0000 803f 0000 803f 0000 803f 0000 803f
00000210: 0000 803f 0000 803f 0000 803f 0000 803f
00000220: 0000 803f 0000 803f 0000 803f 0000 803f
00000230: 0000 803f 0000 803f 0000 803f 0000 803f
00000240: 0000 803f 0000 803f 0000 803f 0000 803f
00000250: 0000 803f 0000 803f 0000 803f 0000 803f
00000260: 0000 803f 0000 803f 0000 803f 0000 803f
00000270: 0000 803f 0000 803f 0000 803f 0000 803f
00000280: 0000 803f 0000 803f 0000 803f 0000 803f
00000290: 0000 803f 0000 803f 0000 803f 0000 803f
000002a0: 0000 803f 0000 803f 0000 803f 0000 803f
000002b0: 0000 803f 0000 803f 0000 803f 0000 803f
000002c0: 0000 803f 0000 803f 0000 803f 0000 803f
000002d0: 0000 803f 0000 803f 0000 803f 0000 803f
000002e0: 0000 803f 0000 803f 0000 803f 0000 803f
000002f0: 0000 803f 0000 803f 0000 803f 0000 803f
00000300: 0000 803f 0000 803f 0000 803f 0000 803f
00000310: 0000 803f 0000 803f 0000 803f 0000 803f
00000320: 0000 803f 0000 803f 0000 803f 0000 803f
00000330: 0000 803f 0000 803f 0000 803f 0000 803f
00000340: 0000 803f 0000 803f 0000 803f 0000 803f
00000350: 0000 803f 0000 803f 0000 803f 0000 803f
00000360: 0000 803f 0000 803f 0000 803f 0000 803f
00000370: 0000 803f 0000 803f 0000 803f 0000 803f
00000380: 0000 803f 0000 803f 0000 803f 0000 803f
00000390: 0000 803f 0000 803f 0000 803f 0000 803f
000003a0: 0000 803f 0000 803f 0000 803f 0000 803f
000003b0: 0000 803f 0000 803f 0000 803f 0000 803f
000003c0: 0000 803f 0000 803f 0000 803f 0000 803f
000003d0: 0000 803f 0000 803f 0000 803f 0000 803f
000003e0: 0000 803f 0000 803f 0000 803f 0000 803f
000003f0: 0000 803f 0000 803f 0000 803f 0000 803f

base.mlp.fc_h.2.bias f4 [256]
0.0 0.0 0.0 0.0 0.0 0.0 0.0 0.0
0.0 0.0 0.0 0.0 0.0 0.0 0.0 0.0
0.0 0.0 0.0 0.0 0.0 0.0 0.0 0.0
0.0 0.0 0.0 0.0 0.0 0.0 0.0 0.0
0.0 0.0 0.0 0.0 0.0 0.0 0.0 0.0
0.0 0.0 0.0 0.0 0.0 0.0 0.0 0.0
0.0 0.0 0.0 0.0 0.0 0.0 0.0 0.0
0.0 0.0 0.0 0.0 0.0 0.0 0.0 0.0
0.0 0.0 0.0 0.0 0.0 0.0 0.0 0.0
0.0 0.0 0.0 0.0 0.0 0.0 0.0 0.0
0.0 0.0 0.0 0.0 0.0 0.0 0.0 0.0
0.0 0.0 0.0 0.0 0.0 0.0 0.0 0.0
0.0 0.0 0.0 0.0 0.0 0.0 0.0 0.0
0.0 0.0 0.0 0.0 0.0 0.0 0.0 0.0
0.0 0.0 0.0 0.0 0.0 0.0 0.0 0.0
0.0 0.0 0.0 0.0 0.0 0.0 0.0 0.0
0.0 0.0 0.0 0.0 0.0 0.0 0.0 0.0
0.0 0.0 0.0 0.0 0.0 0.0 0.0 0.0
0.0 0.0 0.0 0.0 0.0 0.0 0.0 0.0
0.0 0.0 0.0 0.0 0.0 0.0 0.0 0.0
0.0 0.0 0.0 0.0 0.0 0.0 0.0 0.0
0.0 0.0 0.0 0.0 0.0 0.0 0.0 0.0
0.0 0.0 0.0 0.0 0.0 0.0 0.0 0.0
0.0 0.0 0.0 0.0 0.0 0.0 0.0 0.0
0.0 0.0 0.0 0.0 0.0 0.0 0.0 0.0
0.0 0.0 0.0 0.0 0.0 0.0 0.0 0.0
0.0 0.0 0.0 0.0 0.0 0.0 0.0 0.0
0.0 0.0 0.0 0.0 0.0 0.0 0.0 0.0
0.0 0.0 0.0 0.0 0.0 0.0 0.0 0.0
0.0 0.0 0.0 0.0 0.0 0.0 0.0 0.0
0.0 0.0 0.0 0.0 0.0 0.0 0.0 0.0
0.0 0.0 0.0 0.0 0.0 0.0 0.0 0.0
00000000: 0000 0000 0000 0000 0000 0000 0000 0000
00000010: 0000 0000 0000 0000 0000 0000 0000 0000
00000020: 0000 0000 0000 0000 0000 0000 0000 0000
00000030: 0000 0000 0000 0000 0000 0000 0000 0000
00000040: 0000 0000 0000 0000 0000 0000 0000 0000
00000050: 0000 0000 0000 0000 0000 0000 0000 0000
00000060: 0000 0000 0000 0000 0000 0000 0000 0000
00000070: 0000 0000 0000 0000 0000 0000 0000 0000
00000080: 0000 0000 0000 0000 0000 0000 0000 0000
00000090: 0000 0000 0000 0000 0000 0000 0000 0000
000000a0: 0000 0000 0000 0000 0000 0000 0000 0000
000000b0: 0000 0000 0000 0000 0000 0000 0000 0000
000000c0: 0000 0000 0000 0000 0000 0000 0000 0000
000000d0: 0000 0000 0000 0000 0000 0000 0000 0000
000000e0: 0000 0000 0000 0000 0000 0000 0000 0000
000000f0: 0000 0000 0000 0000 0000 0000 0000 0000
00000100: 0000 0000 0000 0000 0000 0000 0000 0000
00000110: 0000 0000 0000 0000 0000 0000 0000 0000
00000120: 0000 0000 0000 0000 0000 0000 0000 0000
00000130: 0000 0000 0000 0000 0000 0000 0000 0000
00000140: 0000 0000 0000 0000 0000 0000 0000 0000
00000150: 0000 0000 0000 0000 0000 0000 0000 0000
00000160: 0000 0000 0000 0000 0000 0000 0000 0000
00000170: 0000 0000 0000 0000 0000 0000 0000 0000
00000180: 0000 0000 0000 0000 0000 0000 0000 0000
00000190: 0000 0000 0000 0000 0000 0000 0000 0000
000001a0: 0000 0000 0000 0000 0000 0000 0000 0000
000001b0: 0000 0000 0000 0000 0000 0000 0000 0000
000001c0: 0000 0000 0000 0000 0000 0000 0000 0000
000001d0: 0000 0000 0000 0000 0000 0000 0000 0000
000001e0: 0000 0000 0000 0000 0000 0000 0000 0000
000001f0: 0000 0000 0000 0000 0000 0000 0000 0000
00000200: 0000 0000 0000 0000 0000 0000 0000 0000
00000210: 0000 0000 0000 0000 0000 0000 0000 0000
00000220: 0000 0000 0000 0000 0000 0000 0000 0000
00000230: 0000 0000 0000 0000 0000 0000 0000 0000
00000240: 0000 0000 0000 0000 0000 0000 0000 0000
00000250: 0000 0000 0000 0000 0000 0000 0000 0000
00000260: 0000 0000 0000 0000 0000 0000 0000 0000
00000270: 0000 0000 0000 0000 0000 0000 0000 0000
00000280: 0000 0000 0000 0000 0000 0000 0000 0000
00000290: 0000 0000 0000 0000 0000 0000 0000 0000
000002a0: 0000 0000 0000 0000 0000 0000 0000 0000
000002b0: 0000 0000 0000 0000 0000 0000 0000 0000
000002c0: 0000 0000 0000 0000 0000 0000 0000 0000
000002d0: 0000 0000 0000 0000 0000 0000 0000 0000
000002e0: 0000 0000 0000 0000 0000 0000 0000 0000
000002f0: 0000 0000 0000 0000 0000 0000 0000 0000
00000300: 0000 0000 0000 0000 0000 0000 0000 0000
00000310: 0000 0000 0000 0000 0000 0000 0000 0000
00000320: 0000 0000 0000 0000 0000 0000 0000 0000
00000330: 0000 0000 0000 0000 0000 0000 0000 0000
00000340: 0000 0000 0000 0000 0000 0000 0000 0000
00000350: 0000 0000 0000 0000 0000 0000 0000 0000
00000360: 0000 0000 0000 0000 0000 0000 0000 0000
00000370: 0000 0000 0000 0000 0000 0000 0000 0000
00000380: 0000 0000 0000 0000 0000 0000 0000 0000
00000390: 0000 0000 0000 0000 0000 0000 0000 0000
000003a0: 0000 0000 0000 0000 0000 0000 0000 0000
000003b0: 0000 0000 0000 0000 0000 0000 0000 0000
000003c0: 0000 0000 0000 0000 0000 0000 0000 0000
000003d0: 0000 0000 0000 0000 0000 0000 0000 0000
000003e0: 0000 0000 0000 0000 0000 0000 0000 0000
000003f0: 0000 0000 0000 0000 0000 0000 0000 0000
