Training_Parameter_Storage/0517/hd003formthres_5v1_vel0108_collide_001/critic_prey.pt (torch, 829249 bytes, 19 tensors)

base.feature_norm.weight f4 [22]
1.0355164 0.9821603 0.9826303 0.99109095 0.9681105 0.96465266 0.9714047 0.9856112
1.0058825 1.0026163 0.9517851 0.99616295 1.0964128 1.0884984 1.0234394 1.0220777
0.99755865 0.99599504 1.0226171 1.0029447 0.9949533 0.9874608
00000000: cd8b 843f db6e 7b3f a98d 7b3f 23b8 7d3f
00000010: 17d6 773f 7af3 763f faad 783f 0451 7c3f
00000020: c2c0 803f bb55 803f 30a8 733f 8904 7f3f
00000030: 4157 8c3f ea53 8b3f 1000 833f 71d3 823f
00000040: 0160 7f3f 88f9 7e3f 1ee5 823f 7e60 803f
00000050: 42b5 7e3f 3bca 7c3f

base.feature_norm.bias f4 [22]
0.018859945 0.01773943 0.008108535 0.014505702 0.011120901 -0.00052643486 -0.0005076432 0.0059894007
0.028275665 0.031615198 0.03734349 -0.008490619 -0.008734395 -0.05150798 0.034681 0.01632819
0.0067260717 0.0019336544 -0.016374545 0.013368826 0.023339635 0.0028725793
00000000: 2c80 9a3c 4852 913c a9d9 043c 53a9 6d3c
00000010: 7134 363c 7200 0aba 5c13 05ba bc42 c43b
00000020: 5ea2 e73c f07e 013d 7df5 183d 3d1c 0bbc
00000030: b51a 0fbc 08fa 52bd aa0d 0e3d b2c2 853c
00000040: 6166 dc3b ad72 fd3a e923 86bc ec08 5b3c
00000050: c332 bf3c e241 3c3b

base.mlp.fc1.0.weight f4 [256, 22]
-0.1488019 -0.0529501 0.03994745 -0.093778536 0.038355988 0.056414258 -0.03993114 0.007837434
-0.055480957 -0.11346294 0.023458306 0.0032936535 0.029624464 -0.05815044 -0.059413094 0.040901083
-0.003243438 -0.118136324 0.033787563 -0.06574107 0.03501445 0.045699637 0.12067412 -0.0028546925
0.022140782 0.14406614 0.05090479 0.104137115 -0.07391991 -0.084125206 -0.043615147 0.03403991
0.014034116 0.092184454 0.048832834 0.00018605498 -0.02928198 -0.0974101 -0.0846073 -0.03930848
0.017509554 0.14336252 -0.13345964 0.07753432 0.062762134 0.010413344 -0.058403507 0.033792756
0.13805628 -0.22642568 0.015213983 -0.0046931864 -0.016562888 -0.1263615 0.04715924 -0.02559143
-0.14721248 -0.051933132 0.061357982 -0.010168792 0.045849245 -0.0017356833 0.0369279 0.17478679
0.013925108 0.0579704 0.016171452 0.051058065 -0.14843243 0.05467606 0.022562217 0.03672234
-0.03346588 -0.14095467 -0.030791875 -0.06459782 0.0506584 0.017431468 0.063453026 -0.062572375
0.11928059 -0.017181452 0.050920196 0.11363943 -0.09006174 0.0376562 -0.020913806 0.048789673
-0.020234749 0.066536725 0.08042 0.07172576 -0.13688377 0.12295978 0.034018327 -0.039140858
-0.008858532 -0.17642082 0.06459595 -0.09150759 0.103028774 -0.09229714 0.03167166 0.08389491
0.10904012 0.06651477 0.071466245 -0.016343795 -0.02026141 0.026356706 -0.14214198 0.07784074
-0.013996976 -0.001964868 -0.0027051757 0.079664566 -0.16128102 0.06647562 -0.11312966 0.03115694
-0.014580569 0.054784335 -0.053247213 -0.09373071 -0.0003160808 -0.10814631 0.06363737 0.07280177
-0.06295352 -0.05305912 0.011839295 0.007994949 -0.09979538 -0.09004272 0.010451812 0.038902074
0.0017983624 0.07351354 0.10053432 0.05116299 0.089346156 -0.029338423 -0.00409135 -0.023634436
-0.06883733 0.074711695 -0.1402618 0.025742728 -0.15169384 -0.18859753 0.05297522 0.07637361
-0.006106532 0.05806402 -0.069527835 0.005187574 -0.01599805 -0.046604514 -0.0036188343 -0.06425871
-0.03485125 0.023487432 -0.13982444 -0.0039211283 -0.016625447 -0.07925709 0.10705653 -0.038664997
0.12335975 -0.16664869 0.019267669 -0.25253332 -0.08390621 0.06759123 0.07801256 0.07398954
-0.06958988 -0.044857785 0.01831301 0.05944413 -0.024784032 0.041068807 -0.100544915 0.024028271
-0.0870021 0.08470641 -0.12846509 -0.05100534 0.10979476 0.018227255 -0.005748602 -0.10581889
-0.04246677 -0.072749004 -0.10528816 -0.093789965 -0.13846704 -0.24838507 0.13861607 -0.020616986
0.060050216 -0.05464116 -0.036173794 -0.026743254 -0.0073521496 -0.053210024 -0.17944483 -0.112034775
0.021793578 0.029429326 0.055439636 0.12787071 0.11853277 -0.05613459 0.020856183 0.17638858
-0.020298041 -0.056130607 -0.04588155 0.0379179 0.028802551 -0.08180938 -0.05631121 0.12121834
-0.031467177 0.02642857 0.0025394305 -0.017675882 -0.09419714 -0.07719751 0.07141334 0.044900466
0.03287633 -0.1665977 0.08955875 -0.072725534 0.03720436 -0.11176011 0.10741612 0.16669455
-0.021441927 0.08201352 0.02714259 -0.11088024 -0.14452979 0.1067415 0.16751087 -0.008761492
-0.036617998 0.08006446 -0.19382739 -0.124243505 0.022916537 -0.051638942 -0.10369215 0.05160514
00000000: 865f 18be 34e2 58bd f09f 233d f60e c0bd
00000010: 2b1b 1d3d a312 673d d68e 23bd 9568 003c
00000020: 0040 63bd 425f e8bd a22b c03c 56da 573b
00000030: 01af f23c 282f 6ebd 255b 73bd e587 273d
00000040: dc8f 54bb 75f1 f1bd d464 0a3d 41a3 86bd
00000050: 506b 0f3d 8b2f 3b3d fe23 f73d cb15 3bbb
00000060: 9660 b53c 1386 133e 8b81 503d d745 d53d
00000070: 5263 97bd d649 acbd cca5 32bd 6f6d 0b3d
00000080: 59ef 653c 34cb bc3d f004 483d c117 4339
00000090: c3e0 efbc f27e c7bd 9846 adbd ee01 21bd
000000a0: 3270 8f3c a0cd 123e a5a9 08be 50ca 9e3d
000000b0: 6f89 803d bb9c 2a3c 8438 6fbd 466a 0a3d
000000c0: a05e 0d3e 22dc 67be 1244 793c 4dc9 99bb
000000d0: e5ae 87bc e964 01be 0c2a 413d 1ea5 d1bc
000000e0: debe 16be d6b7 54bd 8252 7b3d 019b 26bc
000000f0: 6bcc 3b3d de7f e3ba b641 173d 4ffb 323e
00000100: 2326 643c 5f72 6d3d fe79 843c 4322 513d
00000110: acfe 17be 01f4 5f3d 66d4 b83c 2a6a 163d
00000120: 8513 09bd 6c56 10be 3e3f fcbc dd4b 84bd
00000130: 2f7f 4f3d 70cc 8e3c a9f3 813d f225 80bd
00000140: 6249 f43d 1ec0 8cbc b291 503d cabb e83d
00000150: 4a72 b8bd 633d 1a3d 6e53 abbc aed7 473d
00000160: 58c3 a5bc 6844 883d 3eb3 a43d f5e4 923d
00000170: 422b 0cbe 56d2 fb3d cd56 0b3d 2a52 20bd
00000180: 6023 11bc a9a7 34be e24a 843d 5568 bbbd
00000190: c000 d33d 4806 bdbd 24ba 013d 18d1 ab3d
000001a0: 6d50 df3d e538 883d e55c 923d 6ce3 85bc
000001b0: 42fb a5bc 05ea d73c ab8d 11be f76a 9f3d
000001c0: 9353 65bc 04c5 00bb 5149 31bb 2d27 a33d
000001d0: da26 25be 5f24 883d 86b0 e7bd d73c ff3c
000001e0: 57e3 6ebc 8a65 603d c019 5abd e3f5 bfbd
000001f0: a6b7 a5b9 d07b ddbd 4f54 823d 1819 953d
00000200: c6ed 80bd 8554 59bd 9af9 413c 3ffd 023c
00000210: 8561 ccbd 5168 b8bd 143e 2b3c c857 1f3d
00000220: 07b7 eb3a 448e 963d f0e4 cd3d 4990 513d
00000230: 1efb b63d 2257 f0bc bb10 86bb 019d c1bc
00000240: 96fa 8cbd 7202 993d caa0 0fbe 6ae2 d23c
00000250: a155 1bbe b61f 41be 8bfc 583d c469 9c3d
00000260: 4e19 c8bb 8ad4 6d3d 9c64 8ebd 86fc a93b
00000270: 580e 83bc 60e4 3ebd f729 6dbb 129a 83bd
00000280: 2fc0 0ebd b768 c03c 232e 0fbe cf7c 80bb
00000290: 1732 88bc 8b51 a2bd 7440 db3d 305f 1ebd
000002a0: 09a4 fc3d f4a5 2abe 3bd7 9d3c 0c4c 81be
000002b0: 05d7 abbd 456d 8a3d 0dc5 9f3d d487 973d
000002c0: 2485 8ebd ccbc 37bd 2a05 963c b07b 733d
000002d0: e207 cbbc c437 283d 7eea cdbd f0d6 c43c
000002e0: 282e b2bd 8e7a ad3d 5a8c 03be faea 50bd
000002f0: 13dc e03d 5351 953c c55e bcbb 93b7 d8bd
00000300: a3f1 2dbd 6efd 94bd 52a1 d7bd f414 c0bd
00000310: 4eca 0dbe a858 7ebe 5ff1 0d3e f4e4 a8bc
00000320: 37f7 753d 69cf 5fbd f92a 14bd ab14 dbbc
00000330: 4dea f0bb c1f2 59bd 63c0 37be 7d72 e5bd
00000340: 7288 b23c c515 f13c ac14 633d 8af0 023e
00000350: 4fc1 f23d 62ed 65bd 96da aa3c 359f 343e
00000360: 1448 a6bc 35e9 65bd 4bee 3bbd cd4f 1b3d
00000370: 54f3 eb3c ad8b a7bd 95a6 66bd 5241 f83d
00000380: bae3 00bd ba80 d83c 936c 263b 03cd 90bc
00000390: 6eea c0bd ba19 9ebd 2841 923d 8de9 373d
000003a0: 55a9 063d 9698 2abe 946a b73d 20f1 94bd
000003b0: 9963 183d 7ce2 e4bd fcfc db3d fab1 2a3e
000003c0: fba6 afbc b4f6 a73d 235a de3c 2e15 e3bd
000003d0: 9eff 13be 4a9b da3d f887 2b3e 5c8c 0fbc
000003e0: c1fc 15bd d6f8 a33d b07a 46be 6173 febd
000003f0: 76bb bb3c 5b83 53bd 8d5c d4bd e95f 533d

base.mlp.fc1.0.bias f4 [256]
-0.021081254 -0.013721677 0.026069047 -0.0046870336 0.002368458 0.014210162 -0.0070043425 8.4606036e-05
0.015267282 -0.006860994 0.02406205 -0.018345833 -0.0112506095 0.0069779926 0.01794665 0.0058152024
-0.0017584015 -0.030875342 0.0060601505 -0.010419505 -0.0146544 -0.025403392 -0.014653038 0.020288106
0.00391034 -0.008763323 0.01634681 0.008419068 0.026975421 0.0213463 -0.0071697617 -0.015700066
0.0137018105 -0.018335296 -0.010364327 -0.017212667 0.026879234 0.011256122 0.0043808357 -0.01813424
0.011499648 0.01244358 0.014795518 -0.024083998 0.019141193 -0.0029029062 0.004165863 -0.0057818983
-0.004442757 0.009279886 0.014155652 0.038566664 0.004779275 0.017196706 0.03874594 -0.003819546
0.031044714 0.0033094247 0.0046977308 -0.00089503615 0.04454445 -0.015827378 0.012131773 0.0020255072
-0.021483047 -0.035505503 0.023362247 0.0036157263 0.015688334 -0.007348805 -0.030313402 -0.003499805
0.01869353 -0.008974944 -0.019421544 0.05998937 0.007155494 -0.009448805 0.02602232 -0.0059230006
-0.006573781 -0.004707786 0.035488192 0.008604382 -0.003654563 0.00029175373 -0.003755965 0.0037559397
0.0057011475 0.013207895 0.0015265768 -0.031898208 -0.014042767 -0.021048563 0.0031130442 -0.007082649
-0.0067376406 0.013361712 0.008045118 -0.014915631 0.0072898767 0.02119218 -0.025305787 0.0013847612
0.005213222 -0.018994976 -0.01626683 0.0051835477 0.010651246 0.0096317325 0.011988003 -0.030301217
-0.022153715 -0.026431577 0.017721776 0.030275375 -0.008456278 -0.03210223 0.026463114 -0.019025166
0.019816441 0.007845793 -0.012765934 0.041584335 0.012987673 0.00025870246 -0.007857222 0.0011243279
-0.0018431088 0.0027560845 0.016687268 0.013960418 0.010518978 0.036374237 -0.0060101724 0.0024795257
0.012377387 0.020676702 0.013265463 -0.0032124075 -0.0020324825 0.009359199 0.03906706 0.007008977
-0.026789555 0.016405346 0.02303528 -0.012888117 -0.010115723 0.023427207 -0.005707138 0.0084386505
-0.014858554 0.026052142 -0.013639982 -0.0009560788 -0.02470624 0.028676424 -0.0063383034 0.020237666
0.00536833 -0.0058801183 0.015632113 0.023778887 0.00010027455 0.0043322374 0.013621707 -0.014513762
0.03447592 -0.015507647 0.012792202 -0.01251059 0.0004504775 0.007239956 0.016342182 -0.00408745
0.0043521933 -0.028745316 -0.011057626 -0.027014159 0.021087924 -0.005563752 -0.021663953 -0.03084307
0.011686492 0.050759226 0.009117971 -0.030524554 0.044785347 0.020699253 -0.014835508 -0.009777487
0.008788989 -0.00019309936 0.017496483 -0.001985398 0.0021670463 0.0027258482 0.004144513 -9.66593e-06
0.012728469 0.022585772 -0.010726779 0.017892063 -0.009851574 -0.0020056914 0.01905124 0.015327907
-0.010737052 0.037685353 0.027887713 0.0016070715 0.022244506 0.007516312 -0.013813006 -0.0044463524
-0.013262074 0.04989979 0.032945994 0.022637933 -0.016636837 0.018474668 0.014922878 0.018180216
-0.013656769 0.013530555 0.0088438755 -0.005209547 0.012660031 0.0045015966 0.041300952 0.04867062
-0.0002913967 0.011114435 0.00014711684 -0.027633237 0.0026967607 -0.00886979 -0.020746723 -0.009888569
-0.032862496 0.013029045 0.013212192 -0.019041225 -0.031114765 0.0104517145 -0.011238991 -0.011760868
-0.020823125 -0.014322605 0.010574034 -0.0046965056 0.028504299 -0.018985584 -0.0022223615 0.0043313564
00000000: 98b2 acbc e2d0 60bc c18e d53c b095 99bb
00000010: 2238 1b3b bdd1 683c af84 e5bb 856e b138
00000020: 9f23 7a3c 30d2 e0bb c71d c53c 004a 96bc
00000030: 7a54 38bc a5a7 e43b da04 933c 748d be3b
00000040: 2a7a e6ba 49ee fcbc 3a94 c63b 92b6 2abc
00000050: 0219 70bc c61a d0bc 4c13 70bc 3e33 a63c
00000060: 4f22 803b 0a94 0fbc bfe9 853c 21f0 093c
00000070: 8ffb dc3c 70de ae3c 52f0 eabb 6d9d 80bc
00000080: 8f7d 603c e733 96bc 23cf 29bc 9401 8dbc
00000090: d731 dc3c 996b 383c 1d8d 8f3b 428e 94bc
000000a0: 0569 3c3c 28e0 4b3c e668 723c ce4b c5bc
000000b0: fecd 9c3c af3e 3ebb cb81 883b 1476 bdbb
000000c0: 8c94 91bb aa0a 183c 1ced 673c 14f8 1d3d
000000d0: 779b 9c3b 1be0 8c3c 10b4 1e3d 5951 7abb
000000e0: 7c51 fe3c efe2 583b 6cef 993b dca0 6aba
000000f0: 3e74 363d 6ba8 81bc 58c4 463c 5fbe 043b
00000100: 37fd afbc 386e 11bd 2f62 bf3c d2f5 6c3b
00000110: d284 803c 3fce f0bb d053 f8bc fc5c 65bb
00000120: 2c23 993c a50b 13bc ee19 9fbc 6ab7 753d
00000130: a278 ea3b 29cf 1abc c32c d53c bb15 c2bb
00000140: df68 d7bb c543 9abb 115c 113d 65f9 0c3c
00000150: 6581 6fbb 86f6 9839 a326 76bb 3626 763b
00000160: b1d0 ba3b ed65 583c 6b17 c83a b2a7 02bd
00000170: a213 66bc 096e acbc 3704 4c3b 9115 e8bb
00000180: 6dc7 dcbb 15eb 5a3c accf 033c b160 74bc
00000190: ebdf ee3b 399b ad3c 154e cfbc e080 b53a
000001a0: add3 aa3b 5a9b 9bbc 0442 85bc c0da a93b
000001b0: 9082 2e3c 6ace 1d3c 5469 443c 423a f8bc
000001c0: b57b b5bc 0987 d8bc 422d 913c 1004 f83c
000001d0: 338c 0abc a17d 03bd 2cc9 d83c aada 9bbc
000001e0: 1756 a23c a48b 003c 3528 51bc 5654 2a3d
000001f0: 40ca 543c 75a2 8739 94bb 00bc 2f5e 933a
00000200: 7894 f1ba 6d9f 343b bdb3 883c 3dba 643c
00000210: cb57 2c3c 27fd 143d fbf0 c4bb 8a7f 223b
00000220: 86ca 4a3c 3062 a93c 6257 593c 4187 52bb
00000230: 6633 05bb 5357 193c c804 203d 8fab e53b
00000240: c575 dbbc 8164 863c 7cb4 bc3c ae28 53bc
00000250: 6bbc 25bc 6aea bf3c f202 bbbb 4442 0a3c
00000260: 4b71 73bc 4d6b d53c 3b7a 5fbc 5da1 7aba
00000270: be64 cabc d2ea ea3c 8bb1 cfbb 76c9 a53c
00000280: d1e8 af3b 02ae c0bb eb0e 803c f1cb c23c
00000290: 7d4a d238 71f5 8d3b 952d 5f3c 21cb 6dbc
000002a0: 9f36 0d3d c913 7ebc 6296 513c 38f9 4cbc
000002b0: 112e ec39 273d ed3b 0ae0 853c 04f0 85bb
000002c0: d89c 8e3b 4c7b ebbc 0c2b 35bc cc4c ddbc
000002d0: 95c0 ac3c 2250 b6bb 9a78 b1bc 9baa fcbc
000002e0: b378 3f3c e8e8 4f3d 8b63 153c a10e fabc
000002f0: d770 373d 7b91 a93c a110 73bc c131 20bc
00000300: b1ff 0f3c b77a 4ab9 c954 8f3c 731d 02bb
00000310: 0105 0e3b 25a4 323b b2ce 873b da2a 22b7
00000320: 128b 503c cc05 b93c 5fbf 2fbc 6092 923c
00000330: 7f68 21bc eb71 03bb 5911 9c3c e721 7b3c
00000340: 76ea 2fbc f55b 1a3d c674 e43c 5fa4 d23a
00000350: 1c3a b63c 654b f63b f24f 62bc b5b2 91bb
00000360: 2c49 59bc b963 4c3d 61f2 063d 3073 b93c
00000370: fa49 88bc 3058 973c 167f 743c adee 943c
00000380: a4c0 5fbc 43af 5d3c e7e5 103c d9b4 aabb
00000390: 056c 4f3c 2182 933b 302b 293d d85a 473d
000003a0: 9ac6 98b9 5219 363c 6043 1a39 195f e2bc
000003b0: 23bc 303b 9852 11bc 08f5 a9bc aa03 22bc
000003c0: d39a 06bd c777 553c f377 583c 58fc 9bbc
000003d0: 64e4 febc ab3d 2b3c bf23 38bc a8b0 40bc
000003e0: 4295 aabc 5ca9 6abc b73e 2d3c 25e5 99bb
000003f0: d981 e93c a887 9bbc 0aa5 11bb 0dee 8d3b

base.mlp.fc1.2.weight f4 [256]
1.0243251 0.9773943 1.0218998 0.99816775 0.99785084 0.9810677 1.0357287 0.99582297
1.0311599 1.0133418 1.0068212 0.9782449 0.99053943 1.0039413 1.0281069 0.9939462
0.9940362 1.0212929 0.99432695 1.0029442 1.0150214 0.9938506 0.99969673 1.0243307
0.9905876 1.0084394 0.99120367 0.98969597 0.98886275 0.9973567 0.99563634 0.98324734
1.0125377 1.0204606 0.9970208 0.9997071 1.013946 1.0154209 1.0140561 0.9891227
0.99654955 1.0072933 1.02572 0.99149865 1.015974 1.003203 0.9918675 0.9940736
0.99812925 0.98204315 1.000568 1.0082438 0.9922082 1.0107963 1.0035441 0.995207
0.98215723 1.0055124 1.0007 0.99584186 1.0243788 0.9933061 1.0104749 1.0061758
1.0178068 1.0063812 1.0065429 0.9939815 1.0148213 1.0234187 1.0096705 1.0050069
1.0205523 1.0016152 0.98419315 1.0263417 0.9827842 0.9906263 1.0185862 1.0075645
0.9887836 1.0013868 1.027523 0.9881826 0.992249 0.99582016 1.0328363 1.0112504
0.9824853 0.9950723 1.0072409 1.0090854 0.9879351 1.0052515 0.9919861 0.99616987
0.9946833 0.97863483 0.9909366 0.995239 1.0108217 1.0225905 0.9982796 0.99401677
0.99383533 0.99186915 0.99953806 1.0026093 1.0067532 0.9807644 0.9988824 1.0241619
0.9832076 1.0252484 1.0260316 1.0080013 0.99370295 1.0019433 0.99857026 0.9947429
1.0026789 0.98964655 0.98229337 1.0365862 1.0213176 0.9959414 0.9871979 0.9932388
0.99436146 0.991307 1.0159608 1.004777 0.9932183 1.0184395 0.9975847 0.99703264
0.9926035 0.97841555 0.994161 0.9902722 1.0086914 0.9749018 1.0140053 0.9998394
0.99549174 1.0031062 1.0151612 0.98526525 1.0046912 0.99136645 0.9923955 1.0111045
0.9924465 1.0021026 0.99690485 1.0131272 1.0017134 1.0144765 1.0145947 1.0135808
0.9951304 1.0181309 0.98689663 1.0068665 0.99339575 0.9988759 1.0050218 0.9970113
1.0069032 0.99493605 1.0140991 0.99046606 0.99352825 0.9787091 0.98484087 1.0029382
0.9985863 0.99478036 0.97938323 0.9967999 1.0010972 0.98224765 0.98617345 0.97232354
1.0301734 1.0064214 0.99565566 0.98299384 1.0306202 1.0221342 0.9923889 1.0071532
1.0101237 1.0150012 0.9908066 0.9846169 0.99828607 1.002513 0.9951723 1.0038257
0.9919021 1.0032121 0.9922716 0.98811495 0.98065245 0.9959688 1.0018718 1.0071509
1.0121828 1.0027608 1.0060719 1.0234948 1.0065427 1.0043736 1.0076036 0.9914901
0.9890826 1.0127394 0.99099696 1.0131794 1.0070155 1.0001646 1.0059819 0.9960987
1.0072162 1.0048193 1.0058398 0.98650753 1.0137118 0.9897707 1.0172986 1.0216653
0.9903487 1.0029147 0.9882993 0.98545194 0.9915349 1.0010476 0.9950875 1.0072758
0.9947323 1.0111791 0.99654686 0.9993408 0.98539734 0.99226123 0.9875864 0.9947856
0.99114203 0.9930934 0.9990508 0.98832715 1.0294389 0.9872124 0.9888328 0.99151284
00000000: 161d 833f 8336 7a3f 9dcd 823f ec87 7f3f
00000010: 2773 7f3f 4127 7b3f c292 843f 41ee 7e3f
00000020: 0cfd 833f 2fb5 813f 84df 803f 426e 7a3f
00000030: fe93 7d3f 2681 803f 0299 833f 4273 7e3f
00000040: 2879 7e3f bab9 823f 368c 7e3f 7a60 803f
00000050: 39ec 813f fe6c 7e3f 20ec 7f3f 451d 833f
00000060: 2697 7d3f 8b14 813f 86bf 7d3f b75c 7d3f
00000070: 1c26 7d3f c552 7f3f 06e2 7e3f 19b6 7b3f
00000080: d69a 813f 749e 823f c13c 7f3f ceec 7f3f
00000090: fcc8 813f 50f9 813f 97cc 813f 2537 7d3f
000000a0: df1d 7f3f fdee 803f cb4a 833f dbd2 7d3f
000000b0: 700b 823f f568 803f 07eb 7d3f 9c7b 7e3f
000000c0: 6685 7f3f 2e67 7b3f 9d12 803f 220e 813f
000000d0: 5b01 7e3f c661 813f 2274 803f e3c5 7e3f
000000e0: a86e 7b3f a1b4 803f f016 803f 7eef 7e3f
000000f0: d81e 833f 4f49 7e3f 3e57 813f 5eca 803f
00000100: 7e47 823f 19d1 803f 66d6 803f 9275 7e3f
00000110: aae5 813f 62ff 823f e23c 813f 11a4 803f
00000120: 75a1 823f ed34 803f 15f4 7b3f 2a5f 833f
00000130: bf97 7b3f af99 7d3f 0861 823f e0f7 803f
00000140: ec20 7d3f 712d 803f e085 833f 89f9 7c3f
00000150: 0804 7e3f 12ee 7e3f fb33 843f a770 813f
00000160: 2884 7b3f 0fbd 7e3f 45ed 803f b629 813f
00000170: 51e9 7c3f 15ac 803f cdf2 7d3f fd04 7f3f
00000180: 91a3 7e3f d087 7a3f 05ae 7d3f fcc7 7e3f
00000190: 9b62 813f 3fe4 823f 408f 7f3f e277 7e3f
000001a0: fe6b 7e3f 23eb 7d3f bae1 7f3f 8055 803f
000001b0: 4add 803f 6013 7b3f c2b6 7f3f bd17 833f
000001c0: 7eb3 7b3f 573b 833f 0155 833f 3006 813f
000001d0: 5163 7e3f ae3f 803f 4da2 7f3f 78a7 7e3f
000001e0: c857 803f 7a59 7d3f 9477 7b3f dbae 843f
000001f0: 89ba 823f 04f6 7e3f 00b9 7c3f e644 7e3f
00000200: 798e 7e3f 4cc6 7d3f 010b 823f 889c 803f
00000210: 8e43 7e3f 3a5c 823f b661 7f3f 883d 7f3f
00000220: 431b 7e3f 7179 7a3f 5681 7e3f 7b82 7d3f
00000230: cd1c 813f 2a93 793f edca 813f 7af5 7f3f
00000240: 8cd8 7e3f c965 803f cdf0 813f 583a 7c3f
00000250: b999 803f 31ca 7d3f a20d 7e3f df6b 813f
00000260: f910 7e3f e644 803f 2835 7f3f 27ae 813f
00000270: 2538 803f 5eda 813f 3dde 813f 04bd 813f
00000280: dec0 7e3f 1d52 823f 42a5 7c3f 00e1 803f
00000290: 2f4f 7e3f 55b6 7f3f 8ea4 803f 223c 7f3f
000002a0: 34e2 803f 21b4 7e3f 00ce 813f 2f8f 7d3f
000002b0: de57 7e3f ae8c 7a3f 881e 7c3f 4760 803f
000002c0: 5aa3 7f3f eda9 7e3f dcb8 7a3f 472e 7f3f
000002d0: f423 803f 9574 7b3f dd75 7c3f 32ea 783f
000002e0: b9dc 833f 6bd2 803f 4ae3 7e3f 7ca5 7b3f
000002f0: 5deb 833f 4bd5 823f 330d 7e3f 65ea 803f
00000300: bc4b 813f 8feb 813f 80a5 7d3f da0f 7c3f
00000310: ad8f 7f3f 5952 803f 9dc3 7e3f 5c7d 803f
00000320: 4ced 7d3f 4169 803f 8305 7e3f 1af5 7c3f
00000330: 0a0c 7b3f d0f7 7e3f 563d 803f 52ea 803f
00000340: 358f 813f 775a 803f f7c6 803f e101 833f
00000350: 64d6 803f 508f 803f 28f9 803f 4cd2 7d3f
00000360: 8434 7d3f 72a1 813f fab1 7d3f ddaf 813f
00000370: e2e5 803f 6505 803f 04c4 803f 5300 7f3f
00000380: 76ec 803f eb9d 803f 5cbf 803f c28b 7c3f
00000390: 4fc1 813f 9d61 7d3f d736 823f eec5 823f
000003a0: 7e87 7d3f 825f 803f 2f01 7d3f 9446 7c3f
000003b0: 3bd5 7d3f 5422 803f 0ebe 7e3f 6aee 803f
000003c0: c7a6 7e3f 516e 813f b21d 7f3f ccd4 7f3f
000003d0: 0043 7c3f d504 7e3f 76d2 7c3f 45aa 7e3f
000003e0: 7cbb 7d3f 5e3b 7e3f cbc1 7f3f 0203 7d3f
000003f0: a7c4 833f f4b9 7c3f 2524 7d3f c9d3 7d3f

base.mlp.fc1.2.bias f4 [256]
-0.039085627 -0.011696998 0.005364561 -0.0068838666 0.0021235964 0.020256251 -0.024715133 0.0028330823
-0.005806394 -0.024380041 0.011426501 -0.008124083 -0.010772016 -0.0032941587 -0.0042698905 0.013088962
-0.0015443235 -0.029655302 0.020002453 -0.023553008 -0.025473095 -0.02240623 -0.020327745 0.005675309
-0.00010865126 -0.009300673 0.021162858 0.011229843 0.022245225 0.034775913 -0.01567707 -0.013660757
-0.00079738366 -0.02698217 -0.009691844 -0.026504193 0.023964342 0.003266288 -0.021994632 -0.009216052
0.0044881976 0.005412106 0.010397597 -0.026113927 0.003241976 -0.006182147 0.0044792746 -0.0031224147
-0.0055993698 0.009831112 0.008025373 0.03293721 0.004529936 0.008001618 0.050353386 -0.0010335909
0.039787278 -0.012284471 -0.0047135046 -0.0036423572 0.023130674 -0.02561136 0.005624081 -0.005455689
-0.033140894 -0.03857518 0.018283464 0.008224596 0.0017416159 -0.0254466 -0.02886648 -0.017312193
-0.014522272 -0.017308261 -0.016871464 0.02968009 -0.0022602435 -0.0092270505 0.014608849 -0.014266566
-0.001317688 -0.007942067 0.024970284 0.011011736 -0.0072051794 -0.005066646 -0.016061082 -0.012558252
0.017379327 0.0018798852 0.000116455936 -0.036577296 -0.024173891 -0.018850252 -0.009524776 -0.00896122
-0.0075635538 0.018221445 0.009234756 -0.026091602 0.0005598361 0.027753433 -0.030803509 0.0005353703
0.0019190793 -0.029666128 -0.013921429 0.00241333 0.007541506 0.0070006223 7.378569e-05 -0.031239316
-0.017930029 -0.030525789 0.010194756 0.022758765 -0.013356827 -0.04245991 0.02213283 -0.017552515
0.007964517 0.0068684462 -0.0015831727 0.01883583 0.0022965167 -0.014123196 -0.001600103 -0.0013766811
-0.0056562102 -0.002328085 0.0038066295 0.008468562 0.011835761 0.04248127 -0.0062113632 -0.011637501
0.01130515 0.020830065 0.01873553 -0.0028034372 -0.015282919 0.020577107 0.035412136 0.007944631
-0.03134497 0.0072675645 -0.0019637945 -0.0146220755 -0.010362121 0.015212099 -0.0068188533 -0.004805376
-0.014211967 0.027077338 -0.0053910464 -0.016692305 -0.027841914 0.013023217 -0.017280607 0.001320038
-0.0015602754 -0.004995237 0.01574996 0.019182913 -0.0010947065 0.003288298 0.0076277335 -0.013005336
0.03268374 -0.02660177 -0.0072040283 -0.01538214 -0.005506837 0.0049463958 0.009203956 -0.009707613
0.0022169335 -0.029012213 -0.00940711 -0.021356545 0.01731769 0.0015015728 -0.019404674 -0.012685936
-0.016425528 0.036814943 0.00062138087 -0.030349506 0.033619344 0.022527177 -0.010425252 -0.0107530905
0.004174729 -0.010526317 0.022520578 -0.010249706 -0.004509364 -0.0005952495 0.015973825 -0.0071607945
0.0051172725 0.018923111 -0.010149995 0.009785153 -0.0035754822 0.0006443633 0.0128434785 0.0076070516
-0.016345605 0.038218103 0.023775686 -0.0086624315 0.021595394 -0.002958559 -0.031274967 -0.0067146085
-0.010904781 0.03216002 0.03669837 0.011994275 -0.020816073 0.012397182 0.0036718922 0.009984043
-0.0159674 0.019161575 0.0074618696 -0.001543159 0.0062531447 -0.0016062758 0.025614755 0.02691778
0.002984265 0.017420739 0.0014869038 -0.028936084 -0.00155178 -0.009139377 -0.01637589 -0.009874269
-0.032798067 -0.0015582378 0.007103464 -0.01534546 -0.020585313 0.0022018128 -0.011218062 -0.005956196
-0.015104512 -0.015227468 0.006334235 -0.007839121 0.009110273 -0.024472946 -0.00041280146 0.007610409
00000000: 4018 20bd c4a4 3fbc 33c9 af3b 0f92 e1bb
00000010: 092c 0b3b 70f0 a53c 6477 cabc 3cab 393b
00000020: 9043 bebb a7b8 c7bc 3836 3b3c e01a 05bc
00000030: 1c7d 30bc d0e2 57bb 70ea 8bbb 1673 563c
00000040: e66a caba adef f2bc 2fdc a33c 3df2 c0bc
00000050: f4ac d0bc 458d b7bc 5f86 a6bc f1f7 b93b
00000060: b3db e3b8 da61 18bc bb5d ad3c 60fd 373c
00000070: 9e3b b63c 3071 0e3d 336d 80bc 5ed1 5fbc
00000080: 8307 51ba b609 ddbc 8aca 1ebc 521f d9bc
00000090: de50 c43c 380f 563b 162e b4bc ecfe 16bc
000000a0: bb11 933b 0958 b13b af5a 2a3c e0ec d5bc
000000b0: 5577 543b 9c93 cabb e1c6 923b 6da1 4cbb
000000c0: eb7a b7bb ac12 213c db7c 033c 2be9 063d
000000d0: db6f 943b 3819 033c 5a3f 4e3d 8e79 87ba
000000e0: fcf7 223d ce44 49bc be73 9abb 9db4 6ebb
000000f0: 8a7c bd3c eace d1bc 364a b83b a3c5 b2bb
00000100: bfbe 07bd 0201 1ebd 34c7 953c 75c0 063c
00000110: ef46 e43a 6375 d0bc 6579 ecbc 4dd2 8dbc
00000120: d3ee 6dbc 0eca 8dbc 0636 8abc a923 f33c
00000130: 9820 14bb 0e2d 17bc f459 6f3c 51be 69bc
00000140: 46b6 acba 721f 02bc 7b8e cc3c 916a 343c
00000150: 6d19 ecbb 1b06 a6bb 8892 83bc 20c1 4dbc
00000160: 175f 8e3c 7b66 f63a ce39 f438 13d2 15bd
00000170: 5308 c6bc d86b 9abc ce0d 1cbc 15d2 12bc
00000180: b0d7 f7bb 2445 953c 604d 173c 0ebe d5bc
00000190: f7c1 123a 2b5b e33c a457 fcbc 1858 0c3a
000001a0: 9e89 fb3a 6106 f3bc b516 64bc f528 1e3b
000001b0: bd1e f73b 7a65 e53b 64bd 9a38 98e9 ffbc
000001c0: ffe1 92bc 3811 fabc e807 273c 9770 ba3c
000001d0: 98d6 5abc 71ea 2dbd e94f b53c 4bca 8fbc
000001e0: 9b7d 023c b410 e13b 7682 cfba 994d 9a3c
000001f0: 2881 163b fa64 67bc 8cba d1ba c171 b4ba
00000200: bb57 b9bb c992 18bb a578 793b b9bf 0a3c
00000210: c8ea 413c d700 2e3d b188 cbbb 38ab 3ebc
00000220: 3c39 393c d0a3 aa3c 417b 993c dfb9 37bb
00000230: 3565 7abc 5291 a83c 510c 113d 332a 023c
00000240: 9563 00bd c024 ee3b 01b3 00bb 6e91 6fbc
00000250: e3c5 29bc 2b3c 793c b070 dfbb 6a76 9dbb
00000260: 4fd9 68bc 4bd1 dd3c 60a7 b0bb 4dbe 88bc
00000270: ba14 e4bc 555f 553c 0f90 8dbc 2005 ad3a
00000280: 2882 ccba 16af a3bb 0f06 813c 7c25 9d3c
00000290: 417c 8fba 7c80 573b 11f2 f93b 5514 55bc
000002a0: 63df 053d f5eb d9bc c50f ecbb 5f05 7cbc
000002b0: b272 b4bb 6015 a23b 31cc 163c ae0c 1fbc
000002c0: f949 113b 05ab edbc 4720 1abc ecf3 aebc
000002d0: d4dd 8d3c 6cd0 c43a 8df6 9ebc acd8 4fbc
000002e0: d48e 86bc 44cb 163d 2ae4 223a 879f f8bc
000002f0: 70b4 093d ea8a b83c adce 2abc bb2d 30bc
00000300: 2acc 883b 9376 2cbc 137d b83c 62ee 27bc
00000310: 49c3 93bb 850a 1cba 8adb 823c 19a5 eabb
00000320: cbae a73b a404 9b3c 2a4c 26bc e851 203c
00000330: a352 6abb 7dea 283a 746d 523c 9344 f93b
00000340: 38e7 85bc 968a 1c3d 3ac5 c23c dfec 0dbc
00000350: d3e8 b03c 62e4 41bb 2e1a 00bd 3806 dcbb
00000360: f7a9 32bc 3aba 033d 0851 163d a383 443c
00000370: 7886 aabc 8d1d 4b3c 21a4 703b 1d94 233c
00000380: 11ce 82bc bcf8 9c3c b382 f43b d343 caba
00000390: 2ee7 cc3b ac89 d2ba 09d6 d13c ad82 dc3c
000003a0: a993 433b f0b5 8e3c 36e4 c23a 5e0b edbc
000003b0: 1965 cbba 53bd 15bc bb26 86bc b0c7 21bc
000003c0: 4457 06bd c93d ccba 2dc4 e83b 866b 7bbc
000003d0: 88a2 a8bc 4a4c 103b f6cb 37bc 322c c3bb
000003e0: ea78 77bc a17c 79bc 6a8f cf3b a86f 00bc
000003f0: 4143 153c 7d7b c8bc 466d d8b9 bd60 f93b

base.mlp.fc_h.0.weight f4 [256, 256]
-0.087551646 -0.010467715 0.06935266 0.11359232 -0.08479113 -0.060850292 0.08115836 0.15103
0.14361991 -0.13862091 0.06533422 0.018104006 -0.003431645 -0.17414603 -0.12509535 -0.012616128
0.102427796 -0.015421187 -0.01728227 -0.010242304 0.14727533 0.21597005 -0.12653457 0.042964987
0.05006603 0.026115872 0.1363496 0.002607915 -0.011507245 -0.06248687 0.006972493 -0.108408794
0.14195968 -0.022913145 0.18659101 -0.014877732 -0.0002350398 -0.031509925 -0.04802124 0.05415286
-0.07567008 0.0062101353 -0.07023565 0.002534785 -0.058025938 0.06842387 0.050862372 -0.021396592
0.18833795 -0.009026039 0.06943867 -0.059032086 -0.13745952 0.029121514 -0.053431623 0.1320398
-0.05287426 -0.027059013 0.040782098 0.031898867 0.0628456 0.10781474 -0.092984 -0.049736485
0.0062150005 -0.18730654 -0.038046878 -0.12574586 -0.08491167 0.060795847 0.19703877 0.099894606
-0.15952723 0.101434715 -0.0037800795 -0.08100619 0.006984655 -0.17205873 0.0010490218 -0.09697426
-0.105230816 0.15912685 -0.10933654 -0.06257796 0.020445397 -0.027956152 0.014539093 -0.046345696
-0.045087885 0.060716864 0.1562921 0.05137283 0.054981273 -0.031789113 -0.045325067 0.06574692
-0.10999993 -0.026538705 -0.19036679 -0.008786518 0.036268786 -0.058874283 0.05814364 -0.05873445
-0.14975537 -0.078149766 0.24792352 0.06231608 0.00092429674 0.0986134 -0.15294287 -0.02103859
-0.09240006 -0.09115545 -0.013144205 -0.0018847373 0.028821899 0.02094791 -0.074454665 -0.009111449
-0.13319154 -0.069283314 0.053240426 -0.12673762 0.027581265 0.0523717 -0.15180306 -0.13495857
0.06151032 -0.06929707 -0.05156993 0.03959266 0.09727796 0.007836133 0.021631712 -0.05105389
-0.14208764 0.011091839 -0.11657249 0.13288142 -0.22205612 -0.12227108 0.12974766 0.013276876
-0.06048231 0.058041688 0.16224527 -0.038793344 0.034825075 -0.008752615 0.013761286 -0.016131783
-0.12125342 0.08222743 0.07534007 0.06052694 -0.07279198 -0.036421034 0.08948263 -0.031777553
0.14888898 -0.02879364 0.01128151 -0.09553283 -0.032212146 0.008955038 0.019470306 0.14379163
-0.15995283 0.035459235 -0.028611796 0.014026448 -0.07353469 0.048196692 0.14627329 -0.16356361
0.1828152 0.0068047824 -0.034742747 0.011743239 -0.105075434 0.05923767 0.011240169 -0.044070397
0.080694646 -0.119138874 0.1509103 -0.04256285 2.5257816e-05 0.101925306 -0.10290195 0.10730973
-0.04360681 0.11880107 -0.028382361 0.09484896 -0.0027719138 0.016468676 0.02488601 -0.078272305
0.04917205 -0.08632088 0.05955286 -0.08061491 -0.07280408 -0.06738621 -0.06534336 0.13675801
-0.033368774 0.1287536 0.023969265 -0.070807956 0.07390601 0.20457861 -0.022330359 0.10259049
-0.12178321 0.030397305 0.0136703905 -0.060119525 -0.11955188 -0.1061258 0.04387305 -0.030019624
-0.09995989 -0.12815231 -0.014231231 0.10237114 -0.07656265 -0.019364797 0.059623864 0.09885723
-0.06720353 0.062223595 0.057949092 0.040743224 -0.0023798111 0.03703135 0.05843138 0.071522914
-0.022959683 -0.028746177 0.109756336 0.1536976 -0.028427556 0.025808955 0.05800882 -0.040807188
0.020697853 -0.007897258 0.1323271 -0.123391695 -0.025897473 0.06531624 -0.17789157 -0.016778318
00000000: 474e b3bd c780 2bbc c408 8e3d 17a3 e83d
00000010: f9a6 adbd 283e 79bd 5b36 a63d 9ca7 1a3e
00000020: 1911 133e a4f2 0dbe f3cd 853d da4e 943c
00000030: 73e5 60bb 5653 32be ff18 00be e0b3 4ebc
00000040: aac5 d13d 25a9 7cbc 8c93 8dbc 56cf 27bc
00000050: 58cf 163e 4127 5d3e 4792 01be 0efc 2f3d
00000060: 0a12 4d3d f4f0 d53c 3b9f 0b3e 8ee9 2a3b
00000070: e288 3cbc 3bf2 7fbd 8379 e43b 6e05 debd
00000080: e15d 113e 59b4 bbbc b711 3f3e bbc1 73bc
00000090: 0475 76b9 8d10 01bd ebb1 44bd 64cf 5d3d
000000a0: eaf8 9abd 647e cb3b b5d7 8fbd a31e 263b
000000b0: 9bac 6dbd d021 8c3d 1055 503d e847 afbc
000000c0: aadb 403e f4e1 13bc dd35 8e3d a1cb 71bd
000000d0: 30c2 0cbe 3e90 ee3c 1edb 5abd 7135 073e
000000e0: ae92 58bd ddaa ddbc 210b 273d 63a8 023d
000000f0: 32b5 803d f9cd dc3d 656e bebd 7cb8 4bbd
00000100: 34a7 cb3b 49cd 3fbe 0bd7 1bbd 86c3 00be
00000110: 2be6 adbd 1105 793d 88c4 493e 8b95 cc3d
00000120: 1b5b 23be 01bd cf3d 36bb 77bb 93e6 a5bd
00000130: 88df e43b 2a30 30be 557f 893a 719a c6bd
00000140: 4183 d7bd 26f2 223e d6eb dfbd e028 80bd
00000150: 1b7d a73c 4d04 e5bc 6035 6e3c fcd4 3dbd
00000160: 13ae 38bd 3fb2 783d 090b 203e 516c 523d
00000170: 0b34 613d 4d35 02bd c7a6 39bd 52a6 863d
00000180: a547 e1bd b367 d9bc 83ef 42be 54f5 0fbc
00000190: 948e 143d 2926 71bd 0728 6e3d 8993 70bd
000001a0: 7959 19be fc0c a0bd aadf 7d3e 253f 7f3d
000001b0: 814c 723a d2f5 c93d 0e9d 1cbe 1f59 acbc
000001c0: 3e3c bdbd b5af babd cb5a 57bc 4a09 f7ba
000001d0: e71b ec3c f49a ab3c b07b 98bd 3048 15bc
000001e0: 5d63 08be 69e4 8dbd a212 5a3d 82c7 01be
000001f0: 1bf2 e13c b583 563d 4372 1bbe 9432 0abe
00000200: 3ff2 7b3d 9feb 8dbd fe3a 53bd ea2b 223d
00000210: ab39 c73d 2063 003c fd34 b13c e21d 51bd
00000220: 6c7f 11be 8bba 353c 8fbd eebd 1112 083e
00000230: ae62 63be 4369 fabd 92dc 043e 4187 593c
00000240: 4cbc 77bd 1fbd 6d3d a023 263e c5e5 1ebd
00000250: bda4 0e3d 2167 0fbc 0477 613c cd26 84bc
00000260: b753 f8bd db66 a83d e54b 9a3d 19eb 773d
00000270: f613 95bd 392e 15bd ab42 b73d 2e29 02bd
00000280: 5a76 183e a4e0 ebbc 15d6 383c b7a6 c3bd
00000290: e2f0 03bd 27b8 123c 3180 9f3c 1d3e 133e
000002a0: adca 23be b43d 113d 4963 eabc 30cf 653c
000002b0: 5b99 96bd e569 453d aac8 153e 387d 27be
000002c0: e833 3b3e a7fa de3b 694e 0ebd b766 403c
000002d0: ca31 d7bd 33a3 723d b028 383c 2983 34bd
000002e0: 3c43 a53d 15ff f3bd 3b88 1a3e 6256 2ebd
000002f0: bfe0 d337 37be d03d 42be d2bd 34c5 db3d
00000300: 0e9d 32bd fa4d f33d 2082 e8bc 2c40 c23d
00000310: ffa8 35bb 51e9 863c bfdd cb3c 3b4d a0bd
00000320: a268 493d 00c9 b0bd b3ed 733d 6e19 a5bd
00000330: 4e1a 95bd c801 8abd bdd2 85bd 4b0a 0c3e
00000340: b2ad 08bd fcd7 033e 315b c43c c303 91bd
00000350: 095c 973d 0e7d 513e 28ee b6bc f61a d23d
00000360: 7a69 f9bd c503 f93c c6f9 5f3c e43f 76bd
00000370: 9ed7 f4bd 7c58 d9bd 3ab4 333d b7eb f5bc
00000380: c5b7 ccbd 5c3a 03be 1c2a 69bc f6a7 d13d
00000390: e1cc 9cbd eca2 9ebc 2738 743d a975 ca3d
000003a0: 01a2 89bd 2bde 7e3d 075c 6d3d 5ee2 263d
000003b0: 9bf6 1bbb 2fae 173d be55 6f3d 9b7a 923d
000003c0: f215 bcbc 1a7d ebbc eec7 e03d e762 1d3e
000003d0: e8e0 e8bc 4d6d d33c a89a 6d3d 7025 27bd
000003e0: 8b8e a93c 8063 01bc c180 073e c9b4 fcbd
000003f0: f026 d4bc 85c4 853d 3529 36be af72 89bc

base.mlp.fc_h.0.bias f4 [256]
0.0 0.0 0.0 0.0 0.0 0.0 0.0 0.0
0.0 0.0 0.0 0.0 0.0 0.0 0.0 0.0
0.0 0.0 0.0 0.0 0.0 0.0 0.0 0.0
0.0 0.0 0.0 0.0 0.0 0.0 0.0 0.0
0.0 0.0 0.0 0.0 0.0 0.0 0.0 0.0
0.0 0.0 0.0 0.0 0.0 0.0 0.0 0.0
0.0 0.0 0.0 0.0 0.0 0.0 0.0 0.0
0.0 0.0 0.0 0.0 0.0 0.0 0.0 0.0
0.0 0.0 0.0 0.0 0.0 0.0 0.0 0.0
0.0 0.0 0.0 0.0 0.0 0.0 0.0 0.0
0.0 0.0 0.0 0.0 0.0 0.0 0.0 0.0
0.0 0.0 0.0 0.0 0.0 0.0 0.0 0.0
0.0 0.0 0.0 0.0 0.0 0.0 0.0 0.0
0.0 0.0 0.0 0.0 0.0 0.0 0.0 0.0
0.0 0.0 0.0 0.0 0.0 0.0 0.0 0.0
0.0 0.0 0.0 0.0 0.0 0.0 0.0 0.0
0.0 0.0 0.0 0.0 0.0 0.0 0.0 0.0
0.0 0.0 0.0 0.0 0.0 0.0 0.0 0.0
0.0 0.0 0.0 0.0 0.0 0.0 0.0 0.0
0.0 0.0 0.0 0.0 0.0 0.0 0.0 0.0
0.0 0.0 0.0 0.0 0.0 0.0 0.0 0.0
0.0 0.0 0.0 0.0 0.0 0.0 0.0 0.0
0.0 0.0 0.0 0.0 0.0 0.0 0.0 0.0
0.0 0.0 0.0 0.0 0.0 0.0 0.0 0.0
0.0 0.0 0.0 0.0 0.0 0.0 0.0 0.0
0.0 0.0 0.0 0.0 0.0 0.0 0.0 0.0
0.0 0.0 0.0 0.0 0.0 0.0 0.0 0.0
0.0 0.0 0.0 0.0 0.0 0.0 0.0 0.0
0.0 0.0 0.0 0.0 0.0 0.0 0.0 0.0
0.0 0.0 0.0 0.0 0.0 0.0 0.0 0.0
0.0 0.0 0.0 0.0 0.0 0.0 0.0 0.0
0.0 0.0 0.0 0.0 0.0 0.0 0.0 0.0
00000000: 0000 0000 0000 0000 0000 0000 0000 0000
00000010: 0000 0000 0000 0000 0000 0000 0000 0000
00000020: 0000 0000 0000 0000 0000 0000 0000 0000
00000030: 0000 0000 0000 0000 0000 0000 0000 0000
00000040: 0000 0000 0000 0000 0000 0000 0000 0000
00000050: 0000 0000 0000 0000 0000 0000 0000 0000
00000060: 0000 0000 0000 0000 0000 0000 0000 0000
00000070: 0000 0000 0000 0000 0000 0000 0000 0000
00000080: 0000 0000 0000 0000 0000 0000 0000 0000
00000090: 0000 0000 0000 0000 0000 0000 0000 0000
000000a0: 0000 0000 0000 0000 0000 0000 0000 0000
000000b0: 0000 0000 0000 0000 0000 0000 0000 0000
000000c0: 0000 0000 0000 0000 0000 0000 0000 0000
000000d0: 0000 0000 0000 0000 0000 0000 0000 0000
000000e0: 0000 0000 0000 0000 0000 0000 0000 0000
000000f0: 0000 0000 0000 0000 0000 0000 0000 0000
00000100: 0000 0000 0000 0000 0000 0000 0000 0000
00000110: 0000 0000 0000 0000 0000 0000 0000 0000
00000120: 0000 0000 0000 0000 0000 0000 0000 0000
00000130: 0000 0000 0000 0000 0000 0000 0000 0000
00000140: 0000 0000 0000 0000 0000 0000 0000 0000
00000150: 0000 0000 0000 0000 0000 0000 0000 0000
00000160: 0000 0000 0000 0000 0000 0000 0000 0000
00000170: 0000 0000 0000 0000 0000 0000 0000 0000
00000180: 0000 0000 0000 0000 0000 0000 0000 0000
00000190: 0000 0000 0000 0000 0000 0000 0000 0000
000001a0: 0000 0000 0000 0000 0000 0000 0000 0000
000001b0: 0000 0000 0000 0000 0000 0000 0000 0000
000001c0: 0000 0000 0000 0000 0000 0000 0000 0000
000001d0: 0000 0000 0000 0000 0000 0000 0000 0000
000001e0: 0000 0000 0000 0000 0000 0000 0000 0000
000001f0: 0000 0000 0000 0000 0000 0000 0000 0000
00000200: 0000 0000 0000 0000 0000 0000 0000 0000
00000210: 0000 0000 0000 0000 0000 0000 0000 0000
00000220: 0000 0000 0000 0000 0000 0000 0000 0000
00000230: 0000 0000 0000 0000 0000 0000 0000 0000
00000240: 0000 0000 0000 0000 0000 0000 0000 0000
00000250: 0000 0000 0000 0000 0000 0000 0000 0000
00000260: 0000 0000 0000 0000 0000 0000 0000 0000
00000270: 0000 0000 0000 0000 0000 0000 0000 0000
00000280: 0000 0000 0000 0000 0000 0000 0000 0000
00000290: 0000 0000 0000 0000 0000 0000 0000 0000
000002a0: 0000 0000 0000 0000 0000 0000 0000 0000
000002b0: 0000 0000 0000 0000 0000 0000 0000 0000
000002c0: 0000 0000 0000 0000 0000 0000 0000 0000
000002d0: 0000 0000 0000 0000 0000 0000 0000 0000
000002e0: 0000 0000 0000 0000 0000 0000 0000 0000
000002f0: 0000 0000 0000 0000 0000 0000 0000 0000
00000300: 0000 0000 0000 0000 0000 0000 0000 0000
00000310: 0000 0000 0000 0000 0000 0000 0000 0000
00000320: 0000 0000 0000 0000 0000 0000 0000 0000
00000330: 0000 0000 0000 0000 0000 0000 0000 0000
00000340: 0000 0000 0000 0000 0000 0000 0000 0000
00000350: 0000 0000 0000 0000 0000 0000 0000 0000
00000360: 0000 0000 0000 0000 0000 0000 0000 0000
00000370: 0000 0000 0000 0000 0000 0000 0000 0000
00000380: 0000 0000 0000 0000 0000 0000 0000 0000
00000390: 0000 0000 0000 0000 0000 0000 0000 0000
000003a0: 0000 0000 0000 0000 0000 0000 0000 0000
000003b0: 0000 0000 0000 0000 0000 0000 0000 0000
000003c0: 0000 0000 0000 0000 0000 0000 0000 0000
000003d0: 0000 0000 0000 0000 0000 0000 0000 0000
000003e0: 0000 0000 0000 0000 0000 0000 0000 0000
000003f0: 0000 0000 0000 0000 0000 0000 0000 0000

base.mlp.fc_h.2.weight f4 [256]
1.0 1.0 1.0 1.0 1.0 1.0 1.0 1.0
1.0 1.0 1.0 1.0 1.0 1.0 1.0 1.0
1.0 1.0 1.0 1.0 1.0 1.0 1.0 1.0
1.0 1.0 1.0 1.0 1.0 1.0 1.0 1.0
1.0 1.0 1.0 1.0 1.0 1.0 1.0 1.0
1.0 1.0 1.0 1.0 1.0 1.0 1.0 1.0
1.0 1.0 1.0 1.0 1.0 1.0 1.0 1.0
1.0 1.0 1.0 1.0 1.0 1.0 1.0 1.0
1.0 1.0 1.0 1.0 1.0 1.0 1.0 1.0
1.0 1.0 1.0 1.0 1.0 1.0 1.0 1.0
1.0 1.0 1.0 1.0 1.0 1.0 1.0 1.0
1.0 1.0 1.0 1.0 1.0 1.0 1.0 1.0
1.0 1.0 1.0 1.0 1.0 1.0 1.0 1.0
1.0 1.0 1.0 1.0 1.0 1.0 1.0 1.0
1.0 1.0 1.0 1.0 1.0 1.0 1.0 1.0
1.0 1.0 1.0 1.0 1.0 1.0 1.0 1.0
1.0 1.0 1.0 1.0 1.0 1.0 1.0 1.0
1.0 1.0 1.0 1.0 1.0 1.0 1.0 1.0
1.0 1.0 1.0 1.0 1.0 1.0 1.0 1.0
1.0 1.0 1.0 1.0 1.0 1.0 1.0 1.0
1.0 1.0 1.0 1.0 1.0 1.0 1.0 1.0
1.0 1.0 1.0 1.0 1.0 1.0 1.0 1.0
1.0 1.0 1.0 1.0 1.0 1.0 1.0 1.0
1.0 1.0 1.0 1.0 1.0 1.0 1.0 1.0
1.0 1.0 1.0 1.0 1.0 1.0 1.0 1.0
1.0 1.0 1.0 1.0 1.0 1.0 1.0 1.0
1.0 1.0 1.0 1.0 1.0 1.0 1.0 1.0
1.0 1.0 1.0 1.0 1.0 1.0 1.0 1.0
1.0 1.0 1.0 1.0 1.0 1.0 1.0 1.0
1.0 1.0 1.0 1.0 1.0 1.0 1.0 1.0
1.0 1.0 1.0 1.0 1.0 1.0 1.0 1.0
1.0 1.0 1.0 1.0 1.0 1.0 1.0 1.0
00000000: 0000 803f 0000 803f 0000 803f 0000 803f
00000010: 0000 803f 0000 803f 0000 803f 0000 803f
00000020: 0000 803f 0000 803f 0000 803f 0000 803f
00000030: 0000 803f 0000 803f 0000 803f 0000 803f
00000040: 0000 803f 0000 803f 0000 803f 0000 803f
00000050: 0000 803f 0000 803f 0000 803f 0000 803f
00000060: 0000 803f 0000 803f 0000 803f 0000 803f
00000070: 0000 803f 0000 803f 0000 803f 0000 803f
00000080: 0000 803f 0000 803f 0000 803f 0000 803f
00000090: 0000 803f 0000 803f 0000 803f 0000 803f
000000a0: 0000 803f 0000 803f 0000 803f 0000 803f
000000b0: 0000 803f 0000 803f 0000 803f 0000 803f
000000c0: 0000 803f 0000 803f 0000 803f 0000 803f
000000d0: 0000 803f 0000 803f 0000 803f 0000 803f
000000e0: 0000 803f 0000 803f 0000 803f 0000 803f
000000f0: 0000 803f 0000 803f 0000 803f 0000 803f
00000100: 0000 803f 0000 803f 0000 803f 0000 803f
00000110: 0000 803f 0000 803f 0000 803f 0000 803f
00000120: 0000 803f 0000 803f 0000 803f 0000 803f
00000130: 0000 803f 0000 803f 0000 803f 0000 803f
00000140: 0000 803f 0000 803f 0000 803f 0000 803f
00000150: 0000 803f 0000 803f 0000 803f 0000 803f
00000160: 0000 803f 0000 803f 0000 803f 0000 803f
00000170: 0000 803f 0000 803f 0000 803f 0000 803f
00000180: 0000 803f 0000 803f 0000 803f 0000 803f
00000190: 0000 803f 0000 803f 0000 803f 0000 803f
000001a0: 0000 803f 0000 803f 0000 803f 0000 803f
000001b0: 0000 803f 0000 803f 0000 803f 0000 803f
000001c0: 0000 803f 0000 803f 0000 803f 0000 803f
000001d0: 0000 803f 0000 803f 0000 803f 0000 803f
000001e0: 0000 803f 0000 803f 0000 803f 0000 803f
000001f0: 0000 803f 0000 803f 0000 803f 0000 803f
00000200: 0000 803f 0000 803f 0000 803f 0000 803f
00000210: 0000 803f 0000 803f 0000 803f 0000 803f
00000220: 0000 803f 0000 803f 0000 803f 0000 803f
00000230: 0000 803f 0000 803f 0000 803f 0000 803f
00000240: 0000 803f 0000 803f 0000 803f 0000 803f
00000250: 0000 803f 0000 803f 0000 803f 0000 803f
00000260: 0000 803f 0000 803f 0000 803f 0000 803f
00000270: 0000 803f 0000 803f 0000 803f 0000 803f
00000280: 0000 803f 0000 803f 0000 803f 0000 803f
00000290: 0000 803f 0000 803f 0000 803f 0000 803f
000002a0: 0000 803f 0000 803f 0000 803f 0000 803f
000002b0: 0000 803f 0000 803f 0000 803f 0000 803f
000002c0: 0000 803f 0000 803f 0000 803f 0000 803f
000002d0: 0000 803f 0000 803f 0000 803f 0000 803f
000002e0: 0000 803f 0000 803f 0000 803f 0000 803f
000002f0: 0000 803f 0000 803f 0000 803f 0000 803f
00000300: 0000 803f 0000 803f 0000 803f 0000 803f
00000310: 0000 803f 0000 803f 0000 803f 0000 803f
00000320: 0000 803f 0000 803f 0000 803f 0000 803f
00000330: 0000 803f 0000 803f 0000 803f 0000 803f
00000340: 0000 803f 0000 803f 0000 803f 0000 803f
00000350: 0000 803f 0000 803f 0000 803f 0000 803f
00000360: 0000 803f 0000 803f 0000 803f 0000 803f
00000370: 0000 803f 0000 803f 0000 803f 0000 803f
00000380: 0000 803f 0000 803f 0000 803f 0000 803f
00000390: 0000 803f 0000 803f 0000 803f 0000 803f
000003a0: 0000 803f 0000 803f 0000 803f 0000 803f
000003b0: 0000 803f 0000 803f 0000 803f 0000 803f
000003c0: 0000 803f 0000 803f 0000 803f 0000 803f
000003d0: 0000 803f 0000 803f 0000 803f 0000 803f
000003e0: 0000 803f 0000 803f 0000 803f 0000 803f
000003f0: 0000 803f 0000 803f 0000 803f 0000 803f

base.mlp.fc_h.2.bias f4 [256]
0.0 0.0 0.0 0.0 0.0 0.0 0.0 0.0
0.0 0.0 0.0 0.0 0.0 0.0 0.0 0.0
0.0 0.0 0.0 0.0 0.0 0.0 0.0 0.0
0.0 0.0 0.0 0.0 0.0 0.0 0.0 0.0
0.0 0.0 0.0 0.0 0.0 0.0 0.0 0.0
0.0 0.0 0.0 0.0 0.0 0.0 0.0 0.0
0.0 0.0 0.0 0.0 0.0 0.0 0.0 0.0
0.0 0.0 0.0 0.0 0.0 0.0 0.0 0.0
0.0 0.0 0.0 0.0 0.0 0.0 0.0 0.0
0.0 0.0 0.0 0.0 0.0 0.0 0.0 0.0
0.0 0.0 0.0 0.0 0.0 0.0 0.0 0.0
0.0 0.0 0.0 0.0 0.0 0.0 0.0 0.0
0.0 0.0 0.0 0.0 0.0 0.0 0.0 0.0
0.0 0.0 0.0 0.0 0.0 0.0 0.0 0.0
0.0 0.0 0.0 0.0 0.0 0.0 0.0 0.0
0.0 0.0 0.0 0.0 0.0 0.0 0.0 0.0
0.0 0.0 0.0 0.0 0.0 0.0 0.0 0.0
0.0 0.0 0.0 0.0 0.0 0.0 0.0 0.0
0.0 0.0 0.0 0.0 0.0 0.0 0.0 0.0
0.0 0.0 0.0 0.0 0.0 0.0 0.0 0.0
0.0 0.0 0.0 0.0 0.0 0.0 0.0 0.0
0.0 0.0 0.0 0.0 0.0 0.0 0.0 0.0
0.0 0.0 0.0 0.0 0.0 0.0 0.0 0.0
0.0 0.0 0.0 0.0 0.0 0.0 0.0 0.0
0.0 0.0 0.0 0.0 0.0 0.0 0.0 0.0
0.0 0.0 0.0 0.0 0.0 0.0 0.0 0.0
0.0 0.0 0.0 0.0 0.0 0.0 0.0 0.0
0.0 0.0 0.0 0.0 0.0 0.0 0.0 0.0
0.0 0.0 0.0 0.0 0.0 0.0 0.0 0.0
0.0 0.0 0.0 0.0 0.0 0.0 0.0 0.0
0.0 0.0 0.0 0.0 0.0 0.0 0.0 0.0
0.0 0.0 0.0 0.0 0.0 0.0 0.0 0.0
00000000: 0000 0000 0000 0000 0000 0000 0000 0000
00000010: 0000 0000 0000 0000 0000 0000 0000 0000
00000020: 0000 0000 0000 0000 0000 0000 0000 0000
00000030: 0000 0000 0000 0000 0000 0000 0000 0000
00000040: 0000 0000 0000 0000 0000 0000 0000 0000
00000050: 0000 0000 0000 0000 0000 0000 0000 0000
00000060: 0000 0000 0000 0000 0000 0000 0000 0000
00000070: 0000 0000 0000 0000 0000 0000 0000 0000
00000080: 0000 0000 0000 0000 0000 0000 0000 0000
00000090: 0000 0000 0000 0000 0000 0000 0000 0000
000000a0: 0000 0000 0000 0000 0000 0000 0000 0000
000000b0: 0000 0000 0000 0000 0000 0000 0000 0000
000000c0: 0000 0000 0000 0000 0000 0000 0000 0000
000000d0: 0000 0000 0000 0000 0000 0000 0000 0000
000000e0: 0000 0000 0000 0000 0000 0000 0000 0000
000000f0: 0000 0000 0000 0000 0000 0000 0000 0000
00000100: 0000 0000 0000 0000 0000 0000 0000 0000
00000110: 0000 0000 0000 0000 0000 0000 0000 0000
00000120: 0000 0000 0000 0000 0000 0000 0000 0000
00000130: 0000 0000 0000 0000 0000 0000 0000 0000
00000140: 0000 0000 0000 0000 0000 0000 0000 0000
00000150: 0000 0000 0000 0000 0000 0000 0000 0000
00000160: 0000 0000 0000 0000 0000 0000 0000 0000
00000170: 0000 0000 0000 0000 0000 0000 0000 0000
00000180: 0000 0000 0000 0000 0000 0000 0000 0000
00000190: 0000 0000 0000 0000 0000 0000 0000 0000
000001a0: 0000 0000 0000 0000 0000 0000 0000 0000
000001b0: 0000 0000 0000 0000 0000 0000 0000 0000
000001c0: 0000 0000 0000 0000 0000 0000 0000 0000
000001d0: 0000 0000 0000 0000 0000 0000 0000 0000
000001e0: 0000 0000 0000 0000 0000 0000 0000 0000
000001f0: 0000 0000 0000 0000 0000 0000 0000 0000
00000200: 0000 0000 0000 0000 0000 0000 0000 0000
00000210: 0000 0000 0000 0000 0000 0000 0000 0000
00000220: 0000 0000 0000 0000 0000 0000 0000 0000
00000230: 0000 0000 0000 0000 0000 0000 0000 0000
00000240: 0000 0000 0000 0000 0000 0000 0000 0000
00000250: 0000 0000 0000 0000 0000 0000 0000 0000
00000260: 0000 0000 0000 0000 0000 0000 0000 0000
00000270: 0000 0000 0000 0000 0000 0000 0000 0000
00000280: 0000 0000 0000 0000 0000 0000 0000 0000
00000290: 0000 0000 0000 0000 0000 0000 0000 0000
000002a0: 0000 0000 0000 0000 0000 0000 0000 0000
000002b0: 0000 0000 0000 0000 0000 0000 0000 0000
000002c0: 0000 0000 0000 0000 0000 0000 0000 0000
000002d0: 0000 0000 0000 0000 0000 0000 0000 0000
000002e0: 0000 0000 0000 0000 0000 0000 0000 0000
000002f0: 0000 0000 0000 0000 0000 0000 0000 0000
00000300: 0000 0000 0000 0000 0000 0000 0000 0000
00000310: 0000 0000 0000 0000 0000 0000 0000 0000
00000320: 0000 0000 0000 0000 0000 0000 0000 0000
00000330: 0000 0000 0000 0000 0000 0000 0000 0000
00000340: 0000 0000 0000 0000 0000 0000 0000 0000
00000350: 0000 0000 0000 0000 0000 0000 0000 0000
00000360: 0000 0000 0000 0000 0000 0000 0000 0000
00000370: 0000 0000 0000 0000 0000 0000 0000 0000
00000380: 0000 0000 0000 0000 0000 0000 0000 0000
00000390: 0000 0000 0000 0000 0000 0000 0000 0000
000003a0: 0000 0000 0000 0000 0000 0000 0000 0000
000003b0: 0000 0000 0000 0000 0000 0000 0000 0000
000003c0: 0000 0000 0000 0000 0000 0000 0000 0000
000003d0: 0000 0000 0000 0000 0000 0000 0000 0000
000003e0: 0000 0000 0000 0000 0000 0000 0000 0000
000003f0: 0000 0000 0000 0000 0000 0000 0000 0000
