Training_Parameter_Storage/0517/hd003formthres_5v1_vel0108_collide_001/critic_prey.pt (torch, 829249 bytes, 19 tensors)

base.feature_norm.weight f4 [22]
00000000: 330a 8d3f 1f61 833f 8306 7a3f ed70 7b3f
00000010: 5c40 733f f09d 773f 26d2 733f 4516 7b3f
00000020: 76ea 803f 000b 7c3f db8d 723f 8a25 793f
00000030: 5507 8c3f 2d34 8d3f e473 893f 78ea 8a3f
00000040: 5017 863f 6099 873f aeb6 883f fbc6 873f
00000050: bbb3 853f 9137 803f
1.1018738 1.0264014 0.97666186 0.98219186 0.9502008 0.9672537 0.95242536 0.98080856
1.0071552 0.98454285 0.94747704 0.97322905 1.0939738 1.1031548 1.0738492 1.0852804
1.0475864 1.0593681 1.068075 1.0607599 1.0445474 1.0016958

base.feature_norm.bias f4 [22]
00000000: fb56 883c 1960 3e3c 5218 6f3c 0699 eabb
00000010: 9796 24bc 446a c63c 36f9 cbbc 0ebd 043d
00000020: e55d 9d3c 4553 843d 2394 b33c c2d1 c63c
00000030: 43d0 e43a 94c6 62bd 54da ac3c 5ff8 813c
00000040: 8f35 a939 549c 183c 522d 6bbc 34d0 6d3c
00000050: 7a38 f43c c19e 4bbc
0.016643038 0.011619591 0.014593201 -0.007159355 -0.010045669 0.024220593 -0.024899106 0.03240686
0.019209811 0.06461195 0.021921223 0.024269942 0.0017457086 -0.05536516 0.0211002 0.015865503
0.00032274096 0.009314615 -0.014354067 0.0145149715 0.029812086 -0.012427987

base.mlp.fc1.0.weight f4 [256, 22]
00000000: 1e4c 07be 193a 45bd 4412 2e3d 6586 abbd
00000010: c6d1 0e3d 32fc d03c 2660 0abd f44a 593b
00000020: 800b 2fbd 9602 dcbd 93bf 723c ef79 a4bb
00000030: e08d 023d 5a27 97bd 33b9 92bd 2fcb 573d
00000040: 09fd 77bb 6af1 dcbd 326d 3b3d f8a1 56bd
00000050: 17a4 2b3d 5ae8 6c3d 40ac e73d 6647 133c
00000060: 7a6b f03c 2c7b 163e 055a 6b3d 5a7b df3d
00000070: a32a 7bbd 1212 a4bd 91ce 5ebd 506f c23c
00000080: bbb1 4cba 4833 a83d 270c ff3c 66b2 5e39
00000090: ddc8 01bd 6a27 d3bd 15e3 96bd 418e 16bd
000000a0: 4aa6 653c f29e 083e 7be8 06be 691b 9e3d
000000b0: c0e3 923d d5c5 c8bb f19f 52bd b3e0 5f3c
000000c0: efe4 f93d 62a7 59be 7df6 0a3c dafa 893b
000000d0: 5441 f7bb de0e 00be 0cda 7f3d f665 c5bc
000000e0: f880 16be e5bc 1bbd 8ca4 613d 0858 bcbc
000000f0: 8ebf 833d ab2b e6ba aa28 0b3d 5b51 2e3e
00000100: ee2d 403b d9a3 5f3d 2a80 ba3c 5a3c 7d3d
00000110: a0fe 0fbe 2696 363d c14f 4e3c d6cb 043d
00000120: 9767 1bbd fd66 fbbd c5ce 00bd 552b 62bd
00000130: b799 4e3d 8726 a13c 01a4 443d 94cb 63bd
00000140: 5af9 0c3e 82ef c6bc 74a0 4b3d 3d5b f13d
00000150: 32f7 adbd 0f97 3e3d edc0 dfbc 09c0 473d
00000160: 585a c0bc 5f7b 9e3d 762f b43d 255e 803d
00000170: 808d 16be d97d 0b3e 004f 933c 181f f3bc
00000180: a96f aebc 07d7 2cbe 0893 773d f804 90bd
00000190: fa41 c63d bf3a a6bd 5f3e 8cba c160 c03d
000001a0: 90c7 b73d ffe1 923d a960 873d 432b 5cbc
000001b0: a05f 18bd 7fcd fe3c dc5d 22be 3936 bf3d
000001c0: 6697 adbc f65e 243c 92bc ef3b b855 a13d
000001d0: c532 26be 3318 893d fa3a dfbd 5f33 cc3c
000001e0: dbf1 49bc b6c6 4c3d a57c 4fbd 7c46 e9bd
000001f0: 679f d4ba 6753 fabd d368 6f3d cdf4 9d3d
00000200: 09de 7cbd e1ff 29bd 37d7 853c 0154 833c
00000210: b312 d0bd 29e1 b9bd 1299 823c 1abd 583d
00000220: 47fe 783c fabb 9b3d 6824 d93d 89dc 1d3d
00000230: c998 ba3d c1fd 2abd b1c8 c9bb 2eee ddbc
00000240: 9142 a2bd adcd 883d c439 3abe 21ae 5f3d
00000250: 90dd 31be 15cf 40be 0042 323d 0d82 9d3d
00000260: 0785 aebc 21de 983d ae46 abbd cbbb bfbb
00000270: 7992 a4bc 165f 34bd 4452 f33a 7b66 8ebd
00000280: 64cb acbc 2f5c ba3c ce23 11be 50ac 363b
00000290: 0d04 83bc 8ae1 8dbd 12e4 e53d 8665 2fbd
000002a0: 5230 d63d 153b 32be 595c eb3b 2121 93be
000002b0: 4d9f cdbd 4212 893d a000 ae3d bc01 7a3d
000002c0: a2f8 9cbd 5e0f 8fbc 5aec c53c 3adb a23d
000002d0: 9046 debc 3c14 113d 16bd e5bd 49d1 a63c
000002e0: 90fe b2bd b29b ad3d 502e 17be ab43 8fbd
000002f0: 4e9b df3d d3de 973b ead6 663c 2bce c0bd
00000300: 0400 fabc 80c0 1bbd 3110 c5bd abef 97bd
00000310: 21cd 13be fa73 7cbe 8b6f 183e 0ca9 afba
00000320: 802e 683d 68c9 3fbd 24b6 fabc baae 28bd
00000330: eb90 f8bb c2a3 56bd 29c0 31be 737d f3bd
00000340: bbb5 023d 7e89 cd3c f094 823d 51df ec3d
00000350: a7a5 d23d 47a0 58bd 71ec a63c f41d 3f3e
00000360: 8171 9bbc 577e 89bd fe06 84bd dbb9 083d
00000370: e091 573d 14d5 babd deb7 67bd fb69 c43d
00000380: 9e16 15bd 14bc 773d c8a1 7abc 3785 233c
00000390: f65c dabd 6db7 95bd 8266 3f3d c31e 7b3d
000003a0: 66f2 a03c 4dc1 20be 274b d93d 501b 95bd
000003b0: 8d25 293d bf9d eebd 7e16 ed3d 13bd 493e
000003c0: 0e3d 6abc c03d c73d 8d4c 113d 82cd 04be
000003d0: 7640 10be d4e8 b23d 78a1 1e3e b3d3 c73a
000003e0: c15e 2bbd 6596 b33d 0e4a 39be 3cfc f6bd
000003f0: 2c39 703c 70d6 15bd 5039 e2bd d362 8f3d
-0.1321263 -0.04815111 0.04249789 -0.08375243 0.034868024 0.025510881 -0.0337831 0.0033156248
-0.042735577 -0.10742681 0.014816183 -0.0050194184 0.031873584 -0.073805526 -0.0716423 0.052684005
-0.003784003 -0.107882336 0.045758434 -0.05240056 0.041904535 0.057838775 0.11312151 0.008989191
0.029348124 0.14695424 0.057458896 0.10912199 -0.06131996 -0.08011259 -0.054396216 0.023734719
-0.00078084663 0.08212906 0.031133724 0.00021238028 -0.0316857 -0.10310252 -0.07367531 -0.036756758
0.014016697 0.13341883 -0.13174622 0.07720072 0.07172346 -0.006127099 -0.051422063 0.013664412
0.12201869 -0.21255258 0.008481619 0.004210812 -0.0075456295 -0.12505671 0.062463805 -0.02409647
-0.14697635 -0.03802194 0.055088565 -0.022991195 0.064330205 -0.0017560621 0.033974327 0.17023222
0.0029324251 0.054599617 0.022766192 0.061825134 -0.14061975 0.044576786 0.012592257 0.032420956
-0.037940588 -0.12275503 -0.03144719 -0.055217106 0.050439563 0.019671692 0.04800797 -0.05561407
0.13766995 -0.024284128 0.049713567 0.117849804 -0.084944144 0.04653078 -0.027313674 0.048767123
-0.02348058 0.07738375 0.08798115 0.06267957 -0.14702415 0.13622226 0.017982006 -0.029677913
-0.021293478 -0.16878901 0.060442954 -0.07032198 0.09680553 -0.08116674 -0.001069974 0.09393454
0.089736104 0.071720116 0.06610233 -0.013438049 -0.03720057 0.031103848 -0.15856117 0.09336514
-0.021190356 0.010032406 0.0073161805 0.07877678 -0.16230305 0.06694069 -0.10899921 0.02492684
-0.012325729 0.049994193 -0.05065598 -0.11390397 -0.0016221822 -0.12222939 0.058449578 0.07712708
-0.061735187 -0.04150379 0.016337974 0.016031267 -0.101598166 -0.09076149 0.01594213 0.052914716
0.015197343 0.07604213 0.10602647 0.038540397 0.09111173 -0.041745905 -0.0061579575 -0.027091112
-0.07922853 0.066798545 -0.18186098 0.05460942 -0.17369676 -0.18828996 0.043519974 0.07690821
-0.021303667 0.07464243 -0.083630905 -0.005851244 -0.020089375 -0.044035994 0.0018563946 -0.0695314
-0.021093078 0.022749035 -0.14173815 0.0027873702 -0.015993143 -0.06927784 0.112251416 -0.04282143
0.10458435 -0.1740535 0.0071826396 -0.28736213 -0.1004015 0.066929355 0.08496213 0.06103681
-0.076646104 -0.017463382 0.024160553 0.079519704 -0.027133256 0.035419688 -0.11217706 0.020363467
-0.0873996 0.08476962 -0.1476376 -0.069953285 0.10918294 0.004634717 0.014089325 -0.094143234
-0.030517586 -0.03802538 -0.09622229 -0.0741876 -0.14433719 -0.24653617 0.148863 -0.001340182
0.05668497 -0.046822935 -0.03060443 -0.041182257 -0.007585635 -0.052402265 -0.1735846 -0.11889162
0.031911593 0.025089975 0.06376064 0.11566032 0.10285502 -0.052887227 0.020376416 0.1866377
-0.018975021 -0.067135505 -0.06446646 0.03338037 0.05262935 -0.09122673 -0.056571834 0.09590527
-0.036398523 0.0604821 -0.015297361 0.009980491 -0.10662262 -0.07310376 0.04672862 0.061308634
0.019646835 -0.15698738 0.10610037 -0.072806 0.041295577 -0.116511814 0.11576556 0.19701032
-0.014296783 0.09728575 0.035473395 -0.1296902 -0.1408709 0.08735815 0.15491283 0.0015245586
-0.04183841 0.0876892 -0.18094656 -0.12059829 0.014662068 -0.036581457 -0.11046088 0.07001271

base.mlp.fc1.0.bias f4 [256]
00000000: 0a4f 29bd 8f97 bbbc 190d c73b 5263 a3bc
00000010: 0fcd 90bb 92bd ec3c 64c0 4f3b bc4d c43b
00000020: ea61 e93c 9209 17bc 47b4 bb3b 299e 06bd
00000030: 486d 8bbb 0ad1 fdbb b7a9 e33a 2669 29bc
00000040: 1b0e 03bc 9307 52bd 397b 5e3c 364f b6bc
00000050: 3916 a0bb af47 22bd e31d 62bc 05c7 ec3c
00000060: 7cf9 dc3c 299d eaba bbb8 a03c 10fa bf3b
00000070: 4b16 e03c 81e4 e53c 16e1 d2bc 88b5 b5bc
00000080: a9de b73c adcc 09bd 4481 c8bc 979e 24bd
00000090: 46cf 083d 509c 5d3c 7669 1abb 2469 a6bc
000000a0: afab bc3b fa9b 9e3c deb6 973c 2467 b4bc
000000b0: 2f0e 4b3d 7ab9 443c b5e8 cc3c cf91 4a3b
000000c0: fb40 603b d899 6d3c 59aa 813c b142 843d
000000d0: b26a 05bc dff0 813c aed5 853d 4051 813c
000000e0: 8170 253d c618 073c 5f8f 163b 24a4 d33b
000000f0: 7688 6f3d 1f4a e2bc 9e04 943b d191 913c
00000100: 0210 21bd 4da8 42bd 0799 273d 34a3 663c
00000110: b97e 823c e797 12ba 460a 62bd 0abc 1abb
00000120: 18d3 5abc 341b e6bc 9d83 c3bc 1cec d73d
00000130: bfa5 b03b 3b8a 8abb 444d d33c 1f4e 3a3b
00000140: 1e1e 31bb 07bb a2bc f23b 863d 5fff d13b
00000150: 0f75 86bc d377 8d3c c56a 6d3b 9b6f 5c3c
00000160: e5c8 b83c 2b4f e9b9 00c8 60bb 8dcc 39bd
00000170: 2798 fb3b 9ae2 3dbd 6042 4dba acca 6cbc
00000180: 0630 a5bc 71c1 983c 662d 423b 284a 4cbc
00000190: 0996 1fbc 09e1 dd3c aeef db39 b7d2 2a3c
000001a0: 81b9 a8bb 56e2 01bd 6e7d 01bd 3983 8c3b
000001b0: a2eb 563c e5a6 843c 2fc7 423c 86fa 25bd
000001c0: 8daa 8ebc fbff 29bd 3250 ed3c 23fc b93c
000001d0: d4c8 97bc 6bad 3bbd 99a6 253d 5e9c acbc
000001e0: 8ff1 0c3d d20d 2c3b feb1 28bb 27df 623d
000001f0: f2fc f43b e4c8 183c 946a 233b 2b6e b6bc
00000200: 5e6d dfbb a33d 1abc 2dec 783b fe78 c83a
00000210: c394 2d3d 6c82 473d d30f 0f3c 3bad 523b
00000220: c76b 033d b9b9 793c afe6 853c e32f 8b3c
00000230: 1b89 c43b c5c7 603c 801c a13d 8af0 1f3c
00000240: bce4 2fbd d964 743c ebf4 fc3c 596b 94bc
00000250: 0754 a2bc 9e39 f53c 1816 043c 5536 fe3b
00000260: c606 b0bc 72af ea3c 6a5d 8abc d560 07bc
00000270: 7f4a 34bd cf68 d43c 7acf 02bd 378b 383c
00000280: 70b4 ca3c 8caf 51bc bb75 273d d381 163d
00000290: 804c a6b9 7671 0ebb 9846 c43c 748b cbbc
000002a0: 05e1 783d 2af8 eebc 538a 853c 6604 1abd
000002b0: 2691 a93c fe60 233a 1847 943c bb21 87bc
000002c0: 4d7b aabc a914 1abd 352d 0abc 0217 33bd
000002d0: be90 ce3c b2d5 3fbc 41ba 96bc 9590 16bd
000002e0: a475 993c 1597 b23d 084f 683c 2f78 1dbd
000002f0: 3efb 6d3d 8c96 363d 975b 21bc 3f6f c1bc
00000300: 5352 083d 60cf 11bc 9eb6 e43b f567 7ebc
00000310: 92a3 de3c 77c4 1f3c 858b 3cbc e1d4 43bc
00000320: 7543 bdba f184 203d 33c0 21bc 6d9a 843c
00000330: b761 1abc 055a 32bc 9ef7 f53b 586b 133d
00000340: e5ae 6ebc 0c81 813d 2a6e 1b3d 9780 253c
00000350: 3930 953c 4c01 04bc c104 adbc d6dd 07bd
00000360: db2a edbb 4d17 573d 6671 093d fe0b 4dbb
00000370: 03cf 30bd 207a df3c d7be 033d 3374 003d
00000380: 76b2 2dbc dd7f 253d 4f24 873c 5baa 6abc
00000390: 18bd e73c f68c 863b 2569 753d 658f 043d
000003a0: d675 a9bc 1fe3 f63c 1118 383c 2dbf 4dbd
000003b0: 09f9 c1ba 5d26 63bb ad45 01bd 7b3a 5dba
000003c0: 5831 46bd e2cb b03c d0ef 253d b73a 04bd
000003d0: 3d02 1cbd c747 4d3c 8316 b5bc 64a5 92bc
000003e0: 9fc0 a7bc 8c4c b5bc b360 d33c 8728 9bbc
000003f0: 828c 143d 1514 90bc 1cf7 933c 29f8 3bbb
-0.041335143 -0.022899417 0.0060745594 -0.01994482 -0.004418976 0.028898988 0.0031700367 0.005990712
0.028489072 -0.00921859 0.005728278 -0.032865677 -0.0042549707 -0.0077458667 0.0017369305 -0.010340011
-0.0079989685 -0.051276755 0.013579183 -0.022254568 -0.0048854616 -0.039619144 -0.013801071 0.028903494
0.026974432 -0.001789962 0.019619336 0.005858667 0.02735438 0.02806306 -0.025742095 -0.022181287
0.02244504 -0.03364246 -0.024475701 -0.040190306 0.033400796 0.013526037 -0.0023561395 -0.020313807
0.005757771 0.019361485 0.018519815 -0.022021838 0.049574073 0.012007112 0.025013307 0.0030909663
0.003421842 0.014502011 0.015828298 0.06458033 -0.008143114 0.015861927 0.06534897 0.015785813
0.040390495 0.008245653 0.002297364 0.006458776 0.05847975 -0.027623234 0.004517152 0.017769726
-0.039321907 -0.047523785 0.040917423 0.014076997 0.015929567 -0.0005592093 -0.05518558 -0.0023610615
-0.013355993 -0.028089143 -0.023866469 0.10543081 0.005390852 -0.004227904 0.025793679 0.0028427911
-0.0027026008 -0.019864572 0.065544024 0.0064086164 -0.01641324 0.01726905 0.003622697 0.013454343
0.022556731 -0.00044500208 -0.0034298897 -0.04536109 0.00767805 -0.046358682 -0.000783002 -0.014452618
-0.0201645 0.018646928 0.002962911 -0.012468852 -0.009740361 0.027084844 0.0004194951 0.010426215
-0.005149067 -0.03170999 -0.03161376 0.004288104 0.013117703 0.016192863 0.011888309 -0.04052212
-0.01741531 -0.041503888 0.028968904 0.022703236 -0.01852838 -0.04581968 0.040442083 -0.021070655
0.034410056 0.0026253355 -0.0025740857 0.055388596 0.0074764425 0.00932524 0.0024935352 -0.022269329
-0.0068184575 -0.009414109 0.0037982569 0.0015294848 0.0423782 0.048708364 0.0087318 0.003214671
0.032085206 0.015242034 0.01634535 0.016990608 0.0059977896 0.013719504 0.07866764 0.009761939
-0.042942747 0.014916622 0.030878505 -0.018117594 -0.019815458 0.0299347 0.008061908 0.0077579417
-0.021487605 0.028648112 -0.016890246 -0.008262833 -0.044016358 0.025928883 -0.031936146 0.01126366
0.024744242 -0.012798201 0.04088376 0.036744904 -0.00031718984 -0.0021735108 0.023959443 -0.02484677
0.06076147 -0.029171068 0.01630131 -0.03760185 0.020699095 0.00062324095 0.018100306 -0.016495576
-0.020810748 -0.03761736 -0.00843363 -0.043723114 0.025215503 -0.011708664 -0.01839936 -0.036758978
0.018732853 0.08720223 0.014178999 -0.038444694 0.05810093 0.044577166 -0.009848497 -0.023612617
0.033281635 -0.00889954 0.0069797775 -0.015527715 0.027177606 0.009751431 -0.011507873 -0.01195261
-0.001443966 0.039189283 -0.009872484 0.016186917 -0.009422711 -0.01088572 0.007506325 0.035991043
-0.014568065 0.06323442 0.037946858 0.010101459 0.01821147 -0.00805695 -0.02112043 -0.033170544
-0.007237775 0.052512456 0.03355541 -0.0031287665 -0.04316617 0.027279913 0.03216442 0.031360816
-0.01060163 0.040405143 0.016496805 -0.0143228425 0.02828841 0.0041061593 0.059914727 0.032363314
-0.020686071 0.030137597 0.011236207 -0.050231148 -0.001479895 -0.0034660317 -0.03156059 -0.0008439195
-0.0483869 0.021581594 0.040511906 -0.032282557 -0.038088072 0.01252932 -0.022105461 -0.01790113
-0.020477591 -0.022131227 0.025802946 -0.018940223 0.03626681 -0.0175877 0.018062167 -0.002868185

base.mlp.fc1.2.weight f4 [256]
00000000: a53d 833f 11d3 7a3f e3de 803f ba2b 7d3f
00000010: ad90 7d3f c142 7a3f 53d1 853f b0a5 7e3f
00000020: ae86 853f 5e8b 813f 93a3 803f cc62 773f
00000030: ca9f 7d3f 96ad 7b3f c17f 823f 3dac 7a3f
00000040: 382d 7c3f ebf3 843f 03f2 7d3f f3d9 803f
00000050: 2baa 823f 3b79 813f 5269 823f 5c7c 823f
00000060: 2bfb 803f 58c5 803f 72de 7e3f 1543 7b3f
00000070: 8d20 7c3f 8c30 803f 0d58 7d3f 7292 7c3f
00000080: d494 813f 93a8 823f 21a6 7c3f 927b 813f
00000090: be80 823f f91c 833f 7d90 823f 9cbe 7e3f
000000a0: f95f 7c3f b8dd 823f 67e3 833f 282b 7e3f
000000b0: aad6 833f 9345 7f3f bda2 7f3f 0b0e 803f
000000c0: 99fe 7f3f 5a85 7b3f 243a 7e3f ec7d 803f
000000d0: 8728 7e3f 1fcf 813f 93e2 823f b549 803f
000000e0: 7120 7a3f dde6 813f d64e 813f 40e5 7e3f
000000f0: 1505 843f c21c 7e3f 0053 803f 72d7 813f
00000100: 911e 853f 66e7 843f 30c8 803f 7c2a 7e3f
00000110: 6c7a 813f c348 843f b1b3 823f a5aa 813f
00000120: 6ed1 803f b636 7f3f dd35 7e3f ae02 833f
00000130: 5700 7b3f 7dda 7c3f 3127 833f a11e 813f
00000140: 25a9 7d3f 351e 7c3f 2917 843f 3292 7c3f
00000150: 5f78 7c3f f488 7c3f f30c 833f 2e23 813f
00000160: 055f 7d3f 503e 7b3f 21ee 803f 92b4 853f
00000170: 91e6 793f 55ef 823f ada4 7e3f bb17 7d3f
00000180: e973 803f 75fc 7b3f 68aa 7b3f 9ff5 803f
00000190: e0f6 7f3f 2aad 833f 5004 823f a544 803f
000001a0: 1b61 7b3f 01ae 7d3f 2236 7e3f b134 7f3f
000001b0: b2fc 7f3f 428a 773f 1b9a 7f3f aa00 843f
000001c0: c97a 793f ffd1 833f e7a7 833f 432d 813f
000001d0: 3d54 7d3f 8ff6 803f 0767 823f 2ace 7d3f
000001e0: 6bde 813f 2726 793f 802d 7a3f 0a8c 853f
000001f0: 0b1e 833f 731a 7f3f 6434 7e3f c0ff 7a3f
00000200: 8b9a 7c3f dd95 7d3f 6bb3 823f cc3c 7d3f
00000210: ca85 803f e931 7f3f da1d 7f3f c37c 803f
00000220: 72f8 7f3f 88ca 783f aea6 7c3f 212b 813f
00000230: 3dbc 813f d4fe 7a3f 7476 853f 9c10 803f
00000240: 761a 7f3f bf95 823f b42a 833f 7e40 7d3f
00000250: 31af 813f 427d 7f3f e039 7f3f 126e 823f
00000260: 5b34 7e3f 3cf4 7e3f c6f7 803f 5c45 803f
00000270: bb59 803f 1358 823f 73f9 803f 3b93 813f
00000280: c74a 803f ee67 823f 8c0b 7f3f 6315 853f
00000290: 1c0e 7d3f 59cf 7f3f 121e 803f c147 7f3f
000002a0: 7f04 813f ddb7 7b3f 3d69 813f 568f 793f
000002b0: 67e8 823f 437f 763f 79d4 7e3f 56ac 7d3f
000002c0: 0d1f 7e3f 1056 7f3f 7bbd 783f 203f 803f
000002d0: 00c4 7c3f 7f79 7c3f 430c 813f 6d6a 763f
000002e0: f6f4 823f 853d 833f 24c6 7e3f 714f 7f3f
000002f0: 61d6 853f dbba 853f 88a4 7b3f e830 823f
00000300: 9aab 803f 4be1 813f 25b3 7c3f dacf 783f
00000310: bd1b 803f eca0 813f 290a 7d3f c874 7f3f
00000320: 558f 7a3f 9fa4 813f 727f 7d3f a8f1 793f
00000330: bdc6 7b3f 865b 7e3f 7999 7b3f 590e 833f
00000340: 6768 833f 31ab 823f e9a9 823f df02 853f
00000350: 840f 813f b485 7d3f 4197 803f af5a 7e3f
00000360: 9204 7c3f a7cb 803f 458f 783f fa2f 813f
00000370: 1a66 813f 4e42 813f 2cac 803f a736 803f
00000380: 6197 803f 4d94 803f 7b08 823f d49a 7a3f
00000390: d5bf 803f 0eaf 793f 2efc 803f 319f 823f
000003a0: 778f 7f3f 5ba2 803f 8e54 793f 89a2 793f
000003b0: 6c3e 7d3f d224 803f 1e9d 803f a180 813f
000003c0: c064 7f3f 4c5e 823f c8f8 7e3f 51f5 803f
000003d0: e9d1 7e3f 87f6 7f3f 311f 7d3f e241 7b3f
000003e0: 7e7e 7f3f 6424 7f3f d241 7e3f 772d 7c3f
000003f0: 26be 833f f4fa 7a3f eeb2 7d3f e092 7b3f
1.0253187 0.9797831 1.006802 0.98894846 0.9904888 0.9775811 1.0454506 0.9947157
1.0431726 1.0120656 1.0049919 0.9663513 0.99071944 0.98311746 1.0195237 0.97919065
0.985065 1.0386938 0.99197406 1.0066513 1.0208181 1.0115122 1.0188391 1.0194201
1.007665 1.0060225 0.99558175 0.98149234 0.9848717 1.0014815 0.9896248 0.9866096
1.0123544 1.0207695 0.9869099 1.0115836 1.0195539 1.0243217 1.0200344 0.99509597
0.9858394 1.0223913 1.0303773 0.992846 1.0299885 0.99715537 0.99857694 1.0004286
0.9999786 0.98250353 0.99307466 1.0038428 0.9928059 1.0141333 1.0225395 1.0022494
0.9770575 1.0148579 1.0102184 0.9956856 1.0314051 0.9926263 1.002533 1.0143874
1.0399953 1.0383117 1.0061092 0.99283576 1.0115485 1.0334705 1.0211087 1.0130202
1.0063913 0.9969286 0.9930094 1.0235193 0.98047394 0.98770887 1.0246335 1.0087472
0.9908622 0.9848359 1.0319568 0.98660576 0.9862117 0.98646474 1.0238327 1.0088861
0.98973113 0.98141956 1.0072671 1.0445731 0.9761744 1.0229288 0.99470025 0.98864335
1.0035373 0.98432094 0.98306894 1.0074958 0.99986076 1.028722 1.0157566 1.0020949
0.98195046 0.99093634 0.9930135 0.99689776 0.9999496 0.9669534 0.9984452 1.0312703
0.9745298 1.0298461 1.0285615 1.0091938 0.9895666 1.0075244 1.0187691 0.99142706
1.0146002 0.9732384 0.9772568 1.0433362 1.0243543 0.99649733 0.9929869 0.98046494
0.98673314 0.990568 1.0211004 0.98920894 1.0040829 0.9968553 0.99654925 1.0038074
0.9998847 0.9718404 0.98691833 1.0091287 1.0135571 0.98045087 1.0426774 1.0005069
0.9964975 1.0201949 1.0247407 0.9892653 1.0131589 0.99800503 0.99697685 1.0189841
0.9929864 0.9959142 1.0075614 1.0021167 1.0027384 1.0183128 1.0076126 1.0123056
1.002282 1.0187967 0.99626994 1.0397152 0.98849654 0.9992576 1.0009177 0.9971886
1.0079497 0.9832743 1.0110241 0.9748434 1.0227174 0.96287936 0.9954296 0.9909109
0.9926613 0.99740696 0.97164124 1.0019264 0.9873657 0.9862289 1.0081867 0.9625614
1.0231006 1.0253149 0.9952109 0.9973059 1.0456048 1.0447649 0.9829793 1.0171175
1.0052369 1.0146879 0.9871085 0.97192156 1.0008465 1.0127234 0.9884363 0.9978757
0.9787496 1.0128363 0.9902259 0.97634363 0.98350126 0.99358404 0.98281056 1.0238754
1.0266236 1.0208493 1.0208102 1.0391501 1.008286 0.9903214 1.0046159 0.9935712
0.98444474 1.006215 0.9709361 1.0092766 1.0109284 1.009836 1.0052543 1.0016679
1.0046197 1.0045258 1.0158838 0.978925 1.0058542 0.9753274 1.0076959 1.0204831
0.99828285 1.0049547 0.97394645 0.97513634 0.98923373 1.0011237 1.0047948 1.011738
0.9976311 1.0185027 0.9959836 1.0074865 0.9953905 0.99985546 0.9887572 0.98147404
0.99802387 0.996649 0.99319184 0.98506874 1.0292404 0.98039174 0.9910115 0.9827099

base.mlp.fc1.2.bias f4 [256]
00000000: c33e 5ebd b425 c9bc bbb9 59bc acf0 bfbc
00000010: d593 b0ba 32f0 f53c 2776 57bc 1b24 2c3c
00000020: 54fb 643b 4466 febc 283d 71bb dab6 c1bc
00000030: a5c2 a3bb 01c3 77bc 8480 b4bc bfca 1339
00000040: bf8f 3c3b 25e2 73bd b275 cb3c 6c99 2ebd
00000050: 80c8 0abd 95ee 43bd f594 edbc d25a 3f3c
00000060: 28d3 763c ee82 46bc e6f1 e23c 7bd4 243c
00000070: 22f6 d63c 2a12 583d 1c6e 14bd 1299 f5bc
00000080: 2a66 463c 7f9f 62bd b606 c7bc 8891 52bd
00000090: 1587 073d ebfa 933c fe55 1ebd 81b0 55bc
000000a0: e00a 86b9 83d5 313c e0fd 113c 2aed eebc
000000b0: 209d b33c 13f4 753c 6d85 263d 54c0 4ebb
000000c0: 12b0 21bb 1c23 d63b cb5f 2a3c 7275 7d3d
000000d0: 3e3b 3ebc 6f59 e03b 527d 743d 5c59 453c
000000e0: d106 733d 65c4 29bc d8f2 63bc 40e6 edbb
000000f0: 1043 163d 87f4 16bd 8a2b 243c 29f0 683a
00000100: 4fd6 82bd 6ff0 97bd cc44 283d 9c6f 953c
00000110: 7c37 ec39 4b88 99bc 301b 3fbd 639d abbc
00000120: 2cb9 47bd de52 bdbc f1ed f7bc 0d08 823d
00000130: 2e79 2ebc 824a 65bc ae9a a53c 1d16 c0bb
00000140: ae75 3f3b 7b59 92bc 360e 453d 2bce 803b
00000150: f34a bfbc 0cf4 823c 2529 61bc f027 99bb
00000160: 353a aa3c 2775 30bc e959 b3b9 fda7 8ebd
00000170: 5cbb 34bc cb85 34bd dcea a8bc 2c97 14bc
00000180: 6e9c d7bc b3e5 bd3c 61ae fc3b 4708 03bd
00000190: a0fc 9bbc eb3a 203d 55d7 33bd 9a41 b73c
000001a0: 63b5 19bb c151 45bd d77a 06bd feb3 a03b
000001b0: b1a8 7f3c 5d78 473c 52df c63a 8d47 47bd
000001c0: 6d0f 9fbc a74b 47bd c5de 513c 65f8 833c
000001d0: c756 d2bc 9c01 7abd 55c6 e93c 5152 adbc
000001e0: bfbb 863c 611c 883c d83b a03a a3dd 0a3d
000001f0: 44dc 0bbb 5d75 07bc 3a94 163c 9f31 d3bc
00000200: 7509 89bb f5d5 e8bb 73e3 e5bb 4bf9 9dbb
00000210: 608b f33c cc55 873d 0800 d53b 8645 37bc
00000220: 2dae ef3c e281 933c 56ad d63c b366 c53b
00000230: d1e5 4cbc 9823 9f3c 61c7 8c3d 1e26 033c
00000240: ebb8 47bd e1fe a3ba d5e4 f13b 1feb cdbc
00000250: 85ec b8bc c9e4 9b3c 0887 a9bb 4fb5 683b
00000260: 6e55 c0bc 9b3e 323d a0fe 7cbc 4103 99bc
00000270: 4c23 52bd 6389 b93b e170 32bd 9011 3abc
00000280: e7c1 1b3c e059 3dbc 4495 de3c 0259 fa3c
00000290: 184c d9bb 2e65 64bb b2f9 9e3c d830 b1bc
000002a0: b648 543d cb34 27bd 1eb0 a539 8166 23bd
000002b0: c131 b73c efb7 f13b 25e3 443c 47cc d9bc
000002c0: 6ac3 cdbc f131 1abd fbfc 12bc bc6f 04bd
000002d0: 3ee7 043d eaf2 9fbb 4157 0dbd 7390 acbc
000002e0: 61be 02bc 4a5a 7b3d fc3a 0a3b ac27 50bd
000002f0: b51f 373d 69d2 2c3d d9aa 1d3b b993 aebc
00000300: 4a1d d63c 4fd4 e3bc 358c 583c 4e5e b7bc
00000310: c10e 523c bfed 11bc bc6f 3d3b a6aa d3bc
00000320: 6bc9 22ba f604 d43c aaed 33bc 05fd a13c
00000330: d2a9 b1ba 11df dfbb ccd5 423c 208d f23b
00000340: 2e6b f1bc 8e9b 7c3d a330 283d ec41 95b8
00000350: ed3e 543c 8c80 99bc a492 35bd 434c febc
00000360: 3ff8 08bc 52fe fb3c 7fbc 363d 658f 8dbc
00000370: 4274 18bd 8e1d 9e3c 730b 5a3c 2966 753c
00000380: b523 a5bc ae50 523d 20dc 6d3c a5be 83bb
00000390: df65 cd3c ff4a 053a cb0e 273d 6375 623c
000003a0: 3b88 52bc 97c2 163d 7779 923c 5749 2abd
000003b0: bd67 98bb 9a47 29bc a606 f5bc c677 a5bb
000003c0: 79b2 30bd de85 24ba 72d5 a83c 9530 03bd
000003d0: b2bd 27bd 440c fcb7 9e78 97bc 83a6 d5ba
000003e0: 75b7 c0bc 00eb c4bc 8f29 a73c 4400 d7bc
000003f0: b6e0 383c 1734 b1bc d803 7e3c bc0d 7a3b
-0.054259073 -0.024554111 -0.0132889105 -0.023430191 -0.0013471792 0.03002176 -0.013150728 0.010506655
0.0034939842 -0.031054623 -0.0036810134 -0.02364676 -0.0049975687 -0.015122176 -0.022033937 0.00014094541
0.0028772203 -0.05954184 0.024836395 -0.042626783 -0.033882618 -0.04783495 -0.029001692 0.011679368
0.015064992 -0.012116177 0.027703237 0.010060425 0.026240412 0.052751698 -0.03623782 -0.029980216
0.012109319 -0.05532789 -0.024295192 -0.05140832 0.03308781 0.018063983 -0.038656227 -0.01304257
-0.00025566574 0.010854128 0.008910626 -0.029165823 0.021925509 0.015011805 0.04065459 -0.0031547742
-0.0024671596 0.006534947 0.010398815 0.061879583 -0.011610804 0.006846599 0.059689827 0.012045231
0.059332673 -0.0103617655 -0.013912879 -0.007260114 0.03668505 -0.036854293 0.010020146 0.00088858843
-0.06388532 -0.07418906 0.041081235 0.018241696 0.00045054767 -0.018741747 -0.046656787 -0.020949071
-0.048760578 -0.023110803 -0.030264826 0.06349192 -0.010649009 -0.013994815 0.020215359 -0.005862011
0.002921443 -0.017864933 0.048109256 0.003930827 -0.023351168 0.015985511 -0.01374272 -0.0046739504
0.020779708 -0.010770119 -0.0003420853 -0.06965635 -0.011030998 -0.044072907 -0.020619802 -0.009069245
-0.026319709 0.023180818 0.0077112173 -0.031990316 -0.01904136 0.03911869 -0.04390653 0.022370148
-0.0023454062 -0.04817367 -0.032831993 0.0049042692 0.015604184 0.012174693 0.0015172756 -0.04865222
-0.019416535 -0.048656132 0.01280946 0.016109655 -0.025676144 -0.06103669 0.028536955 -0.021157416
0.016446946 0.016615095 0.0012224866 0.033902775 -0.0021341005 -0.008267728 0.009190613 -0.025780497
-0.0041820356 -0.007105584 -0.0070156395 -0.004820978 0.029729545 0.06608161 0.006500248 -0.011186009
0.029257858 0.018006269 0.0262057 0.0060242056 -0.012505964 0.019426152 0.06873966 0.008004693
-0.048760336 -0.0012511873 0.007382015 -0.025136529 -0.022573719 0.019029992 -0.0051735677 0.003550846
-0.023478236 0.043516736 -0.015441567 -0.01867831 -0.051303193 0.0056621297 -0.04356468 -0.011356726
0.009506679 -0.011557072 0.027170785 0.03056002 -0.0066313855 -0.0034850347 0.019406173 -0.021629736
0.051827155 -0.04082183 0.0003160247 -0.039892677 0.022362592 0.007376663 0.012017046 -0.026586665
-0.025117595 -0.037645284 -0.008971448 -0.03233312 0.032447092 -0.0048812525 -0.03450704 -0.021064973
-0.00797996 0.061365403 0.0021092286 -0.050819084 0.044707973 0.04219285 0.0024058132 -0.021310674
0.026137013 -0.027811198 0.013217022 -0.022383835 0.0128209 -0.008906781 0.002890571 -0.025838207
-0.0006209823 0.025881272 -0.0109819565 0.01977397 -0.0013554639 -0.0068320115 0.011891793 0.0074020773
-0.029470053 0.061671786 0.04106201 -7.1171526e-05 0.012954456 -0.018738054 -0.0443293 -0.031042224
-0.008359968 0.030760918 0.044613358 -0.01728029 -0.037220247 0.019301202 0.013308394 0.01497797
-0.020158628 0.051346473 0.014517814 -0.0040205293 0.02507299 0.00050847227 0.040785592 0.0138219325
-0.012849863 0.03680667 0.017880185 -0.04157385 -0.0046510384 -0.010332013 -0.029910397 -0.0050496785
-0.043138955 -0.0006276051 0.020609591 -0.032028753 -0.040952392 -3.0046453e-05 -0.018490132 -0.0016300235
-0.02352498 -0.024037838 0.020405559 -0.026245244 0.011284044 -0.021631284 0.015503846 0.003815516

base.mlp.fc_h.0.weight f4 [256, 256]
00000000: 474e b3bd c780 2bbc c408 8e3d 17a3 e83d
00000010: f9a6 adbd 283e 79bd 5b36 a63d 9ca7 1a3e
00000020: 1911 133e a4f2 0dbe f3cd 853d da4e 943c
00000030: 73e5 60bb 5653 32be ff18 00be e0b3 4ebc
00000040: aac5 d13d 25a9 7cbc 8c93 8dbc 56cf 27bc
00000050: 58cf 163e 4127 5d3e 4792 01be 0efc 2f3d
00000060: 0a12 4d3d f4f0 d53c 3b9f 0b3e 8ee9 2a3b
00000070: e288 3cbc 3bf2 7fbd 8379 e43b 6e05 debd
00000080: e15d 113e 59b4 bbbc b711 3f3e bbc1 73bc
00000090: 0475 76b9 8d10 01bd ebb1 44bd 64cf 5d3d
000000a0: eaf8 9abd 647e cb3b b5d7 8fbd a31e 263b
000000b0: 9bac 6dbd d021 8c3d 1055 503d e847 afbc
000000c0: aadb 403e f4e1 13bc dd35 8e3d a1cb 71bd
000000d0: 30c2 0cbe 3e90 ee3c 1edb 5abd 7135 073e
000000e0: ae92 58bd ddaa ddbc 210b 273d 63a8 023d
000000f0: 32b5 803d f9cd dc3d 656e bebd 7cb8 4bbd
00000100: 34a7 cb3b 49cd 3fbe 0bd7 1bbd 86c3 00be
00000110: 2be6 adbd 1105 793d 88c4 493e 8b95 cc3d
00000120: 1b5b 23be 01bd cf3d 36bb 77bb 93e6 a5bd
00000130: 88df e43b 2a30 30be 557f 893a 719a c6bd
00000140: 4183 d7bd 26f2 223e d6eb dfbd e028 80bd
00000150: 1b7d a73c 4d04 e5bc 6035 6e3c fcd4 3dbd
00000160: 13ae 38bd 3fb2 783d 090b 203e 516c 523d
00000170: 0b34 613d 4d35 02bd c7a6 39bd 52a6 863d
00000180: a547 e1bd b367 d9bc 83ef 42be 54f5 0fbc
00000190: 948e 143d 2926 71bd 0728 6e3d 8993 70bd
000001a0: 7959 19be fc0c a0bd aadf 7d3e 253f 7f3d
000001b0: 814c 723a d2f5 c93d 0e9d 1cbe 1f59 acbc
000001c0: 3e3c bdbd b5af babd cb5a 57bc 4a09 f7ba
000001d0: e71b ec3c f49a ab3c b07b 98bd 3048 15bc
000001e0: 5d63 08be 69e4 8dbd a212 5a3d 82c7 01be
000001f0: 1bf2 e13c b583 563d 4372 1bbe 9432 0abe
00000200: 3ff2 7b3d 9feb 8dbd fe3a 53bd ea2b 223d
00000210: ab39 c73d 2063 003c fd34 b13c e21d 51bd
00000220: 6c7f 11be 8bba 353c 8fbd eebd 1112 083e
00000230: ae62 63be 4369 fabd 92dc 043e 4187 593c
00000240: 4cbc 77bd 1fbd 6d3d a023 263e c5e5 1ebd
00000250: bda4 0e3d 2167 0fbc 0477 613c cd26 84bc
00000260: b753 f8bd db66 a83d e54b 9a3d 19eb 773d
00000270: f613 95bd 392e 15bd ab42 b73d 2e29 02bd
00000280: 5a76 183e a4e0 ebbc 15d6 383c b7a6 c3bd
00000290: e2f0 03bd 27b8 123c 3180 9f3c 1d3e 133e
000002a0: adca 23be b43d 113d 4963 eabc 30cf 653c
000002b0: 5b99 96bd e569 453d aac8 153e 387d 27be
000002c0: e833 3b3e a7fa de3b 694e 0ebd b766 403c
000002d0: ca31 d7bd 33a3 723d b028 383c 2983 34bd
000002e0: 3c43 a53d 15ff f3bd 3b88 1a3e 6256 2ebd
000002f0: bfe0 d337 37be d03d 42be d2bd 34c5 db3d
00000300: 0e9d 32bd fa4d f33d 2082 e8bc 2c40 c23d
00000310: ffa8 35bb 51e9 863c bfdd cb3c 3b4d a0bd
00000320: a268 493d 00c9 b0bd b3ed 733d 6e19 a5bd
00000330: 4e1a 95bd c801 8abd bdd2 85bd 4b0a 0c3e
00000340: b2ad 08bd fcd7 033e 315b c43c c303 91bd
00000350: 095c 973d 0e7d 513e 28ee b6bc f61a d23d
00000360: 7a69 f9bd c503 f93c c6f9 5f3c e43f 76bd
00000370: 9ed7 f4bd 7c58 d9bd 3ab4 333d b7eb f5bc
00000380: c5b7 ccbd 5c3a 03be 1c2a 69bc f6a7 d13d
00000390: e1cc 9cbd eca2 9ebc 2738 743d a975 ca3d
000003a0: 01a2 89bd 2bde 7e3d 075c 6d3d 5ee2 263d
000003b0: 9bf6 1bbb 2fae 173d be55 6f3d 9b7a 923d
000003c0: f215 bcbc 1a7d ebbc eec7 e03d e762 1d3e
000003d0: e8e0 e8bc 4d6d d33c a89a 6d3d 7025 27bd
000003e0: 8b8e a93c 8063 01bc c180 073e c9b4 fcbd
000003f0: f026 d4bc 85c4 853d 3529 36be af72 89bc
-0.087551646 -0.010467715 0.06935266 0.11359232 -0.08479113 -0.060850292 0.08115836 0.15103
0.14361991 -0.13862091 0.06533422 0.018104006 -0.003431645 -0.17414603 -0.12509535 -0.012616128
0.102427796 -0.015421187 -0.01728227 -0.010242304 0.14727533 0.21597005 -0.12653457 0.042964987
0.05006603 0.026115872 0.1363496 0.002607915 -0.011507245 -0.06248687 0.006972493 -0.108408794
0.14195968 -0.022913145 0.18659101 -0.014877732 -0.0002350398 -0.031509925 -0.04802124 0.05415286
-0.07567008 0.0062101353 -0.07023565 0.002534785 -0.058025938 0.06842387 0.050862372 -0.021396592
0.18833795 -0.009026039 0.06943867 -0.059032086 -0.13745952 0.029121514 -0.053431623 0.1320398
-0.05287426 -0.027059013 0.040782098 0.031898867 0.0628456 0.10781474 -0.092984 -0.049736485
0.0062150005 -0.18730654 -0.038046878 -0.12574586 -0.08491167 0.060795847 0.19703877 0.099894606
-0.15952723 0.101434715 -0.0037800795 -0.08100619 0.006984655 -0.17205873 0.0010490218 -0.09697426
-0.105230816 0.15912685 -0.10933654 -0.06257796 0.020445397 -0.027956152 0.014539093 -0.046345696
-0.045087885 0.060716864 0.1562921 0.05137283 0.054981273 -0.031789113 -0.045325067 0.06574692
-0.10999993 -0.026538705 -0.19036679 -0.008786518 0.036268786 -0.058874283 0.05814364 -0.05873445
-0.14975537 -0.078149766 0.24792352 0.06231608 0.00092429674 0.0986134 -0.15294287 -0.02103859
-0.09240006 -0.09115545 -0.013144205 -0.0018847373 0.028821899 0.02094791 -0.074454665 -0.009111449
-0.13319154 -0.069283314 0.053240426 -0.12673762 0.027581265 0.0523717 -0.15180306 -0.13495857
0.06151032 -0.06929707 -0.05156993 0.03959266 0.09727796 0.007836133 0.021631712 -0.05105389
-0.14208764 0.011091839 -0.11657249 0.13288142 -0.22205612 -0.12227108 0.12974766 0.013276876
-0.06048231 0.058041688 0.16224527 -0.038793344 0.034825075 -0.008752615 0.013761286 -0.016131783
-0.12125342 0.08222743 0.07534007 0.06052694 -0.07279198 -0.036421034 0.08948263 -0.031777553
0.14888898 -0.02879364 0.01128151 -0.09553283 -0.032212146 0.008955038 0.019470306 0.14379163
-0.15995283 0.035459235 -0.028611796 0.014026448 -0.07353469 0.048196692 0.14627329 -0.16356361
0.1828152 0.0068047824 -0.034742747 0.011743239 -0.105075434 0.05923767 0.011240169 -0.044070397
0.080694646 -0.119138874 0.1509103 -0.04256285 2.5257816e-05 0.101925306 -0.10290195 0.10730973
-0.04360681 0.11880107 -0.028382361 0.09484896 -0.0027719138 0.016468676 0.02488601 -0.078272305
0.04917205 -0.08632088 0.05955286 -0.08061491 -0.07280408 -0.06738621 -0.06534336 0.13675801
-0.033368774 0.1287536 0.023969265 -0.070807956 0.07390601 0.20457861 -0.022330359 0.10259049
-0.12178321 0.030397305 0.0136703905 -0.060119525 -0.11955188 -0.1061258 0.04387305 -0.030019624
-0.09995989 -0.12815231 -0.014231231 0.10237114 -0.07656265 -0.019364797 0.059623864 0.09885723
-0.06720353 0.062223595 0.057949092 0.040743224 -0.0023798111 0.03703135 0.05843138 0.071522914
-0.022959683 -0.028746177 0.109756336 0.1536976 -0.028427556 0.025808955 0.05800882 -0.040807188
0.020697853 -0.007897258 0.1323271 -0.123391695 -0.025897473 0.06531624 -0.17789157 -0.016778318

base.mlp.fc_h.0.bias f4 [256]
00000000: 0000 0000 0000 0000 0000 0000 0000 0000
00000010: 0000 0000 0000 0000 0000 0000 0000 0000
00000020: 0000 0000 0000 0000 0000 0000 0000 0000
00000030: 0000 0000 0000 0000 0000 0000 0000 0000
00000040: 0000 0000 0000 0000 0000 0000 0000 0000
00000050: 0000 0000 0000 0000 0000 0000 0000 0000
00000060: 0000 0000 0000 0000 0000 0000 0000 0000
00000070: 0000 0000 0000 0000 0000 0000 0000 0000
00000080: 0000 0000 0000 0000 0000 0000 0000 0000
00000090: 0000 0000 0000 0000 0000 0000 0000 0000
000000a0: 0000 0000 0000 0000 0000 0000 0000 0000
000000b0: 0000 0000 0000 0000 0000 0000 0000 0000
000000c0: 0000 0000 0000 0000 0000 0000 0000 0000
000000d0: 0000 0000 0000 0000 0000 0000 0000 0000
000000e0: 0000 0000 0000 0000 0000 0000 0000 0000
000000f0: 0000 0000 0000 0000 0000 0000 0000 0000
00000100: 0000 0000 0000 0000 0000 0000 0000 0000
00000110: 0000 0000 0000 0000 0000 0000 0000 0000
00000120: 0000 0000 0000 0000 0000 0000 0000 0000
00000130: 0000 0000 0000 0000 0000 0000 0000 0000
00000140: 0000 0000 0000 0000 0000 0000 0000 0000
00000150: 0000 0000 0000 0000 0000 0000 0000 0000
00000160: 0000 0000 0000 0000 0000 0000 0000 0000
00000170: 0000 0000 0000 0000 0000 0000 0000 0000
00000180: 0000 0000 0000 0000 0000 0000 0000 0000
00000190: 0000 0000 0000 0000 0000 0000 0000 0000
000001a0: 0000 0000 0000 0000 0000 0000 0000 0000
000001b0: 0000 0000 0000 0000 0000 0000 0000 0000
000001c0: 0000 0000 0000 0000 0000 0000 0000 0000
000001d0: 0000 0000 0000 0000 0000 0000 0000 0000
000001e0: 0000 0000 0000 0000 0000 0000 0000 0000
000001f0: 0000 0000 0000 0000 0000 0000 0000 0000
00000200: 0000 0000 0000 0000 0000 0000 0000 0000
00000210: 0000 0000 0000 0000 0000 0000 0000 0000
00000220: 0000 0000 0000 0000 0000 0000 0000 0000
00000230: 0000 0000 0000 0000 0000 0000 0000 0000
00000240: 0000 0000 0000 0000 0000 0000 0000 0000
00000250: 0000 0000 0000 0000 0000 0000 0000 0000
00000260: 0000 0000 0000 0000 0000 0000 0000 0000
00000270: 0000 0000 0000 0000 0000 0000 0000 0000
00000280: 0000 0000 0000 0000 0000 0000 0000 0000
00000290: 0000 0000 0000 0000 0000 0000 0000 0000
000002a0: 0000 0000 0000 0000 0000 0000 0000 0000
000002b0: 0000 0000 0000 0000 0000 0000 0000 0000
000002c0: 0000 0000 0000 0000 0000 0000 0000 0000
000002d0: 0000 0000 0000 0000 0000 0000 0000 0000
000002e0: 0000 0000 0000 0000 0000 0000 0000 0000
000002f0: 0000 0000 0000 0000 0000 0000 0000 0000
00000300: 0000 0000 0000 0000 0000 0000 0000 0000
00000310: 0000 0000 0000 0000 0000 0000 0000 0000
00000320: 0000 0000 0000 0000 0000 0000 0000 0000
00000330: 0000 0000 0000 0000 0000 0000 0000 0000
00000340: 0000 0000 0000 0000 0000 0000 0000 0000
00000350: 0000 0000 0000 0000 0000 0000 0000 0000
00000360: 0000 0000 0000 0000 0000 0000 0000 0000
00000370: 0000 0000 0000 0000 0000 0000 0000 0000
00000380: 0000 0000 0000 0000 0000 0000 0000 0000
00000390: 0000 0000 0000 0000 0000 0000 0000 0000
000003a0: 0000 0000 0000 0000 0000 0000 0000 0000
000003b0: 0000 0000 0000 0000 0000 0000 0000 0000
000003c0: 0000 0000 0000 0000 0000 0000 0000 0000
000003d0: 0000 0000 0000 0000 0000 0000 0000 0000
000003e0: 0000 0000 0000 0000 0000 0000 0000 0000
000003f0: 0000 0000 0000 0000 0000 0000 0000 0000
0.0 0.0 0.0 0.0 0.0 0.0 0.0 0.0
0.0 0.0 0.0 0.0 0.0 0.0 0.0 0.0
0.0 0.0 0.0 0.0 0.0 0.0 0.0 0.0
0.0 0.0 0.0 0.0 0.0 0.0 0.0 0.0
0.0 0.0 0.0 0.0 0.0 0.0 0.0 0.0
0.0 0.0 0.0 0.0 0.0 0.0 0.0 0.0
0.0 0.0 0.0 0.0 0.0 0.0 0.0 0.0
0.0 0.0 0.0 0.0 0.0 0.0 0.0 0.0
0.0 0.0 0.0 0.0 0.0 0.0 0.0 0.0
0.0 0.0 0.0 0.0 0.0 0.0 0.0 0.0
0.0 0.0 0.0 0.0 0.0 0.0 0.0 0.0
0.0 0.0 0.0 0.0 0.0 0.0 0.0 0.0
0.0 0.0 0.0 0.0 0.0 0.0 0.0 0.0
0.0 0.0 0.0 0.0 0.0 0.0 0.0 0.0
0.0 0.0 0.0 0.0 0.0 0.0 0.0 0.0
0.0 0.0 0.0 0.0 0.0 0.0 0.0 0.0
0.0 0.0 0.0 0.0 0.0 0.0 0.0 0.0
0.0 0.0 0.0 0.0 0.0 0.0 0.0 0.0
0.0 0.0 0.0 0.0 0.0 0.0 0.0 0.0
0.0 0.0 0.0 0.0 0.0 0.0 0.0 0.0
0.0 0.0 0.0 0.0 0.0 0.0 0.0 0.0
0.0 0.0 0.0 0.0 0.0 0.0 0.0 0.0
0.0 0.0 0.0 0.0 0.0 0.0 0.0 0.0
0.0 0.0 0.0 0.0 0.0 0.0 0.0 0.0
0.0 0.0 0.0 0.0 0.0 0.0 0.0 0.0
0.0 0.0 0.0 0.0 0.0 0.0 0.0 0.0
0.0 0.0 0.0 0.0 0.0 0.0 0.0 0.0
0.0 0.0 0.0 0.0 0.0 0.0 0.0 0.0
0.0 0.0 0.0 0.0 0.0 0.0 0.0 0.0
0.0 0.0 0.0 0.0 0.0 0.0 0.0 0.0
0.0 0.0 0.0 0.0 0.0 0.0 0.0 0.0
0.0 0.0 0.0 0.0 0.0 0.0 0.0 0.0

base.mlp.fc_h.2.weight f4 [256]
00000000: 0000 803f 0000 803f 0000 803f 0000 803f
00000010: 0000 803f 0000 803f 0000 803f 0000 803f
00000020: 0000 803f 0000 803f 0000 803f 0000 803f
00000030: 0000 803f 0000 803f 0000 803f 0000 803f
00000040: 0000 803f 0000 803f 0000 803f 0000 803f
00000050: 0000 803f 0000 803f 0000 803f 0000 803f
00000060: 0000 803f 0000 803f 0000 803f 0000 803f
00000070: 0000 803f 0000 803f 0000 803f 0000 803f
00000080: 0000 803f 0000 803f 0000 803f 0000 803f
00000090: 0000 803f 0000 803f 0000 803f 0000 803f
000000a0: 0000 803f 0000 803f 0000 803f 0000 803f
000000b0: 0000 803f 0000 803f 0000 803f 0000 803f
000000c0: 0000 803f 0000 803f 0000 803f 0000 803f
000000d0: 0000 803f 0000 803f 0000 803f 0000 803f
000000e0: 0000 803f 0000 803f 0000 803f 0000 803f
000000f0: 0000 803f 0000 803f 0000 803f 0000 803f
00000100: 0000 803f 0000 803f 0000 803f 0000 803f
00000110: 0000 803f 0000 803f 0000 803f 0000 803f
00000120: 0000 803f 0000 803f 0000 803f 0000 803f
00000130: 0000 803f 0000 803f 0000 803f 0000 803f
00000140: 0000 803f 0000 803f 0000 803f 0000 803f
00000150: 0000 803f 0000 803f 0000 803f 0000 803f
00000160: 0000 803f 0000 803f 0000 803f 0000 803f
00000170: 0000 803f 0000 803f 0000 803f 0000 803f
00000180: 0000 803f 0000 803f 0000 803f 0000 803f
00000190: 0000 803f 0000 803f 0000 803f 0000 803f
000001a0: 0000 803f 0000 803f 0000 803f 0000 803f
000001b0: 0000 803f 0000 803f 0000 803f 0000 803f
000001c0: 0000 803f 0000 803f 0000 803f 0000 803f
000001d0: 0000 803f 0000 803f 0000 803f 0000 803f
000001e0: 0000 803f 0000 803f 0000 803f 0000 803f
000001f0: 0000 803f 0000 803f 0000 803f 0000 803f
00000200: 0000 803f 0000 803f 0000 803f 0000 803f
00000210: 0000 803f 0000 803f 0000 803f 0000 803f
00000220: 0000 803f 0000 803f 0000 803f 0000 803f
00000230: 0000 803f 0000 803f 0000 803f 0000 803f
00000240: 0000 803f 0000 803f 0000 803f 0000 803f
00000250: 0000 803f 0000 803f 0000 803f 0000 803f
00000260: 0000 803f 0000 803f 0000 803f 0000 803f
00000270: 0000 803f 0000 803f 0000 803f 0000 803f
00000280: 0000 803f 0000 803f 0000 803f 0000 803f
00000290: 0000 803f 0000 803f 0000 803f 0000 803f
000002a0: 0000 803f 0000 803f 0000 803f 0000 803f
000002b0: 0000 803f 0000 803f 0000 803f 0000 803f
000002c0: 0000 803f 0000 803f 0000 803f 0000 803f
000002d0: 0000 803f 0000 803f 0000 803f 0000 803f
000002e0: 0000 803f 0000 803f 0000 803f 0000 803f
000002f0: 0000 803f 0000 803f 0000 803f 0000 803f
00000300: 0000 803f 0000 803f 0000 803f 0000 803f
00000310: 0000 803f 0000 803f 0000 803f 0000 803f
00000320: 0000 803f 0000 803f 0000 803f 0000 803f
00000330: 0000 803f 0000 803f 0000 803f 0000 803f
00000340: 0000 803f 0000 803f 0000 803f 0000 803f
00000350: 0000 803f 0000 803f 0000 803f 0000 803f
00000360: 0000 803f 0000 803f 0000 803f 0000 803f
00000370: 0000 803f 0000 803f 0000 803f 0000 803f
00000380: 0000 803f 0000 803f 0000 803f 0000 803f
00000390: 0000 803f 0000 803f 0000 803f 0000 803f
000003a0: 0000 803f 0000 803f 0000 803f 0000 803f
000003b0: 0000 803f 0000 803f 0000 803f 0000 803f
000003c0: 0000 803f 0000 803f 0000 803f 0000 803f
000003d0: 0000 803f 0000 803f 0000 803f 0000 803f
000003e0: 0000 803f 0000 803f 0000 803f 0000 803f
000003f0: 0000 803f 0000 803f 0000 803f 0000 803f
1.0 1.0 1.0 1.0 1.0 1.0 1.0 1.0
1.0 1.0 1.0 1.0 1.0 1.0 1.0 1.0
1.0 1.0 1.0 1.0 1.0 1.0 1.0 1.0
1.0 1.0 1.0 1.0 1.0 1.0 1.0 1.0
1.0 1.0 1.0 1.0 1.0 1.0 1.0 1.0
1.0 1.0 1.0 1.0 1.0 1.0 1.0 1.0
1.0 1.0 1.0 1.0 1.0 1.0 1.0 1.0
1.0 1.0 1.0 1.0 1.0 1.0 1.0 1.0
1.0 1.0 1.0 1.0 1.0 1.0 1.0 1.0
1.0 1.0 1.0 1.0 1.0 1.0 1.0 1.0
1.0 1.0 1.0 1.0 1.0 1.0 1.0 1.0
1.0 1.0 1.0 1.0 1.0 1.0 1.0 1.0
1.0 1.0 1.0 1.0 1.0 1.0 1.0 1.0
1.0 1.0 1.0 1.0 1.0 1.0 1.0 1.0
1.0 1.0 1.0 1.0 1.0 1.0 1.0 1.0
1.0 1.0 1.0 1.0 1.0 1.0 1.0 1.0
1.0 1.0 1.0 1.0 1.0 1.0 1.0 1.0
1.0 1.0 1.0 1.0 1.0 1.0 1.0 1.0
1.0 1.0 1.0 1.0 1.0 1.0 1.0 1.0
1.0 1.0 1.0 1.0 1.0 1.0 1.0 1.0
1.0 1.0 1.0 1.0 1.0 1.0 1.0 1.0
1.0 1.0 1.0 1.0 1.0 1.0 1.0 1.0
1.0 1.0 1.0 1.0 1.0 1.0 1.0 1.0
1.0 1.0 1.0 1.0 1.0 1.0 1.0 1.0
1.0 1.0 1.0 1.0 1.0 1.0 1.0 1.0
1.0 1.0 1.0 1.0 1.0 1.0 1.0 1.0
1.0 1.0 1.0 1.0 1.0 1.0 1.0 1.0
1.0 1.0 1.0 1.0 1.0 1.0 1.0 1.0
1.0 1.0 1.0 1.0 1.0 1.0 1.0 1.0
1.0 1.0 1.0 1.0 1.0 1.0 1.0 1.0
1.0 1.0 1.0 1.0 1.0 1.0 1.0 1.0
1.0 1.0 1.0 1.0 1.0 1.0 1.0 1.0

base.mlp.fc_h.2.bias f4 [256]
00000000: 0000 0000 0000 0000 0000 0000 0000 0000
00000010: 0000 0000 0000 0000 0000 0000 0000 0000
00000020: 0000 0000 0000 0000 0000 0000 0000 0000
00000030: 0000 0000 0000 0000 0000 0000 0000 0000
00000040: 0000 0000 0000 0000 0000 0000 0000 0000
00000050: 0000 0000 0000 0000 0000 0000 0000 0000
00000060: 0000 0000 0000 0000 0000 0000 0000 0000
00000070: 0000 0000 0000 0000 0000 0000 0000 0000
00000080: 0000 0000 0000 0000 0000 0000 0000 0000
00000090: 0000 0000 0000 0000 0000 0000 0000 0000
000000a0: 0000 0000 0000 0000 0000 0000 0000 0000
000000b0: 0000 0000 0000 0000 0000 0000 0000 0000
000000c0: 0000 0000 0000 0000 0000 0000 0000 0000
000000d0: 0000 0000 0000 0000 0000 0000 0000 0000
000000e0: 0000 0000 0000 0000 0000 0000 0000 0000
000000f0: 0000 0000 0000 0000 0000 0000 0000 0000
00000100: 0000 0000 0000 0000 0000 0000 0000 0000
00000110: 0000 0000 0000 0000 0000 0000 0000 0000
00000120: 0000 0000 0000 0000 0000 0000 0000 0000
00000130: 0000 0000 0000 0000 0000 0000 0000 0000
00000140: 0000 0000 0000 0000 0000 0000 0000 0000
00000150: 0000 0000 0000 0000 0000 0000 0000 0000
00000160: 0000 0000 0000 0000 0000 0000 0000 0000
00000170: 0000 0000 0000 0000 0000 0000 0000 0000
00000180: 0000 0000 0000 0000 0000 0000 0000 0000
00000190: 0000 0000 0000 0000 0000 0000 0000 0000
000001a0: 0000 0000 0000 0000 0000 0000 0000 0000
000001b0: 0000 0000 0000 0000 0000 0000 0000 0000
000001c0: 0000 0000 0000 0000 0000 0000 0000 0000
000001d0: 0000 0000 0000 0000 0000 0000 0000 0000
000001e0: 0000 0000 0000 0000 0000 0000 0000 0000
000001f0: 0000 0000 0000 0000 0000 0000 0000 0000
00000200: 0000 0000 0000 0000 0000 0000 0000 0000
00000210: 0000 0000 0000 0000 0000 0000 0000 0000
00000220: 0000 0000 0000 0000 0000 0000 0000 0000
00000230: 0000 0000 0000 0000 0000 0000 0000 0000
00000240: 0000 0000 0000 0000 0000 0000 0000 0000
00000250: 0000 0000 0000 0000 0000 0000 0000 0000
00000260: 0000 0000 0000 0000 0000 0000 0000 0000
00000270: 0000 0000 0000 0000 0000 0000 0000 0000
00000280: 0000 0000 0000 0000 0000 0000 0000 0000
00000290: 0000 0000 0000 0000 0000 0000 0000 0000
000002a0: 0000 0000 0000 0000 0000 0000 0000 0000
000002b0: 0000 0000 0000 0000 0000 0000 0000 0000
000002c0: 0000 0000 0000 0000 0000 0000 0000 0000
000002d0: 0000 0000 0000 0000 0000 0000 0000 0000
000002e0: 0000 0000 0000 0000 0000 0000 0000 0000
000002f0: 0000 0000 0000 0000 0000 0000 0000 0000
00000300: 0000 0000 0000 0000 0000 0000 0000 0000
00000310: 0000 0000 0000 0000 0000 0000 0000 0000
00000320: 0000 0000 0000 0000 0000 0000 0000 0000
00000330: 0000 0000 0000 0000 0000 0000 0000 0000
00000340: 0000 0000 0000 0000 0000 0000 0000 0000
00000350: 0000 0000 0000 0000 0000 0000 0000 0000
00000360: 0000 0000 0000 0000 0000 0000 0000 0000
00000370: 0000 0000 0000 0000 0000 0000 0000 0000
00000380: 0000 0000 0000 0000 0000 0000 0000 0000
00000390: 0000 0000 0000 0000 0000 0000 0000 0000
000003a0: 0000 0000 0000 0000 0000 0000 0000 0000
000003b0: 0000 0000 0000 0000 0000 0000 0000 0000
000003c0: 0000 0000 0000 0000 0000 0000 0000 0000
000003d0: 0000 0000 0000 0000 0000 0000 0000 0000
000003e0: 0000 0000 0000 0000 0000 0000 0000 0000
000003f0: 0000 0000 0000 0000 0000 0000 0000 0000
0.0 0.0 0.0 0.0 0.0 0.0 0.0 0.0
0.0 0.0 0.0 0.0 0.0 0.0 0.0 0.0
0.0 0.0 0.0 0.0 0.0 0.0 0.0 0.0
0.0 0.0 0.0 0.0 0.0 0.0 0.0 0.0
0.0 0.0 0.0 0.0 0.0 0.0 0.0 0.0
0.0 0.0 0.0 0.0 0.0 0.0 0.0 0.0
0.0 0.0 0.0 0.0 0.0 0.0 0.0 0.0
0.0 0.0 0.0 0.0 0.0 0.0 0.0 0.0
0.0 0.0 0.0 0.0 0.0 0.0 0.0 0.0
0.0 0.0 0.0 0.0 0.0 0.0 0.0 0.0
0.0 0.0 0.0 0.0 0.0 0.0 0.0 0.0
0.0 0.0 0.0 0.0 0.0 0.0 0.0 0.0
0.0 0.0 0.0 0.0 0.0 0.0 0.0 0.0
0.0 0.0 0.0 0.0 0.0 0.0 0.0 0.0
0.0 0.0 0.0 0.0 0.0 0.0 0.0 0.0
0.0 0.0 0.0 0.0 0.0 0.0 0.0 0.0
0.0 0.0 0.0 0.0 0.0 0.0 0.0 0.0
0.0 0.0 0.0 0.0 0.0 0.0 0.0 0.0
0.0 0.0 0.0 0.0 0.0 0.0 0.0 0.0
0.0 0.0 0.0 0.0 0.0 0.0 0.0 0.0
0.0 0.0 0.0 0.0 0.0 0.0 0.0 0.0
0.0 0.0 0.0 0.0 0.0 0.0 0.0 0.0
0.0 0.0 0.0 0.0 0.0 0.0 0.0 0.0
0.0 0.0 0.0 0.0 0.0 0.0 0.0 0.0
0.0 0.0 0.0 0.0 0.0 0.0 0.0 0.0
0.0 0.0 0.0 0.0 0.0 0.0 0.0 0.0
0.0 0.0 0.0 0.0 0.0 0.0 0.0 0.0
0.0 0.0 0.0 0.0 0.0 0.0 0.0 0.0
0.0 0.0 0.0 0.0 0.0 0.0 0.0 0.0
0.0 0.0 0.0 0.0 0.0 0.0 0.0 0.0
0.0 0.0 0.0 0.0 0.0 0.0 0.0 0.0
0.0 0.0 0.0 0.0 0.0 0.0 0.0 0.0
