Training_Parameter_Storage/0517/hd003formthres_5v1_vel0108_collide_001/critic_prey.pt (torch, 829249 bytes, 19 tensors)

base.feature_norm.weight f4 [22]
1.0863162 1.0085521 0.97933125 0.9857009 0.9547726 0.96339446 0.9580949 0.9875982
1.0053245 0.98672646 0.9437676 0.97568 1.0942287 1.106739 1.0662525 1.0656483
1.0379207 1.04942 1.0584904 1.0410578 1.0213877 1.003142
00000000: 690c 8b3f 3c18 813f 74b5 7a3f e556 7c3f
00000010: fa6b 743f 05a1 763f b545 753f 3cd3 7c3f
00000020: 79ae 803f 1b9a 7c3f c19a 713f 2ac6 793f
00000030: b00f 8c3f a0a9 8d3f f67a 883f 2a67 883f
00000040: 96da 843f 6553 863f 9d7c 873f 6241 853f
00000050: d5bc 823f f566 803f

base.feature_norm.bias f4 [22]
0.022580829 0.0151518015 0.015915688 -0.000116172334 0.0006705402 0.019139316 -0.018401634 0.019096779
0.023480853 0.059183583 0.020455517 0.02390602 -0.0058241975 -0.05824292 0.027043141 0.013070025
0.003198399 0.01006045 -0.012174269 0.009353245 0.029146045 -0.004772781
00000000: 6efb b83c 433f 783c 9e61 823c 8ca1 f3b8
00000010: 31c7 2f3a 0eca 9c3c 06bf 96bc d970 9c3c
00000020: eb5a c03c 7c6a 723d 5492 a73c 8fd6 c33c
00000030: e9d8 bebb 2190 6ebd 9489 dd3c a823 563c
00000040: 3b9c 513b 96d4 243c 9676 47bc 5a3e 193c
00000050: b0c3 ee3c fd64 9cbb

base.mlp.fc1.0.weight f4 [256, 22]
-0.14984952 -0.052343946 0.047666017 -0.083237596 0.0321586 0.04084701 -0.037649184 0.008880074
-0.04859977 -0.115731575 0.018324297 -0.0035915617 0.023399584 -0.065593734 -0.07059213 0.053380236
-0.005688373 -0.10723527 0.042432085 -0.057392713 0.038958073 0.059239537 0.11637281 0.00062341476
0.026668254 0.14619784 0.045381922 0.110208705 -0.06996443 -0.07954482 -0.039190426 0.026004931
0.016586551 0.078381255 0.04124481 0.0017297638 -0.034162484 -0.10975948 -0.07385477 -0.045096315
0.024348723 0.13089256 -0.12703587 0.07210697 0.07653924 -0.003294594 -0.054874454 0.017509863
0.1185721 -0.21382537 0.020066641 -0.00051905715 -0.004458446 -0.13030553 0.057075027 -0.02827991
-0.14643548 -0.042413745 0.065308735 -0.025116362 0.07000891 0.007996673 0.041997742 0.17555054
0.009556901 0.04796762 0.031457234 0.05722683 -0.14440724 0.04932758 0.010544151 0.032915127
-0.037063025 -0.12848325 -0.02624468 -0.0560966 0.04823468 0.017390829 0.05147674 -0.06114247
0.13845624 -0.02449097 0.059339 0.11683007 -0.080768175 0.04824441 -0.021586966 0.042370256
-0.021753538 0.07550496 0.08340068 0.06526755 -0.14177199 0.13066356 0.032717124 -0.03827259
-0.015449023 -0.17510633 0.06273345 -0.07084251 0.099663936 -0.0891092 0.014982158 0.095657095
0.09866614 0.0651582 0.063132636 -0.016721165 -0.029535256 0.025399512 -0.15066211 0.09273211
-0.018004898 0.0066624153 0.0020954518 0.07893718 -0.1643249 0.07045541 -0.12160792 0.02656728
-0.014489684 0.050060652 -0.053184003 -0.104691945 0.00437849 -0.11308953 0.06326978 0.0792954
-0.05912719 -0.03970113 0.012159208 0.0226589 -0.109396175 -0.08674206 0.0140541205 0.044930805
0.01094627 0.079729594 0.100603186 0.037517898 0.09001267 -0.03883782 -3.812654e-05 -0.019859005
-0.072083786 0.0689696 -0.16708243 0.033212412 -0.16159059 -0.20039442 0.05013199 0.064828016
-0.011284899 0.0645536 -0.080374986 -0.0019639712 -0.01372483 -0.049290758 -8.027079e-05 -0.064683564
-0.032122064 0.020832848 -0.14418738 0.009686885 -0.018404571 -0.070951454 0.107546195 -0.036231726
0.09829626 -0.17199521 0.011126858 -0.27220833 -0.09972692 0.07515628 0.08119428 0.06945708
-0.07806714 -0.022680108 0.02091988 0.07743015 -0.02156852 0.036245782 -0.10586207 0.020993551
-0.09608504 0.075623766 -0.14062864 -0.062435072 0.11280813 0.0031108183 0.0064015253 -0.08488885
-0.0357418 -0.04634631 -0.10811916 -0.08529867 -0.13781877 -0.24401483 0.14750361 -0.015744051
0.055801515 -0.05367615 -0.033435695 -0.029733712 -0.0032926674 -0.0567257 -0.16484928 -0.12103877
0.02733274 0.025977105 0.06019571 0.12397716 0.11305149 -0.052030656 0.021299014 0.182261
-0.022747012 -0.06125375 -0.057639904 0.029512098 0.04158022 -0.09858668 -0.06451365 0.099015616
-0.032311764 0.05099815 -0.012123157 0.0077556437 -0.099989146 -0.07029199 0.06027063 0.06442935
0.027253259 -0.16083133 0.0952989 -0.08515843 0.042995468 -0.1218428 0.11800575 0.1883824
-0.02291851 0.0864714 0.035483964 -0.12634498 -0.14218487 0.08800982 0.1548845 -0.0009441044
-0.03938065 0.09026946 -0.1827182 -0.1189651 0.017755087 -0.038092684 -0.110325895 0.06728862
00000000: 2772 19be 9b66 56bd 713d 433d 7978 aabd
00000010: bcb8 033d 324f 273d 0836 1abd bb7d 113c
00000020: 8d10 47bd ad04 edbd d61c 963c 6860 6bbb
00000030: 7cb0 bf3c 0256 86bd 9b92 90bd 3ca5 5a3d
00000040: 8865 babb 2a9e dbbd 44cd 2d3d 9f14 6bbd
00000050: 8092 1f3d 28a5 723d de54 ee3d a86c 233a
00000060: 6277 da3c e3b4 153e 65e2 393d 1ab5 e13d
00000070: 8349 8fbd 65e8 a2bd 2486 20bd 4b08 d53c
00000080: 85e0 873c 5a86 a03d 51f0 283d 3eb9 e23a
00000090: f6ed 0bbd 94c9 e0bd 2b41 97bd eab6 38bd
000000a0: f976 c73c b308 063e b115 02be d2ac 933d
000000b0: 9bc0 9c3d 1dea 57bb 09c4 60bd d870 8f3c
000000c0: eed5 f23d 0af5 5abe cc62 a43c 5611 08ba
000000d0: 2818 92bb d06e 05be 81c7 693d 45ab e7bc
000000e0: 2ff3 15be 09ba 2dbd 96c0 853d d4c0 cdbc
000000f0: d560 8f3d 7a04 033c d305 2c3d 85c3 333e
00000100: 8c94 1c3c b279 443d 4dd9 003d ae66 6a3d
00000110: 7edf 13be b70b 4a3d 60c1 2c3c 03d2 063d
00000120: 66cf 17bd 1d91 03be 15ff d6bc 8cc5 65bd
00000130: ba91 453d 3677 8e3c 46d9 523d 8770 7abd
00000140: 79c7 0d3e 49a1 c8bc 740d 733d 9b44 ef3d
00000150: c969 a5bd ee9b 453d 26d7 b0bc 6f8c 2d3d
00000160: 7a34 b2bc 58a2 9a3d facd aa3d feaa 853d
00000170: ad2c 11be abcc 053e 6402 063d b8c3 1cbd
00000180: e61d 7dbc 134f 33be 657a 803d e115 91bd
00000190: 9b1c cc3d e27e b6bd ba77 753c dee7 c33d
000001a0: 7911 ca3d aa71 853d af4b 813d d3fa 88bc
000001b0: ecf3 f1bc a312 d03c 2b47 1abe 55ea bd3d
000001c0: 027f 93bc 6450 da3b d953 093b d1a9 a13d
000001d0: c944 28be ed4a 903d 930d f9bd a0a3 d93c
000001e0: 2466 6dbc 660c 4d3d 78d7 59bd bb68 d6bd
000001f0: 7079 8f3b 7c9b e7bd 9693 813d a065 a23d
00000200: 5a2f 72bd a79d 22bd 6a37 473c 289f b93c
00000210: 1a0b e0bd d2a5 b1bd 4143 663c 5d09 383d
00000220: fc57 333c 4549 a33d 0b09 ce3d 5eac 193d
00000230: 9058 b83d 6814 1fbd 10ea 1fb8 5aaf a2bc
00000240: aaa0 93bd ef3f 8d3d a817 2bbe bd09 083d
00000250: 0178 25be 3234 4dbe 3457 4d3d 8dc4 843d
00000260: 4ce4 38bc ae34 843d a49b a4bd f8b5 00bb
00000270: 1cde 60bc 1be5 49bd 0d57 a8b8 d178 84bd
00000280: 6d92 03bd a6a9 aa3c dba5 13be beb5 1e3c
00000290: 2fc5 96bc ff4e 91bd 2e41 dc3d b867 14bd
000002a0: 8d4f c93d 831f 30be 6d4d 363c e45e 8bbe
000002b0: a13d ccbd 89eb 993d 3049 a63d 833f 8e3d
000002c0: aae1 9fbd a2cb b9bc 2b60 ab3c b393 9e3d
000002d0: 77b0 b0bc 7576 143d 37ce d8bd abfa ab3c
000002e0: 3cc8 c4bd a2e0 9a3d f400 10be ebbb 7fbd
000002f0: f307 e73d dfde 4b3b e3c3 d13b 35da adbd
00000300: fe65 12bd a1d5 3dbd 946d ddbd 12b1 aebd
00000310: 5d20 0dbe 06df 79be 300b 173e abf9 80bc
00000320: 2190 643d 86db 5bbd def3 08bd 1d94 f3bc
00000330: cbc9 57bb 3559 68bd 40ce 28be 2de3 f7bd
00000340: e9e8 df3c f0cd d43c c78f 763d bde7 fd3d
00000350: 8a87 e73d 191e 55bd 457b ae3c a1a2 3a3e
00000360: f157 babc 36e5 7abd d217 6cbd 5bc3 f13c
00000370: 0550 2a3d d0e7 c9bd bc1f 84bd b3c8 ca3d
00000380: 5759 04bd 70e3 503d 35a0 46bc 0e23 fe3b
00000390: 1cc7 ccbd 3ff5 8fbd 56de 763d 89f3 833d
000003a0: 3a42 df3c f8b0 24be 122c c33d 8b67 aebd
000003b0: 041c 303d b888 f9bd 00ad f13d 51e7 403e
000003c0: 99bf bbbc eb17 b13d a257 113d 9460 01be
000003d0: e998 11be 7e3e b43d 0b9a 1e3e c67d 77ba
000003e0: 9b4d 21bd 32df b83d 7b1a 3bbe f9a3 f3bd
000003f0: 1e73 913c 1307 1cbd 8bf2 e1bd 9ece 893d

base.mlp.fc1.0.bias f4 [256]
-0.029472105 -0.020085445 0.011283216 -0.014585328 -0.0012199291 0.026811471 -0.0037154777 -0.0020615696
0.027295634 -0.0075414185 0.0051962626 -0.033985797 -0.006778312 -0.0070088757 0.006102044 -0.0069029205
-0.008076606 -0.04288547 0.0114960475 -0.011068234 8.694802e-05 -0.043890294 -0.018293712 0.02397855
0.019996557 -0.004971523 0.019590786 0.004995405 0.030820899 0.027669065 -0.021697866 -0.021310367
0.023064781 -0.02199599 -0.008805232 -0.025076553 0.0394588 0.013222997 0.00042857285 -0.018420044
0.006451695 0.016244596 0.011432738 -0.025106212 0.04795861 0.002283031 0.009908916 -0.0057241935
0.00037025643 0.019067876 0.014877358 0.051266834 -0.003968578 0.01541148 0.06077413 0.013072266
0.03512363 0.00917998 -0.00283677 -0.004001162 0.05666374 -0.015915537 0.0033817138 0.011276724
-0.031124251 -0.044347845 0.03487063 0.0075790696 0.015489346 0.0020544936 -0.043735474 -0.0043428084
-0.00033432 -0.019782983 -0.022875918 0.092358835 0.011987825 -0.0025191621 0.028021935 0.004528339
-0.008722242 -0.01250548 0.05525562 0.018280273 -0.010657633 0.008938295 0.0039575235 0.0076366127
0.01579621 0.007438677 -0.0033957553 -0.038939714 0.0021381793 -0.04052742 0.000909466 -0.011644753
-0.020732865 0.016126012 -0.0039077066 -0.017808668 0.00082563487 0.020073082 -0.015154381 0.014965184
-0.00018639343 -0.028686598 -0.022552243 0.0027131592 0.011740501 0.006925089 0.012604167 -0.037102338
-0.022174412 -0.04290853 0.023338368 0.028392714 -0.0164753 -0.037844192 0.042680733 -0.017914904
0.023914872 -0.005051389 -0.0048112553 0.05060031 0.0028869768 0.009852598 -0.0025064484 -0.017571911
-0.0029784054 -0.0049087405 0.011276461 0.0028748973 0.026878292 0.046557758 -0.0004877905 -0.0006723705
0.031124348 0.014296116 0.016413923 0.006781009 -0.0019237893 0.009065351 0.06672992 0.008875562
-0.03396002 0.016443482 0.024971286 -0.0146710165 -0.015931033 0.0251922 -0.0001253935 0.01013664
-0.01571551 0.027592689 -0.01209637 -0.004608913 -0.038261194 0.027341312 -0.02619198 0.015977165
0.012069365 -0.009519805 0.035529446 0.027113978 -0.0026227348 0.0011843992 0.020937046 -0.020369196
0.048593838 -0.026821414 0.017297482 -0.029360201 0.012046551 -0.0009243333 0.010588182 -0.014478594
-0.014145932 -0.033400975 -0.0062020905 -0.0361503 0.021312704 -0.0125164855 -0.017774379 -0.032266986
0.015504062 0.07344722 0.012527379 -0.03586269 0.058153402 0.043476257 -0.011880463 -0.019176984
0.033803094 -0.0100258365 0.008803616 -0.009226981 0.019435102 0.008110389 -0.0040377285 -0.0057557723
-0.0012400276 0.035428915 -0.015991017 0.020468345 -0.008062646 -0.008837935 0.015883131 0.02686404
-0.018114038 0.058401503 0.03163505 0.0050999057 0.01815979 -0.010221579 -0.015548437 -0.018762551
-0.0075501353 0.046804093 0.035682783 -0.0058436557 -0.035834968 0.024986187 0.027112067 0.033236325
-0.014211461 0.028989911 0.003499351 -0.011420318 0.020574147 0.0034817515 0.047747415 0.035426192
-0.006697861 0.019302405 0.009863858 -0.039657164 -0.010229775 -0.003890611 -0.027890878 -0.0045663645
-0.04205732 0.013436652 0.035116244 -0.02619312 -0.033626415 0.01399882 -0.018611925 -0.011053544
-0.018435806 -0.020886889 0.01877827 -0.01440362 0.03474591 -0.018882478 0.013072116 -0.0022290093
00000000: 7c6f f1bc 3b8a a4bc 3ddd 383c 4df7 6ebc
00000010: 07e6 9fba bba3 db3c 5f7f 73bb 661b 07bb
00000020: 189b df3c 011e f7bb 6945 aa3b b134 0bbd
00000030: 9a1c debb b6aa e5bb a8f3 c73b e531 e2bb
00000040: be53 04bc ada8 2fbd eb59 3c3c 8a57 35bc
00000050: dd57 b638 4fc6 33bd b2dc 95bc aa6e c43c
00000060: d2cf a33c 28e8 a2bb db7c a03c 7fb0 a33b
00000070: 1c7c fc3c 3caa e23c b9bf b1bc 1493 aebc
00000080: 5af2 bc3c ef30 b4bc d243 10bc 586d cdbc
00000090: 8d9f 213d 45a5 583c 13b2 e039 a2e5 96bc
000000a0: be68 d33b 6313 853c 6150 3b3c 8bab cdbc
000000b0: 3f70 443d e79e 153b 0259 223c 0492 bbbb
000000c0: fa1e c239 3c34 9c3c 2ac0 733c 2cfd 513d
000000d0: d80a 82bb 6f80 7c3c 4bee 783d 0f2d 563c
000000e0: ccdd 0f3d a067 163c 1ae9 39bb 2e1c 83bb
000000f0: 3d18 683d 4d61 82bc be9f 5d3b 02c2 383c
00000100: 49f8 febc 16a6 35bd 81d4 0e3d d859 f83b
00000110: 07c7 7d3c afa4 063b f823 33bd 1e4e 8ebb
00000120: ac47 afb9 ec0f a2bc 4766 bbbc a126 bd3d
00000130: 9568 443c 8718 25bb 428e e53c 7662 943b
00000140: bce7 0ebc c9e3 4cbc b853 623d 83c0 953c
00000150: 5a9d 2ebc ed71 123c 1dae 813b 8d3c fa3b
00000160: 0e67 813c 25c0 f33b 528b 5ebb 407f 1fbd
00000170: b220 0c3b 1400 26bd 3b69 6e3a a2c9 3ebc
00000180: f8d7 a9bc b31a 843c 380c 80bb 7ce3 91bc
00000190: 6b6f 583a 4e70 a43c 154a 78bc 8830 753c
000001a0: 9b72 43b9 2800 ebbc 7bbf b8bc 42cf 313b
000001b0: 3b5b 403c dbeb e23b b581 4e3c 9ff8 17bd
000001c0: 1da7 b5bc dbc0 2fbd 1b30 bf3c d697 e83c
000001d0: 35f7 86bc 8302 1bbd fed1 2e3d 47c2 92bc
000001e0: 1fe9 c33c 1f86 a5bb bca7 9dbb 4542 4f3d
000001f0: 6f33 3d3b cb6c 213c 3a43 24bb f8f2 8fbc
00000200: 5a31 43bb 80d9 a0bb e8c0 383c c668 3c3b
00000210: dd2f dc3c 59b3 3e3d 22be ffb9 0542 30ba
00000220: 7df8 fe3c 423a 6a3c 7e76 863c 3a33 de3b
00000230: a827 fcba d786 143c b2a9 883d ce6a 113c
00000240: a919 0bbd 7bb4 863c 9590 cc3c b45e 70bc
00000250: cc81 82bc df5f ce3c 107c 03b9 2614 263c
00000260: d0bd 80bc 100a e23c da2f 46bc 5d06 97bb
00000270: c5b7 1cbd e3fa df3c 9090 d6bc 8be2 823c
00000280: 96be 453c f5f8 1bbc 5387 113d 221e de3c
00000290: 30e2 2bbb d83d 9b3a 2b84 ab3c 4ddd a6bc
000002a0: 550a 473d 95b8 dbbc 73b3 8d3c ce84 f0bc
000002b0: e65e 453c f54e 72ba 0e7a 2d3c a037 6dbc
000002c0: 57c4 67bc 76cf 08bd e83a cbbb 5612 14bd
000002d0: fb97 ae3c f211 4dbc 939b 91bc 632a 04bd
000002e0: c004 7e3c 7f6b 963d a33f 4d3c c2e4 12bd
000002f0: 4332 6e3d 2914 323d 46a6 42bc 0d19 9dbc
00000300: 1d75 0a3d 6843 24bc 0b3d 103c c32c 17bc
00000310: 5d36 9f3c 70e1 043c ec4e 84bb eb9a bcbb
00000320: 6c88 a2ba e91d 113d 98ff 82bc 3bad a73c
00000330: 3019 04bc fccc 10bc 571d 823c fa11 dc3c
00000340: e463 94bc 6a36 6f3d c193 013d 1c1d a73b
00000350: d7c3 943c 6978 27bc dfbe 7ebc ecb3 99bc
00000360: 2067 f7bb a6b5 3f3d 1c28 123d 237c bfbb
00000370: b0c7 12bd d5af cc3c 201a de3c d022 083d
00000380: 30d7 68bc 407c ed3c 5e55 653b 491c 3bbc
00000390: 1d8b a83c 192e 643b cb92 433d 0e1b 113d
000003a0: bb79 dbbb 1420 9e3c 059c 213c 8d6f 22bd
000003b0: c99a 27bc 9ff9 7ebb 697b e4bc 71a1 95bb
000003c0: 4c44 2cbd 6725 5c3c 0dd6 0f3d f492 d6bc
000003d0: dabb 09bd 4f5b 653c 0978 98bc ec19 35bc
000003e0: b006 97bc fb1a abbc e3d4 993c 29fd 6bbc
000003f0: ba51 0e3d 6daf 9abc 6e2c 563c 9214 12bb

base.mlp.fc1.2.weight f4 [256]
1.0229003 0.9704928 1.0085716 0.9925856 0.9931593 0.9798235 1.0366236 0.9918805
1.0372487 1.0170206 1.009682 0.9693222 0.98993105 0.9851705 1.0102015 0.98220974
0.97952133 1.0333865 0.99464834 1.0125399 1.0243583 1.003214 1.0073916 1.018098
1.0025291 1.0061567 0.993744 0.9843778 0.98589087 1.0055912 0.99096125 0.98432827
1.0194843 1.0262697 0.99962085 1.0060399 1.032301 1.0211996 1.0179291 0.99693805
0.9881619 1.0144211 1.0248815 0.98986566 1.0282711 1.0000992 0.9910879 0.9993714
1.0027169 0.97995967 0.99336 1.0053504 0.9963661 1.0142612 1.0141393 0.9959576
0.98037505 1.0182285 1.002894 0.9943834 1.034902 0.9953836 1.0062405 1.0149177
1.0225086 1.0329459 1.0085201 0.99220234 1.0090699 1.0391665 1.018145 1.0086373
1.0110729 0.99696356 0.9921579 1.0238392 0.98743725 0.9962156 1.0282959 1.0123655
0.9908002 0.99636996 1.0302144 0.9895085 0.988195 0.9902472 1.0295295 1.0047694
0.98490393 0.98542494 1.0085107 1.0225548 0.9807334 1.0217721 1.0028247 0.9847117
0.99846464 0.9845123 0.98301154 0.9991424 1.0053141 1.0195231 1.0080373 0.9935885
0.98817986 0.9865399 0.99602515 0.9978933 1.0087736 0.97109246 1.0037514 1.0312862
0.9724446 1.0322686 1.0289974 1.015376 0.9894489 1.0063215 1.0193146 0.99564606
1.0072334 0.9716634 0.98070663 1.038773 1.0200876 0.9938985 0.98883647 0.9850648
0.9839998 0.9884258 1.0124671 0.9924033 1.0033833 1.0078351 0.99614364 0.9985392
1.0050799 0.970222 0.9901993 1.0004761 1.0149657 0.9757608 1.0259057 0.9997854
0.99451214 1.0144726 1.0205559 0.98548514 1.000912 0.9912717 0.99488366 1.0209423
0.9899011 0.99444014 1.0042287 1.0084434 1.0017366 1.0253515 1.0044245 1.0161797
1.0004939 1.0229607 0.9864905 1.0249765 0.98677844 0.99792117 1.0010209 0.99446785
0.9997532 0.98896796 1.0111861 0.9787477 1.0183549 0.9664924 0.988462 0.98719764
0.99700594 0.995341 0.9768923 1.0010563 0.9908699 0.9830006 0.9909185 0.9626191
1.0299743 1.0163933 0.9924135 0.9898665 1.0506126 1.0418794 0.988754 1.0114067
1.0128825 1.0056531 0.99211884 0.9840079 1.0017418 1.0085908 0.9935554 1.0005877
0.9805671 1.0144836 0.9880769 0.9765206 0.980632 0.9952176 0.98937625 1.0115047
1.0223569 1.0175716 1.0139613 1.036526 1.0114926 0.9893412 0.99963605 0.9945705
0.98557264 1.0045859 0.97769755 1.006868 1.0060325 1.0124094 1.0064104 1.0000371
1.0033766 1.0047437 1.0150186 0.9818531 1.0117797 0.9847682 1.0014145 1.0272478
0.997108 1.0069793 0.9748288 0.9860856 0.9829334 1.0038799 1.0023063 1.0155181
0.99348056 1.0136389 0.99694514 1.0051472 0.99115485 0.9983688 0.98739487 0.9873657
0.99720454 0.9975945 0.9933261 0.9873258 1.0324899 0.9768871 0.9898923 0.98905724
00000000: 66ee 823f 3772 783f e018 813f 171a 7e3f
00000010: b03f 7e3f b7d5 7a3f 15b0 843f e1eb 7d3f
00000020: 91c4 843f bb2d 823f 433d 813f 8025 783f
00000030: 1f6c 7d3f 2234 7c3f 484e 813f 1972 7b3f
00000040: e9c1 7a3f 0246 843f 46a1 7e3f e89a 813f
00000050: 2c1e 833f 5169 803f 35f2 803f 0951 823f
00000060: e052 803f bec9 803f 0266 7e3f 2f00 7c3f
00000070: 5863 7c3f 36b7 803f a3af 7d3f f0fc 7b3f
00000080: 767e 823f ce5c 833f 27e7 7f3f eac5 803f
00000090: 7022 843f abb6 823f 804b 823f 5537 7f3f
000000a0: 2ef8 7c3f 8dd8 813f 512f 833f d667 7d3f
000000b0: 639e 833f 4003 803f f0b7 7d3f ced6 7f3f
000000c0: 0759 803f a3de 7a3f d74c 7e3f 52af 803f
000000d0: d911 7f3f 50d3 813f 51cf 813f 14f7 7e3f
000000e0: dcf9 7a3f 5055 823f d55e 803f e98f 7e3f
000000f0: ab77 843f 76d1 7e3f 7dcc 803f d3e8 813f
00000100: 90e1 823f 9237 843f 3017 813f f900 7e3f
00000110: 3429 813f 6803 853f 9352 823f 071b 813f
00000120: d66a 813f 0139 7f3f 0ffe 7d3f 2a0d 833f
00000130: b0c8 7c3f fc07 7f3f 339f 833f 3195 813f
00000140: 15a5 7d3f 1a12 7f3f 11de 833f 6e50 7d3f
00000150: 59fa 7c3f d780 7d3f 9fc7 833f 499c 803f
00000160: aa22 7c3f cf44 7c3f e116 813f 13e3 823f
00000170: 5811 7b3f 6ec9 823f 8f5c 803f 1116 7c3f
00000180: 619b 7f3f 0009 7c3f a5a6 7b3f ccc7 7f3f
00000190: 22ae 803f bc7f 823f 5e07 813f d15b 7e3f
000001a0: 5bf9 7c3f e18d 7c3f 81fb 7e3f ef75 7f3f
000001b0: 7e1f 813f 8499 783f ed7a 803f 3001 843f
000001c0: 21f2 783f 6121 843f 30b6 833f d7f7 813f
000001d0: 864c 7d3f 25cf 803f e778 823f a9e2 7e3f
000001e0: 06ed 803f efbe 783f 970f 7b3f 83f6 843f
000001f0: 3b92 823f 2270 7e3f 6324 7d3f 352d 7c3f
00000200: 69e7 7b3f 7909 7d3f 8698 813f 250e 7e3f
00000210: dd6e 803f be00 813f 4503 7f3f 44a0 7f3f
00000220: 75a6 803f 7860 783f b47d 7d3f 9a0f 803f
00000230: 65ea 813f 76cb 793f e150 833f f0f1 7f3f
00000240: 5998 7e3f 3dda 813f 93a1 823f c148 7c3f
00000250: e21d 803f fbc3 7d3f b2b0 7e3f 3dae 823f
00000260: 296a 7d3f a193 7e3f 918a 803f ac14 813f
00000270: e838 803f b83e 833f fb90 803f 2d12 823f
00000280: 2f10 803f 60f0 823f a48a 7c3f 6e32 833f
00000290: 839d 7c3f c377 7f3f 7421 803f 7295 7e3f
000002a0: d3ef 7f3f 012d 7d3f 8c6e 813f 368f 7a3f
000002b0: 7459 823f 0c6c 773f d80b 7d3f fcb8 7c3f
000002c0: c83b 7f3f abce 7e3f 9d15 7a3f 9d22 803f
000002d0: a6a9 7d3f eda5 7b3f d6ac 7d3f 356e 763f
000002e0: 33d6 833f 2d19 823f d00e 7e3f e467 7d3f
000002f0: 797a 863f 4e5c 853f fb1e 7d3f c675 813f
00000300: 22a6 813f 3eb9 803f 80fb 7d3f f1e7 7b3f
00000310: 1339 803f 8119 813f a659 7e3f 4213 803f
00000320: 7206 7b3f 99da 813f 9cf2 7c3f 41fd 793f
00000330: b30a 7b3f 95c6 7e3f c347 7d3f fc78 813f
00000340: 97dc 823f c93f 823f 7cc9 813f e2ac 843f
00000350: 9778 813f 7745 7d3f 26e8 7f3f 2c9c 7e3f
00000360: 7d4e 7c3f 4596 803f 634a 7a3f 0de1 803f
00000370: acc5 803f a296 813f 0ed2 803f 3701 803f
00000380: a56e 803f 719b 803f 21ec 813f ba5a 7b3f
00000390: ff81 813f c519 7c3f 5a2e 803f db7c 833f
000003a0: 7842 7f3f b3e4 803f 618e 793f 1b70 7c3f
000003b0: 86a1 7b3f 237f 803f 934b 803f 7ffc 813f
000003c0: be54 7e3f ebbe 813f cc37 7f3f aaa8 803f
000003d0: 53bc 7d3f 1995 7f3f e9c5 7c3f 00c4 7c3f
000003e0: cc48 7f3f 5a62 7f3f 9f4a 7e3f 62c1 7c3f
000003f0: a128 843f 4615 7a3f 9569 7d3f db32 7d3f

base.mlp.fc1.2.bias f4 [256]
-0.045405235 -0.017440375 -0.006045126 -0.018108377 0.000619418 0.03041729 -0.016740123 0.0074490122
0.0026091032 -0.03400496 -0.0046989983 -0.023589106 -0.009180356 -0.014282655 -0.014359393 0.0015443392
0.007626323 -0.046951 0.026525397 -0.034130543 -0.028395599 -0.043204032 -0.027681017 0.00962611
0.009793525 -0.01161065 0.027283138 0.012987555 0.025183575 0.046897907 -0.030673042 -0.024957314
0.009767523 -0.04012651 -0.010419829 -0.03685381 0.029250728 0.014000619 -0.033732317 -0.016338559
0.002161548 0.007453551 0.01029581 -0.025919877 0.01955357 0.0048966953 0.02354975 -0.0066807545
-0.00519052 0.01034898 0.009750503 0.04589289 -0.0044799293 0.0041977344 0.05840717 0.011440636
0.050565887 -0.011130341 -0.016755072 -0.01193855 0.033202227 -0.029100822 0.0071565164 -0.0033352296
-0.045912724 -0.06370906 0.0361345 0.011716868 0.0033486169 -0.017721854 -0.04087183 -0.018625477
-0.035575274 -0.022053303 -0.028887881 0.055040162 -0.006339424 -0.012793026 0.018629974 -0.0073763332
0.00094621454 -0.0154500045 0.03974485 0.013056856 -0.012043978 0.010224173 -0.0122263795 -0.00078425853
0.021570344 0.00060788344 -0.0033603923 -0.05225501 -0.015555747 -0.0385057 -0.01852706 -0.0043818494
-0.023732087 0.020177947 0.0017076387 -0.028855631 -0.0106407 0.03342726 -0.039026543 0.021081215
0.0017071655 -0.039097298 -0.02274474 0.0015854585 0.007688189 0.005335186 -0.00036334276 -0.042631134
-0.017783644 -0.048474275 0.010969841 0.022706373 -0.020605173 -0.05341467 0.027893018 -0.019608641
0.0106551945 0.005997826 0.0014035881 0.02836155 -0.0057805893 -0.0066962778 0.0056997053 -0.020879168
-0.0010464537 -0.0020279828 0.0011654487 -0.0067501413 0.0148609765 0.059373334 0.0019416899 -0.011784202
0.022001257 0.019434718 0.018519793 0.0017320756 -0.020195836 0.016548842 0.05696726 0.0077338307
-0.040333122 0.002627849 0.003276249 -0.017440021 -0.01147881 0.016459536 -0.005833585 0.001528878
-0.016372552 0.040206794 -0.008428046 -0.017852677 -0.04420238 0.0076616015 -0.03730824 -0.0050308025
0.0038510573 -0.010432074 0.03078098 0.025516355 -0.0028564823 0.0015633153 0.018231204 -0.015342488
0.04882764 -0.0372162 -0.0016233898 -0.031635705 0.011173577 0.0049499506 0.009205972 -0.020767353
-0.016851462 -0.034131322 -0.0091780145 -0.0278245 0.0245701 -0.0049569714 -0.026538558 -0.015451449
-0.013781122 0.052737597 0.004663252 -0.041972205 0.043100808 0.038710136 -0.00089217554 -0.016161231
0.019672472 -0.021024643 0.014285886 -0.019372512 0.007809893 -0.004643376 0.007825067 -0.018015323
-0.003952272 0.027589692 -0.012899996 0.020842519 0.00046540343 -0.0058768764 0.014151577 0.0078892475
-0.02752074 0.05335316 0.033477228 -0.0042842044 0.01621158 -0.019944767 -0.037138984 -0.019556804
-0.008174558 0.0293663 0.040457573 -0.012883559 -0.029640578 0.0154681895 0.008901739 0.015781762
-0.016240267 0.040396664 0.0030048997 -0.0058271447 0.01817192 -0.0021647462 0.03597042 0.012877878
-0.0049342606 0.025616182 0.014795115 -0.036757782 -0.0075067296 -0.011991327 -0.024846945 -0.008339665
-0.035563953 -0.0029210057 0.017449128 -0.024953874 -0.032053042 0.00019438527 -0.016722117 -0.0033595723
-0.021074943 -0.024299284 0.01570952 -0.02004906 0.010271727 -0.019182244 0.0125007 0.0033970173
00000000: d7fa 39bd 1edf 8ebc 3116 c6bb 0558 94bc
00000010: 7060 223a ae2d f93c 9522 89bc d816 f43b
00000020: 7dfd 2a3b c948 0bbd 0efa 99bb f13d c1bc
00000030: 3469 16bc cc01 6abc a943 6bbc 6d6b ca3a
00000040: 3ce6 f93b b14f 40bd ca4b d93c 78cc 0bbd
00000050: e39d e8bc b6f6 30bd 4dc3 e2bc d5b6 1d3c
00000060: 0575 203c 993a 3ebc e380 df3c c1c9 543c
00000070: c94d ce3c 0518 403d 0846 fbbc 4873 ccbc
00000080: f607 203c b25b 24bd eeb7 2abc 05f4 16bd
00000090: 399f ef3c da62 653c e62a 0abd 71d8 85bc
000000a0: c2a8 0d3b eb3c f43b c2af 283c ec55 d4bc
000000b0: cf2e a03c 7574 a03b 68eb c03c 3bea dabb
000000c0: 3d15 aabb c58e 293c 93c0 1f3c 2ffa 3b3d
000000d0: 5fcc 92bb 268d 893b 5b3c 6f3d 8171 3b3c
000000e0: 2d1e 4f3d 095c 36bc ef41 89bc e899 43bc
000000f0: 0fff 073d d964 eebc 3681 ea3b de93 5abb
00000100: fb0e 3cbd e579 82bd c501 143d 1bf8 3f3c
00000110: 7874 5b3b 6c2d 91bc 3869 27bd 7594 98bc
00000120: 61b7 11bd 21a9 b4bc 47a6 ecbc cb71 613d
00000130: f1ba cfbb d799 51bc e39d 983c 2bb5 f1bb
00000140: 620b 783a 0422 7dbc 7fcb 223d 6cec 553c
00000150: 1b54 45bc 4a83 273c 2751 48bc b396 4dba
00000160: 4ab4 b03c 5e5a 1f3a 073a 5cbb 5909 56bd
00000170: 88dd 7ebc 27b8 1dbd 10c6 97bc 9e95 8fbb
00000180: cb69 c2bc 394c a53c d9d2 df3a a562 ecbc
00000190: 5556 2ebc 06eb 083d 4cda 1fbd 83b2 ac3c
000001a0: f8c2 df3a 7d24 20bd 2d53 babc 29cf cf3a
000001b0: 34ed fb3b c9d2 ae3b 0a7f beb9 fc9d 2ebd
000001c0: 01af 91bc f68c 46bd d9ba 333c b702 ba3c
000001d0: 2ecc a8bc 57c9 5abd e67f e43c 4da2 a0bc
000001e0: 2093 2e3c 6989 c43b 9af8 b73a 7b56 e83c
000001f0: 196b bdbb 736c dbbb 98c4 ba3b ca0a abbc
00000200: 2929 89ba e8e7 04bb f8c1 983a 4a30 ddbb
00000210: 747b 733c 7431 733d 4d80 fe3a 8712 41bc
00000220: fb3b b43c 8f35 9f3c d2b6 973c d006 e33a
00000230: bd71 a5bc 7091 873c 8056 693d 136c fd3b
00000240: 5834 25bd fe37 2c3b 56b6 563b 60de 8ebc
00000250: 9e11 3cbc 26d6 863c a827 bfbb a264 c83a
00000260: bb1f 86bc e1af 243d c915 0abc c73f 92bc
00000270: 8e0d 35bd 2c0e fb3b 86d0 18bd 6ed9 a4bb
00000280: 0562 7c3b 4aeb 2abc 6528 fc3c ad07 d13c
00000290: d233 3bbb 28e8 cc3a 9b59 953c 0f5f 7bbc
000002a0: 7eff 473d 0470 18bd ecc7 d4ba 7194 01bd
000002b0: 6111 373c 3233 a23b a5d4 163c 4c20 aabc
000002c0: 140c 8abc 49cd 0bbd 625f 16bc 35f0 e3bc
000002d0: 3c47 c93c 176e a2bb 6467 d9bc 1328 7dbc
000002e0: 37ca 61bc 6103 583d 31ce 983b 0ceb 2bbd
000002f0: 798a 303d 858e 1e3d e3e0 69ba 8f64 84bc
00000300: 2a28 a13c df3b acbc 590f 6a3c 1ab3 9ebc
00000310: 22ea ff3b 7627 98bb b634 003c df94 93bc
00000320: 0f82 81bb c703 e23c 815a 53bc eebd aa3c
00000330: 6401 f439 d092 c0bb 04dc 673c e741 013c
00000340: 2d73 e1bc d888 5a3d 6b1f 093d 8362 8cbb
00000350: 26ce 843c 3563 a3bc 0c1f 18bd 9735 a0bc
00000360: 95ee 05bc 9891 f03c d7b6 253d 9015 53bc
00000370: ccd0 f2bc 4a6e 7d3c 99d8 113c c148 813c
00000380: 4f0a 85bc f976 253d daed 443b a2f1 bebb
00000390: 47dd 943c 6ade 0dbb b855 133d bcfd 523c
000003a0: 94af a1bb 07d9 d13c 3667 723c 548f 16bd
000003b0: 03fb f5bb 4577 44bc d28b cbbc 17a3 08bc
000003c0: 82ab 11bd 586e 3fbb 79f1 8e3c 116c ccbc
000003d0: 0d4a 03bd e6d3 4b39 d2fc 88bc 452c 5cbb
000003e0: 5ca5 acbc 4b0f c7bc 40b1 803c ed3d a4bc
000003f0: bf4a 283c 1524 9dbc bccf 4c3c 7ea0 5e3b

base.mlp.fc_h.0.weight f4 [256, 256]
-0.087551646 -0.010467715 0.06935266 0.11359232 -0.08479113 -0.060850292 0.08115836 0.15103
0.14361991 -0.13862091 0.06533422 0.018104006 -0.003431645 -0.17414603 -0.12509535 -0.012616128
0.102427796 -0.015421187 -0.01728227 -0.010242304 0.14727533 0.21597005 -0.12653457 0.042964987
0.05006603 0.026115872 0.1363496 0.002607915 -0.011507245 -0.06248687 0.006972493 -0.108408794
0.14195968 -0.022913145 0.18659101 -0.014877732 -0.0002350398 -0.031509925 -0.04802124 0.05415286
-0.07567008 0.0062101353 -0.07023565 0.002534785 -0.058025938 0.06842387 0.050862372 -0.021396592
0.18833795 -0.009026039 0.06943867 -0.059032086 -0.13745952 0.029121514 -0.053431623 0.1320398
-0.05287426 -0.027059013 0.040782098 0.031898867 0.0628456 0.10781474 -0.092984 -0.049736485
0.0062150005 -0.18730654 -0.038046878 -0.12574586 -0.08491167 0.060795847 0.19703877 0.099894606
-0.15952723 0.101434715 -0.0037800795 -0.08100619 0.006984655 -0.17205873 0.0010490218 -0.09697426
-0.105230816 0.15912685 -0.10933654 -0.06257796 0.020445397 -0.027956152 0.014539093 -0.046345696
-0.045087885 0.060716864 0.1562921 0.05137283 0.054981273 -0.031789113 -0.045325067 0.06574692
-0.10999993 -0.026538705 -0.19036679 -0.008786518 0.036268786 -0.058874283 0.05814364 -0.05873445
-0.14975537 -0.078149766 0.24792352 0.06231608 0.00092429674 0.0986134 -0.15294287 -0.02103859
-0.09240006 -0.09115545 -0.013144205 -0.0018847373 0.028821899 0.02094791 -0.074454665 -0.009111449
-0.13319154 -0.069283314 0.053240426 -0.12673762 0.027581265 0.0523717 -0.15180306 -0.13495857
0.06151032 -0.06929707 -0.05156993 0.03959266 0.09727796 0.007836133 0.021631712 -0.05105389
-0.14208764 0.011091839 -0.11657249 0.13288142 -0.22205612 -0.12227108 0.12974766 0.013276876
-0.06048231 0.058041688 0.16224527 -0.038793344 0.034825075 -0.008752615 0.013761286 -0.016131783
-0.12125342 0.08222743 0.07534007 0.06052694 -0.07279198 -0.036421034 0.08948263 -0.031777553
0.14888898 -0.02879364 0.01128151 -0.09553283 -0.032212146 0.008955038 0.019470306 0.14379163
-0.15995283 0.035459235 -0.028611796 0.014026448 -0.07353469 0.048196692 0.14627329 -0.16356361
0.1828152 0.0068047824 -0.034742747 0.011743239 -0.105075434 0.05923767 0.011240169 -0.044070397
0.080694646 -0.119138874 0.1509103 -0.04256285 2.5257816e-05 0.101925306 -0.10290195 0.10730973
-0.04360681 0.11880107 -0.028382361 0.09484896 -0.0027719138 0.016468676 0.02488601 -0.078272305
0.04917205 -0.08632088 0.05955286 -0.08061491 -0.07280408 -0.06738621 -0.06534336 0.13675801
-0.033368774 0.1287536 0.023969265 -0.070807956 0.07390601 0.20457861 -0.022330359 0.10259049
-0.12178321 0.030397305 0.0136703905 -0.060119525 -0.11955188 -0.1061258 0.04387305 -0.030019624
-0.09995989 -0.12815231 -0.014231231 0.10237114 -0.07656265 -0.019364797 0.059623864 0.09885723
-0.06720353 0.062223595 0.057949092 0.040743224 -0.0023798111 0.03703135 0.05843138 0.071522914
-0.022959683 -0.028746177 0.109756336 0.1536976 -0.028427556 0.025808955 0.05800882 -0.040807188
0.020697853 -0.007897258 0.1323271 -0.123391695 -0.025897473 0.06531624 -0.17789157 -0.016778318
00000000: 474e b3bd c780 2bbc c408 8e3d 17a3 e83d
00000010: f9a6 adbd 283e 79bd 5b36 a63d 9ca7 1a3e
00000020: 1911 133e a4f2 0dbe f3cd 853d da4e 943c
00000030: 73e5 60bb 5653 32be ff18 00be e0b3 4ebc
00000040: aac5 d13d 25a9 7cbc 8c93 8dbc 56cf 27bc
00000050: 58cf 163e 4127 5d3e 4792 01be 0efc 2f3d
00000060: 0a12 4d3d f4f0 d53c 3b9f 0b3e 8ee9 2a3b
00000070: e288 3cbc 3bf2 7fbd 8379 e43b 6e05 debd
00000080: e15d 113e 59b4 bbbc b711 3f3e bbc1 73bc
00000090: 0475 76b9 8d10 01bd ebb1 44bd 64cf 5d3d
000000a0: eaf8 9abd 647e cb3b b5d7 8fbd a31e 263b
000000b0: 9bac 6dbd d021 8c3d 1055 503d e847 afbc
000000c0: aadb 403e f4e1 13bc dd35 8e3d a1cb 71bd
000000d0: 30c2 0cbe 3e90 ee3c 1edb 5abd 7135 073e
000000e0: ae92 58bd ddaa ddbc 210b 273d 63a8 023d
000000f0: 32b5 803d f9cd dc3d 656e bebd 7cb8 4bbd
00000100: 34a7 cb3b 49cd 3fbe 0bd7 1bbd 86c3 00be
00000110: 2be6 adbd 1105 793d 88c4 493e 8b95 cc3d
00000120: 1b5b 23be 01bd cf3d 36bb 77bb 93e6 a5bd
00000130: 88df e43b 2a30 30be 557f 893a 719a c6bd
00000140: 4183 d7bd 26f2 223e d6eb dfbd e028 80bd
00000150: 1b7d a73c 4d04 e5bc 6035 6e3c fcd4 3dbd
00000160: 13ae 38bd 3fb2 783d 090b 203e 516c 523d
00000170: 0b34 613d 4d35 02bd c7a6 39bd 52a6 863d
00000180: a547 e1bd b367 d9bc 83ef 42be 54f5 0fbc
00000190: 948e 143d 2926 71bd 0728 6e3d 8993 70bd
000001a0: 7959 19be fc0c a0bd aadf 7d3e 253f 7f3d
000001b0: 814c 723a d2f5 c93d 0e9d 1cbe 1f59 acbc
000001c0: 3e3c bdbd b5af babd cb5a 57bc 4a09 f7ba
000001d0: e71b ec3c f49a ab3c b07b 98bd 3048 15bc
000001e0: 5d63 08be 69e4 8dbd a212 5a3d 82c7 01be
000001f0: 1bf2 e13c b583 563d 4372 1bbe 9432 0abe
00000200: 3ff2 7b3d 9feb 8dbd fe3a 53bd ea2b 223d
00000210: ab39 c73d 2063 003c fd34 b13c e21d 51bd
00000220: 6c7f 11be 8bba 353c 8fbd eebd 1112 083e
00000230: ae62 63be 4369 fabd 92dc 043e 4187 593c
00000240: 4cbc 77bd 1fbd 6d3d a023 263e c5e5 1ebd
00000250: bda4 0e3d 2167 0fbc 0477 613c cd26 84bc
00000260: b753 f8bd db66 a83d e54b 9a3d 19eb 773d
00000270: f613 95bd 392e 15bd ab42 b73d 2e29 02bd
00000280: 5a76 183e a4e0 ebbc 15d6 383c b7a6 c3bd
00000290: e2f0 03bd 27b8 123c 3180 9f3c 1d3e 133e
000002a0: adca 23be b43d 113d 4963 eabc 30cf 653c
000002b0: 5b99 96bd e569 453d aac8 153e 387d 27be
000002c0: e833 3b3e a7fa de3b 694e 0ebd b766 403c
000002d0: ca31 d7bd 33a3 723d b028 383c 2983 34bd
000002e0: 3c43 a53d 15ff f3bd 3b88 1a3e 6256 2ebd
000002f0: bfe0 d337 37be d03d 42be d2bd 34c5 db3d
00000300: 0e9d 32bd fa4d f33d 2082 e8bc 2c40 c23d
00000310: ffa8 35bb 51e9 863c bfdd cb3c 3b4d a0bd
00000320: a268 493d 00c9 b0bd b3ed 733d 6e19 a5bd
00000330: 4e1a 95bd c801 8abd bdd2 85bd 4b0a 0c3e
00000340: b2ad 08bd fcd7 033e 315b c43c c303 91bd
00000350: 095c 973d 0e7d 513e 28ee b6bc f61a d23d
00000360: 7a69 f9bd c503 f93c c6f9 5f3c e43f 76bd
00000370: 9ed7 f4bd 7c58 d9bd 3ab4 333d b7eb f5bc
00000380: c5b7 ccbd 5c3a 03be 1c2a 69bc f6a7 d13d
00000390: e1cc 9cbd eca2 9ebc 2738 743d a975 ca3d
000003a0: 01a2 89bd 2bde 7e3d 075c 6d3d 5ee2 263d
000003b0: 9bf6 1bbb 2fae 173d be55 6f3d 9b7a 923d
000003c0: f215 bcbc 1a7d ebbc eec7 e03d e762 1d3e
000003d0: e8e0 e8bc 4d6d d33c a89a 6d3d 7025 27bd
000003e0: 8b8e a93c 8063 01bc c180 073e c9b4 fcbd
000003f0: f026 d4bc 85c4 853d 3529 36be af72 89bc

base.mlp.fc_h.0.bias f4 [256]
0.0 0.0 0.0 0.0 0.0 0.0 0.0 0.0
0.0 0.0 0.0 0.0 0.0 0.0 0.0 0.0
0.0 0.0 0.0 0.0 0.0 0.0 0.0 0.0
0.0 0.0 0.0 0.0 0.0 0.0 0.0 0.0
0.0 0.0 0.0 0.0 0.0 0.0 0.0 0.0
0.0 0.0 0.0 0.0 0.0 0.0 0.0 0.0
0.0 0.0 0.0 0.0 0.0 0.0 0.0 0.0
0.0 0.0 0.0 0.0 0.0 0.0 0.0 0.0
0.0 0.0 0.0 0.0 0.0 0.0 0.0 0.0
0.0 0.0 0.0 0.0 0.0 0.0 0.0 0.0
0.0 0.0 0.0 0.0 0.0 0.0 0.0 0.0
0.0 0.0 0.0 0.0 0.0 0.0 0.0 0.0
0.0 0.0 0.0 0.0 0.0 0.0 0.0 0.0
0.0 0.0 0.0 0.0 0.0 0.0 0.0 0.0
0.0 0.0 0.0 0.0 0.0 0.0 0.0 0.0
0.0 0.0 0.0 0.0 0.0 0.0 0.0 0.0
0.0 0.0 0.0 0.0 0.0 0.0 0.0 0.0
0.0 0.0 0.0 0.0 0.0 0.0 0.0 0.0
0.0 0.0 0.0 0.0 0.0 0.0 0.0 0.0
0.0 0.0 0.0 0.0 0.0 0.0 0.0 0.0
0.0 0.0 0.0 0.0 0.0 0.0 0.0 0.0
0.0 0.0 0.0 0.0 0.0 0.0 0.0 0.0
0.0 0.0 0.0 0.0 0.0 0.0 0.0 0.0
0.0 0.0 0.0 0.0 0.0 0.0 0.0 0.0
0.0 0.0 0.0 0.0 0.0 0.0 0.0 0.0
0.0 0.0 0.0 0.0 0.0 0.0 0.0 0.0
0.0 0.0 0.0 0.0 0.0 0.0 0.0 0.0
0.0 0.0 0.0 0.0 0.0 0.0 0.0 0.0
0.0 0.0 0.0 0.0 0.0 0.0 0.0 0.0
0.0 0.0 0.0 0.0 0.0 0.0 0.0 0.0
0.0 0.0 0.0 0.0 0.0 0.0 0.0 0.0
0.0 0.0 0.0 0.0 0.0 0.0 0.0 0.0
00000000: 0000 0000 0000 0000 0000 0000 0000 0000
00000010: 0000 0000 0000 0000 0000 0000 0000 0000
00000020: 0000 0000 0000 0000 0000 0000 0000 0000
00000030: 0000 0000 0000 0000 0000 0000 0000 0000
00000040: 0000 0000 0000 0000 0000 0000 0000 0000
00000050: 0000 0000 0000 0000 0000 0000 0000 0000
00000060: 0000 0000 0000 0000 0000 0000 0000 0000
00000070: 0000 0000 0000 0000 0000 0000 0000 0000
00000080: 0000 0000 0000 0000 0000 0000 0000 0000
00000090: 0000 0000 0000 0000 0000 0000 0000 0000
000000a0: 0000 0000 0000 0000 0000 0000 0000 0000
000000b0: 0000 0000 0000 0000 0000 0000 0000 0000
000000c0: 0000 0000 0000 0000 0000 0000 0000 0000
000000d0: 0000 0000 0000 0000 0000 0000 0000 0000
000000e0: 0000 0000 0000 0000 0000 0000 0000 0000
000000f0: 0000 0000 0000 0000 0000 0000 0000 0000
00000100: 0000 0000 0000 0000 0000 0000 0000 0000
00000110: 0000 0000 0000 0000 0000 0000 0000 0000
00000120: 0000 0000 0000 0000 0000 0000 0000 0000
00000130: 0000 0000 0000 0000 0000 0000 0000 0000
00000140: 0000 0000 0000 0000 0000 0000 0000 0000
00000150: 0000 0000 0000 0000 0000 0000 0000 0000
00000160: 0000 0000 0000 0000 0000 0000 0000 0000
00000170: 0000 0000 0000 0000 0000 0000 0000 0000
00000180: 0000 0000 0000 0000 0000 0000 0000 0000
00000190: 0000 0000 0000 0000 0000 0000 0000 0000
000001a0: 0000 0000 0000 0000 0000 0000 0000 0000
000001b0: 0000 0000 0000 0000 0000 0000 0000 0000
000001c0: 0000 0000 0000 0000 0000 0000 0000 0000
000001d0: 0000 0000 0000 0000 0000 0000 0000 0000
000001e0: 0000 0000 0000 0000 0000 0000 0000 0000
000001f0: 0000 0000 0000 0000 0000 0000 0000 0000
00000200: 0000 0000 0000 0000 0000 0000 0000 0000
00000210: 0000 0000 0000 0000 0000 0000 0000 0000
00000220: 0000 0000 0000 0000 0000 0000 0000 0000
00000230: 0000 0000 0000 0000 0000 0000 0000 0000
00000240: 0000 0000 0000 0000 0000 0000 0000 0000
00000250: 0000 0000 0000 0000 0000 0000 0000 0000
00000260: 0000 0000 0000 0000 0000 0000 0000 0000
00000270: 0000 0000 0000 0000 0000 0000 0000 0000
00000280: 0000 0000 0000 0000 0000 0000 0000 0000
00000290: 0000 0000 0000 0000 0000 0000 0000 0000
000002a0: 0000 0000 0000 0000 0000 0000 0000 0000
000002b0: 0000 0000 0000 0000 0000 0000 0000 0000
000002c0: 0000 0000 0000 0000 0000 0000 0000 0000
000002d0: 0000 0000 0000 0000 0000 0000 0000 0000
000002e0: 0000 0000 0000 0000 0000 0000 0000 0000
000002f0: 0000 0000 0000 0000 0000 0000 0000 0000
00000300: 0000 0000 0000 0000 0000 0000 0000 0000
00000310: 0000 0000 0000 0000 0000 0000 0000 0000
00000320: 0000 0000 0000 0000 0000 0000 0000 0000
00000330: 0000 0000 0000 0000 0000 0000 0000 0000
00000340: 0000 0000 0000 0000 0000 0000 0000 0000
00000350: 0000 0000 0000 0000 0000 0000 0000 0000
00000360: 0000 0000 0000 0000 0000 0000 0000 0000
00000370: 0000 0000 0000 0000 0000 0000 0000 0000
00000380: 0000 0000 0000 0000 0000 0000 0000 0000
00000390: 0000 0000 0000 0000 0000 0000 0000 0000
000003a0: 0000 0000 0000 0000 0000 0000 0000 0000
000003b0: 0000 0000 0000 0000 0000 0000 0000 0000
000003c0: 0000 0000 0000 0000 0000 0000 0000 0000
000003d0: 0000 0000 0000 0000 0000 0000 0000 0000
000003e0: 0000 0000 0000 0000 0000 0000 0000 0000
000003f0: 0000 0000 0000 0000 0000 0000 0000 0000

base.mlp.fc_h.2.weight f4 [256]
1.0 1.0 1.0 1.0 1.0 1.0 1.0 1.0
1.0 1.0 1.0 1.0 1.0 1.0 1.0 1.0
1.0 1.0 1.0 1.0 1.0 1.0 1.0 1.0
1.0 1.0 1.0 1.0 1.0 1.0 1.0 1.0
1.0 1.0 1.0 1.0 1.0 1.0 1.0 1.0
1.0 1.0 1.0 1.0 1.0 1.0 1.0 1.0
1.0 1.0 1.0 1.0 1.0 1.0 1.0 1.0
1.0 1.0 1.0 1.0 1.0 1.0 1.0 1.0
1.0 1.0 1.0 1.0 1.0 1.0 1.0 1.0
1.0 1.0 1.0 1.0 1.0 1.0 1.0 1.0
1.0 1.0 1.0 1.0 1.0 1.0 1.0 1.0
1.0 1.0 1.0 1.0 1.0 1.0 1.0 1.0
1.0 1.0 1.0 1.0 1.0 1.0 1.0 1.0
1.0 1.0 1.0 1.0 1.0 1.0 1.0 1.0
1.0 1.0 1.0 1.0 1.0 1.0 1.0 1.0
1.0 1.0 1.0 1.0 1.0 1.0 1.0 1.0
1.0 1.0 1.0 1.0 1.0 1.0 1.0 1.0
1.0 1.0 1.0 1.0 1.0 1.0 1.0 1.0
1.0 1.0 1.0 1.0 1.0 1.0 1.0 1.0
1.0 1.0 1.0 1.0 1.0 1.0 1.0 1.0
1.0 1.0 1.0 1.0 1.0 1.0 1.0 1.0
1.0 1.0 1.0 1.0 1.0 1.0 1.0 1.0
1.0 1.0 1.0 1.0 1.0 1.0 1.0 1.0
1.0 1.0 1.0 1.0 1.0 1.0 1.0 1.0
1.0 1.0 1.0 1.0 1.0 1.0 1.0 1.0
1.0 1.0 1.0 1.0 1.0 1.0 1.0 1.0
1.0 1.0 1.0 1.0 1.0 1.0 1.0 1.0
1.0 1.0 1.0 1.0 1.0 1.0 1.0 1.0
1.0 1.0 1.0 1.0 1.0 1.0 1.0 1.0
1.0 1.0 1.0 1.0 1.0 1.0 1.0 1.0
1.0 1.0 1.0 1.0 1.0 1.0 1.0 1.0
1.0 1.0 1.0 1.0 1.0 1.0 1.0 1.0
00000000: 0000 803f 0000 803f 0000 803f 0000 803f
00000010: 0000 803f 0000 803f 0000 803f 0000 803f
00000020: 0000 803f 0000 803f 0000 803f 0000 803f
00000030: 0000 803f 0000 803f 0000 803f 0000 803f
00000040: 0000 803f 0000 803f 0000 803f 0000 803f
00000050: 0000 803f 0000 803f 0000 803f 0000 803f
00000060: 0000 803f 0000 803f 0000 803f 0000 803f
00000070: 0000 803f 0000 803f 0000 803f 0000 803f
00000080: 0000 803f 0000 803f 0000 803f 0000 803f
00000090: 0000 803f 0000 803f 0000 803f 0000 803f
000000a0: 0000 803f 0000 803f 0000 803f 0000 803f
000000b0: 0000 803f 0000 803f 0000 803f 0000 803f
000000c0: 0000 803f 0000 803f 0000 803f 0000 803f
000000d0: 0000 803f 0000 803f 0000 803f 0000 803f
000000e0: 0000 803f 0000 803f 0000 803f 0000 803f
000000f0: 0000 803f 0000 803f 0000 803f 0000 803f
00000100: 0000 803f 0000 803f 0000 803f 0000 803f
00000110: 0000 803f 0000 803f 0000 803f 0000 803f
00000120: 0000 803f 0000 803f 0000 803f 0000 803f
00000130: 0000 803f 0000 803f 0000 803f 0000 803f
00000140: 0000 803f 0000 803f 0000 803f 0000 803f
00000150: 0000 803f 0000 803f 0000 803f 0000 803f
00000160: 0000 803f 0000 803f 0000 803f 0000 803f
00000170: 0000 803f 0000 803f 0000 803f 0000 803f
00000180: 0000 803f 0000 803f 0000 803f 0000 803f
00000190: 0000 803f 0000 803f 0000 803f 0000 803f
000001a0: 0000 803f 0000 803f 0000 803f 0000 803f
000001b0: 0000 803f 0000 803f 0000 803f 0000 803f
000001c0: 0000 803f 0000 803f 0000 803f 0000 803f
000001d0: 0000 803f 0000 803f 0000 803f 0000 803f
000001e0: 0000 803f 0000 803f 0000 803f 0000 803f
000001f0: 0000 803f 0000 803f 0000 803f 0000 803f
00000200: 0000 803f 0000 803f 0000 803f 0000 803f
00000210: 0000 803f 0000 803f 0000 803f 0000 803f
00000220: 0000 803f 0000 803f 0000 803f 0000 803f
00000230: 0000 803f 0000 803f 0000 803f 0000 803f
00000240: 0000 803f 0000 803f 0000 803f 0000 803f
00000250: 0000 803f 0000 803f 0000 803f 0000 803f
00000260: 0000 803f 0000 803f 0000 803f 0000 803f
00000270: 0000 803f 0000 803f 0000 803f 0000 803f
00000280: 0000 803f 0000 803f 0000 803f 0000 803f
00000290: 0000 803f 0000 803f 0000 803f 0000 803f
000002a0: 0000 803f 0000 803f 0000 803f 0000 803f
000002b0: 0000 803f 0000 803f 0000 803f 0000 803f
000002c0: 0000 803f 0000 803f 0000 803f 0000 803f
000002d0: 0000 803f 0000 803f 0000 803f 0000 803f
000002e0: 0000 803f 0000 803f 0000 803f 0000 803f
000002f0: 0000 803f 0000 803f 0000 803f 0000 803f
00000300: 0000 803f 0000 803f 0000 803f 0000 803f
00000310: 0000 803f 0000 803f 0000 803f 0000 803f
00000320: 0000 803f 0000 803f 0000 803f 0000 803f
00000330: 0000 803f 0000 803f 0000 803f 0000 803f
00000340: 0000 803f 0000 803f 0000 803f 0000 803f
00000350: 0000 803f 0000 803f 0000 803f 0000 803f
00000360: 0000 803f 0000 803f 0000 803f 0000 803f
00000370: 0000 803f 0000 803f 0000 803f 0000 803f
00000380: 0000 803f 0000 803f 0000 803f 0000 803f
00000390: 0000 803f 0000 803f 0000 803f 0000 803f
000003a0: 0000 803f 0000 803f 0000 803f 0000 803f
000003b0: 0000 803f 0000 803f 0000 803f 0000 803f
000003c0: 0000 803f 0000 803f 0000 803f 0000 803f
000003d0: 0000 803f 0000 803f 0000 803f 0000 803f
000003e0: 0000 803f 0000 803f 0000 803f 0000 803f
000003f0: 0000 803f 0000 803f 0000 803f 0000 803f

base.mlp.fc_h.2.bias f4 [256]
0.0 0.0 0.0 0.0 0.0 0.0 0.0 0.0
0.0 0.0 0.0 0.0 0.0 0.0 0.0 0.0
0.0 0.0 0.0 0.0 0.0 0.0 0.0 0.0
0.0 0.0 0.0 0.0 0.0 0.0 0.0 0.0
0.0 0.0 0.0 0.0 0.0 0.0 0.0 0.0
0.0 0.0 0.0 0.0 0.0 0.0 0.0 0.0
0.0 0.0 0.0 0.0 0.0 0.0 0.0 0.0
0.0 0.0 0.0 0.0 0.0 0.0 0.0 0.0
0.0 0.0 0.0 0.0 0.0 0.0 0.0 0.0
0.0 0.0 0.0 0.0 0.0 0.0 0.0 0.0
0.0 0.0 0.0 0.0 0.0 0.0 0.0 0.0
0.0 0.0 0.0 0.0 0.0 0.0 0.0 0.0
0.0 0.0 0.0 0.0 0.0 0.0 0.0 0.0
0.0 0.0 0.0 0.0 0.0 0.0 0.0 0.0
0.0 0.0 0.0 0.0 0.0 0.0 0.0 0.0
0.0 0.0 0.0 0.0 0.0 0.0 0.0 0.0
0.0 0.0 0.0 0.0 0.0 0.0 0.0 0.0
0.0 0.0 0.0 0.0 0.0 0.0 0.0 0.0
0.0 0.0 0.0 0.0 0.0 0.0 0.0 0.0
0.0 0.0 0.0 0.0 0.0 0.0 0.0 0.0
0.0 0.0 0.0 0.0 0.0 0.0 0.0 0.0
0.0 0.0 0.0 0.0 0.0 0.0 0.0 0.0
0.0 0.0 0.0 0.0 0.0 0.0 0.0 0.0
0.0 0.0 0.0 0.0 0.0 0.0 0.0 0.0
0.0 0.0 0.0 0.0 0.0 0.0 0.0 0.0
0.0 0.0 0.0 0.0 0.0 0.0 0.0 0.0
0.0 0.0 0.0 0.0 0.0 0.0 0.0 0.0
0.0 0.0 0.0 0.0 0.0 0.0 0.0 0.0
0.0 0.0 0.0 0.0 0.0 0.0 0.0 0.0
0.0 0.0 0.0 0.0 0.0 0.0 0.0 0.0
0.0 0.0 0.0 0.0 0.0 0.0 0.0 0.0
0.0 0.0 0.0 0.0 0.0 0.0 0.0 0.0
00000000: 0000 0000 0000 0000 0000 0000 0000 0000
00000010: 0000 0000 0000 0000 0000 0000 0000 0000
00000020: 0000 0000 0000 0000 0000 0000 0000 0000
00000030: 0000 0000 0000 0000 0000 0000 0000 0000
00000040: 0000 0000 0000 0000 0000 0000 0000 0000
00000050: 0000 0000 0000 0000 0000 0000 0000 0000
00000060: 0000 0000 0000 0000 0000 0000 0000 0000
00000070: 0000 0000 0000 0000 0000 0000 0000 0000
00000080: 0000 0000 0000 0000 0000 0000 0000 0000
00000090: 0000 0000 0000 0000 0000 0000 0000 0000
000000a0: 0000 0000 0000 0000 0000 0000 0000 0000
000000b0: 0000 0000 0000 0000 0000 0000 0000 0000
000000c0: 0000 0000 0000 0000 0000 0000 0000 0000
000000d0: 0000 0000 0000 0000 0000 0000 0000 0000
000000e0: 0000 0000 0000 0000 0000 0000 0000 0000
000000f0: 0000 0000 0000 0000 0000 0000 0000 0000
00000100: 0000 0000 0000 0000 0000 0000 0000 0000
00000110: 0000 0000 0000 0000 0000 0000 0000 0000
00000120: 0000 0000 0000 0000 0000 0000 0000 0000
00000130: 0000 0000 0000 0000 0000 0000 0000 0000
00000140: 0000 0000 0000 0000 0000 0000 0000 0000
00000150: 0000 0000 0000 0000 0000 0000 0000 0000
00000160: 0000 0000 0000 0000 0000 0000 0000 0000
00000170: 0000 0000 0000 0000 0000 0000 0000 0000
00000180: 0000 0000 0000 0000 0000 0000 0000 0000
00000190: 0000 0000 0000 0000 0000 0000 0000 0000
000001a0: 0000 0000 0000 0000 0000 0000 0000 0000
000001b0: 0000 0000 0000 0000 0000 0000 0000 0000
000001c0: 0000 0000 0000 0000 0000 0000 0000 0000
000001d0: 0000 0000 0000 0000 0000 0000 0000 0000
000001e0: 0000 0000 0000 0000 0000 0000 0000 0000
000001f0: 0000 0000 0000 0000 0000 0000 0000 0000
00000200: 0000 0000 0000 0000 0000 0000 0000 0000
00000210: 0000 0000 0000 0000 0000 0000 0000 0000
00000220: 0000 0000 0000 0000 0000 0000 0000 0000
00000230: 0000 0000 0000 0000 0000 0000 0000 0000
00000240: 0000 0000 0000 0000 0000 0000 0000 0000
00000250: 0000 0000 0000 0000 0000 0000 0000 0000
00000260: 0000 0000 0000 0000 0000 0000 0000 0000
00000270: 0000 0000 0000 0000 0000 0000 0000 0000
00000280: 0000 0000 0000 0000 0000 0000 0000 0000
00000290: 0000 0000 0000 0000 0000 0000 0000 0000
000002a0: 0000 0000 0000 0000 0000 0000 0000 0000
000002b0: 0000 0000 0000 0000 0000 0000 0000 0000
000002c0: 0000 0000 0000 0000 0000 0000 0000 0000
000002d0: 0000 0000 0000 0000 0000 0000 0000 0000
000002e0: 0000 0000 0000 0000 0000 0000 0000 0000
000002f0: 0000 0000 0000 0000 0000 0000 0000 0000
00000300: 0000 0000 0000 0000 0000 0000 0000 0000
00000310: 0000 0000 0000 0000 0000 0000 0000 0000
00000320: 0000 0000 0000 0000 0000 0000 0000 0000
00000330: 0000 0000 0000 0000 0000 0000 0000 0000
00000340: 0000 0000 0000 0000 0000 0000 0000 0000
00000350: 0000 0000 0000 0000 0000 0000 0000 0000
00000360: 0000 0000 0000 0000 0000 0000 0000 0000
00000370: 0000 0000 0000 0000 0000 0000 0000 0000
00000380: 0000 0000 0000 0000 0000 0000 0000 0000
00000390: 0000 0000 0000 0000 0000 0000 0000 0000
000003a0: 0000 0000 0000 0000 0000 0000 0000 0000
000003b0: 0000 0000 0000 0000 0000 0000 0000 0000
000003c0: 0000 0000 0000 0000 0000 0000 0000 0000
000003d0: 0000 0000 0000 0000 0000 0000 0000 0000
000003e0: 0000 0000 0000 0000 0000 0000 0000 0000
000003f0: 0000 0000 0000 0000 0000 0000 0000 0000
